gan4hep/onnx/data/models/cluster_decayer.onnx (onnx, 283410 bytes, 10 tensors)

StatefulPartitionedCall/Generator/dense_5/MatMul/ReadVariableOp:0 f4 [256, 3]
00000000: 8e85 a6bc 7773 0abe de63 12be 37f1 f13c
00000010: 15c1 453c 249e a93d 0249 ce3c d289 d43d
00000020: 441f 6ebd 8733 ad3d aa31 03be c02f c6bc
00000030: 5a9a abbd 638c 09bd 5b8b 70bd 0507 42bd
00000040: 1b64 113d ada3 93bc 9fe6 f739 a4e2 42bd
00000050: dcc5 a33d b533 6bbb b493 67bd d96c 81bd
00000060: f1db 523d de3d 023c e2f2 fa3d eaa7 4c3c
00000070: 9839 ccbd 40a2 9d3c 201b 593d b53c b93d
00000080: a0a0 05bc 89c7 39bc 2f0f 8f3d 7bd9 733d
00000090: ec31 44bd afc4 ef3d 8d9e 08bc 1933 08bd
000000a0: dc71 48bb e9e9 82bd fc7c 3b3d 29a9 82bd
000000b0: 9569 66bc 2311 c4bc cf8e 89bb 03aa 3abc
000000c0: 22a5 b9bc aac3 3ebd c9cc cb3b 16b9 a1bd
000000d0: ceeb 8dbc 51cf 7abd b0c6 0f3c 1aab b9bc
000000e0: d646 8e3d 7190 a63c ed25 83bb 8e4b fbbb
000000f0: 4dd9 68bd ed54 b8bd 16fa 3f3b b6db 0f3d
00000100: 23a6 a43c aaee 35bd 609d e43a a801 d7ba
00000110: ed09 6d3a 26c0 0d3d b943 073d f9ec bc3d
00000120: d5f4 993b 26d9 d33a 887a 753d c274 4bb9
00000130: f11e a63a d6d6 3f3c ebba 013d 72e8 4ebd
00000140: 5228 d0bc 1380 b33c 169d 96bd 73ff ecbc
00000150: e141 8fbd b720 26bd a68a 82bc 29b5 bf3c
00000160: 208b 25bd 0859 9ebd 005d 7ebc 3035 53bd
00000170: 30bd 5e3d 1d94 ab3c 71fb b53d 514c a73d
00000180: 9778 8b3d beef d1bd 9259 653d 0930 9ebd
00000190: ed65 9abd 7a9d 083e 1aef 49bc 522c 0d3e
000001a0: c379 77bd 4ca1 f03b 4dbf cbbd 37c9 6b3d
000001b0: ce63 0e3d 3081 cd3d b774 a0bd fb35 45bd
000001c0: f48d 82bd 38fd 81bd fd48 5a3a 114b e93c
000001d0: f149 42bb b50b 7b3c c5f9 d33a 9970 863d
000001e0: 92c3 e13b 922f 87bb adf4 573c e751 02bd
000001f0: 80dd 87bd 4343 2fbc 4982 50bd bf76 80bd
00000200: 7c54 833d 850e abbd 0c32 99bd 1d8a 00bd
00000210: a37e 933c bae7 d83d 4436 8fbd 9837 6f3c
00000220: cb25 323d 06d8 76bc 14d4 9f3d 83e8 e93d
00000230: 1a10 f63d e2a8 6a3d 1a78 e53c 00cd b3bb
00000240: bbc4 b13b 825f bb3d 6406 7f3d 510c 5d3d
00000250: d96a 12bd e6c7 8d3d 29f7 a0bc 18f8 16bd
00000260: 5555 e6bc b390 a73c 63b7 543d b38a fd3b
00000270: 1bd1 043c 1598 67bd 849b 023c 8c4f afbd
00000280: df71 483d 0ac2 3e3d a2e2 e93c b3ac cabc
00000290: efb9 c63d b9b2 6e3d 6103 cdbc 504d 5dbd
000002a0: 58ee a43a 395a ac3c 49d4 e23d 7bb7 0e3d
000002b0: 41a3 23ba 4bdb c23c be7a 96bc f068 e1bc
000002c0: fe92 9e3d 9708 883d 29a1 2a3d 0efc 153d
000002d0: bf62 97bc 6751 09bd 215c a83c 1f46 fa3c
000002e0: aa42 9c3d 1432 4c3d c4bb f73d 9395 e23d
000002f0: 0559 d43d c77c 8b3d 0e0e e0bd 326c ac3b
00000300: d598 8ebd 69f9 f3bd a9a6 afbd 334e 8e3b
00000310: e49c 2c3d 85f4 c33c 3515 3bbc c357 eabd
00000320: 1b98 043d ebcb 9e3c 897e e33c 19d7 073c
00000330: 7cef d53c 81c0 c23d cf06 74bd fa05 7c3c
00000340: 0f0e c8bd d716 ccbd 9e29 12bd 6a5b 0cbe
00000350: 4a20 26bd c930 28bd 454a d2bd 4c4f c7bd
00000360: 80f1 07bd 39d4 013e 8a38 293c 528e 3b3d
00000370: dfd9 c7bd 9bd1 273d 2d5b 563d a50d 1d3d
00000380: 6880 963d 7678 9b3d 570e 583d 3b7f 32bd
00000390: 6155 423a f89e c0bd 7487 09bd e8fd 383d
000003a0: 920b e5bd be68 8cbd d9e7 8b3d fbb2 cb3d
000003b0: a557 48bc 8a6a 3d3d 0877 a43d 1381 d43d
000003c0: 2953 0a3c 4220 763d 3712 dabd e891 7fbd
000003d0: 0211 a83d ddc8 03bd 01bd 4d3d d743 38bd
000003e0: eeec b03d 46f3 163c 03e3 cd3a 9e3e 9cbc
000003f0: 6084 743d de86 e03d cf15 ccbd df97 4e3c
-0.020327356 -0.13520609 -0.14295909 0.029533966 0.01206996 0.08282116 0.025181297 0.1037785
-0.058135286 0.08457094 -0.12811914 -0.02419269 -0.083790496 -0.03358115 -0.05872665 -0.047369976
0.03549586 -0.018022383 0.00047283337 -0.047579423 0.07996723 -0.0035888974 -0.056537345 -0.06319589
0.051479284 0.007949321 0.122533575 0.012491206 -0.09971923 0.019242406 0.053004384 0.09044782
-0.008155972 -0.011339077 0.06985318 0.059533577 -0.04789917 0.11707436 -0.008338583 -0.033251856
-0.0030585444 -0.06392271 0.04577349 -0.06379921 -0.014063259 -0.023933953 -0.0041979323 -0.011393073
-0.02266175 -0.04657332 0.0062194807 -0.078966305 -0.017324354 -0.06123287 0.008775398 -0.022664595
0.06947105 0.020332547 -0.004002324 -0.007668919 -0.05684786 -0.09000573 0.002929335 0.035121642
0.020098751 -0.04441706 0.0017441921 -0.0016403692 0.00090423116 0.034607075 0.03302357 0.092248864
0.0046983757 0.0016162738 0.059931308 -0.00019403084 0.0012674016 0.011708936 0.0316724 -0.050514646
-0.025409851 0.021911656 -0.073541805 -0.028930401 -0.06994987 -0.040558543 -0.015935253 0.023401814
-0.040415883 -0.07731825 -0.015525103 -0.051564395 0.054379642 0.02094465 0.08885849 0.08168853
0.0681011 -0.10250805 0.055993624 -0.07724006 -0.07538972 0.13341323 -0.012325073 0.13786438
-0.060418855 0.007343447 -0.09948597 0.05756494 0.03476315 0.10034406 -0.078347616 -0.048147183
-0.06374732 -0.06347126 0.0008326916 0.028478177 -0.0029646123 0.015322615 0.001617246 0.06564445
0.006889769 -0.004125544 0.013180894 -0.03181639 -0.06634045 -0.010697189 -0.0509055 -0.06272649
0.064125985 -0.08352379 -0.07480249 -0.031381715 0.018004721 0.10591073 -0.06992772 0.014600657
0.043493073 -0.015066152 0.078041226 0.11421301 0.1201479 0.057289965 0.02801137 -0.0054870844
0.0054250634 0.09149076 0.062261954 0.053966824 -0.03574643 0.06922893 -0.019649105 -0.036857694
-0.028116861 0.02045474 0.051932704 0.0077374815 0.008106495 -0.05654152 0.007971648 -0.08560094
0.04893672 0.04657177 0.02855045 -0.024740553 0.09703433 0.058275912 -0.025026025 -0.05402881
0.0012583239 0.021039115 0.110756464 0.03484295 -0.0006242283 0.023786208 -0.018369075 -0.027515858
0.0774288 0.066422634 0.0416576 0.03661733 -0.018479703 -0.033524897 0.020551743 0.030551014
0.07629903 0.049852446 0.1209636 0.11063685 0.10368542 0.06810909 -0.10940181 0.0052619213
-0.06962744 -0.119128056 -0.0857671 0.004342818 0.04214181 0.023920307 -0.01141863 -0.114425205
0.03237162 0.019384345 0.027770298 0.008291029 0.026115172 0.095093735 -0.059576806 0.015382284
-0.097683065 -0.09965294 -0.03568422 -0.13706747 -0.040558137 -0.04106215 -0.10268072 -0.097319216
-0.033189297 0.12678613 0.010328421 0.045790024 -0.097583525 0.04097138 0.052333046 0.03834309
0.0734871 0.075913355 0.05274805 -0.043578368 0.0007413235 -0.09405321 -0.033576444 0.04516402
-0.111838475 -0.068559155 0.06831331 0.09946247 -0.012227927 0.04624418 0.08030516 0.103761815
0.0084426785 0.060089357 -0.106480055 -0.062395006 0.08206369 -0.03217398 0.050229076 -0.044986572
0.08638941 0.009213274 0.0015707914 -0.019072827 0.059696555 0.10963224 -0.09965097 0.012609451

StatefulPartitionedCall/Generator/dense_5/BiasAdd/ReadVariableOp:0 f4 [3]
00000000: f98e a63c 48f9 b9bb bb43 81be
0.020331847 -0.0056754686 -0.25246987

StatefulPartitionedCall/Generator/dense_4/MatMul/ReadVariableOp:0 f4 [256, 256]
00000000: 615f 1dbd 42cb 203b 67e9 d0bb 489b 3d3d
00000010: ed3a d8bd 7676 0ebd 046b 803d 1d9e 1ebd
00000020: 20f9 ea3c 952a 013d a681 84bb aa89 673d
00000030: 9cd7 6f3d 45a5 f3bd ea31 e83d ec90 32be
00000040: bf35 9b3d 4a01 e4bd ba2d ac3c c9e2 2cbc
00000050: d78f babd 8112 a63d 3c8f d03d 0710 543d
00000060: ac82 7b3d fd18 bdbd 06cc 9d3d 9752 7bbb
00000070: f5b7 643d 427f 4d3d d88c 383d f880 d13d
00000080: eb40 9fbd 74ea eebd 8a8d a7bb 5379 eabd
00000090: 1e64 17bd 9b18 8dbd 9047 1b3d 432d fabb
000000a0: 1528 cabd 54a9 84bc 2195 53bd 1617 e13c
000000b0: 66b0 e23d 6cf4 7bbd 3fab 5c3d 1bdb 173d
000000c0: 29d4 f73c db35 0f3e 19b9 733d f22e d33d
000000d0: 2bd8 c1bd 13ec 073d 51de 243c c229 c6bd
000000e0: 8410 533d 27bb 07bd 80d9 88bd 6469 8bbd
000000f0: 923f 08bd 3e94 50bd ba8d a6bd 46ed 36bd
00000100: 6102 04bd 9836 b33d 5770 febc 0537 e13d
00000110: 3d4d 99bd 362a 12bd 795a 72bd 2d94 d1bd
00000120: 03d4 61bd ac7d b9bd de6f f9bd 39f9 a93c
00000130: fe6e 92bd 4abf 89ba b977 b0bd b42b 94bd
00000140: 39f7 16bb 8944 9cbd 47e8 043e 727d 053c
00000150: 3947 cf3d b045 193d 6152 61bd 4a87 13be
00000160: b4ba 933d 58da 8dbc 19e0 64bd e5b5 ea3c
00000170: cbf1 17bc 19f0 d9bd 1020 88bc 96f3 d93d
00000180: 05c1 e3bc e04f a83d 4fb8 a3bd 245e bd3d
00000190: 86d2 fa3d d780 c4bb 18b8 8c3c 7352 b0bd
000001a0: d02c 223b 0805 b53d 26e2 8fbd 70bb 8d3d
000001b0: f1c3 dabd 538a e53c 8f0e bdbd c898 acbd
000001c0: b885 003e f1c0 2c3e 9e72 52bc 87fe cb3d
000001d0: b1e7 2a3d 9a26 2abe e1f8 b7bd 8219 84bd
000001e0: 851d 333d deb1 1d3d 3605 813d fae9 533d
000001f0: dae3 903b ab29 003e 47c6 b83d c59d 363d
00000200: d599 de3c 4259 073e 6934 4c3d aee8 6abd
00000210: ff56 31bd 9b05 c73b dfe8 053e 5908 9f3d
00000220: df08 803c 0dbf 923d 5da8 713d 1e2a b83d
00000230: 6277 5d3d 6c14 febd a617 fbbd 7911 6dbc
00000240: 4c36 cd3d bfd4 853b fd18 04bd 4969 89bd
00000250: 5591 b3bd f25f 283e 3c85 a33d f815 693b
00000260: ea54 cdbc 63a0 53bd ec75 8fbd fa2e 32be
00000270: 0877 c33d 79c8 c7bc fae7 90bb 3554 cdbc
00000280: 378c 7d3d 75db cabd 36d6 c8bd 61b9 ad3b
00000290: 22b3 b2bc 475f 5dbd c47d 203d 40c7 7d3d
000002a0: 6b53 223c 842b d53d a44e 453d 4924 e9bd
000002b0: 3675 383d 6ed5 a83d 2015 bc3a 2614 fabc
000002c0: a384 f3bc 0922 15bc faba 1f3c a3a7 463c
000002d0: 5314 0bbc cc37 9dbd 03d4 f53d 22e9 3ebd
000002e0: e39d 203d 42a3 ccbc fe32 003e b3ee 9d3c
000002f0: 5b54 883d 7c3a 14bd 825c 21bd 8a38 f53d
00000300: 8967 d43d e9ca 81bd ebf7 793c e05f 703d
00000310: 2ed3 c5bd 04a1 44bd c3f9 dbbd 80be adbd
00000320: 1ba2 1e3d fc28 553e f60e c7bc eea7 d53b
00000330: 0268 abbd bc52 39be 6d54 5ebd 93d5 163d
00000340: d400 8a3c dbb8 953d a088 14bd 2d93 5f3d
00000350: 4f41 f4bd 5aff 013d 23fc c73c 7244 d23d
00000360: d200 1ebe 0996 923d b9f5 54bd 5622 2bbd
00000370: 7c8f 3f3e 941c c13b 0f54 063d 0196 ac3d
00000380: a790 7bbd ff21 1ebd edf5 e1bb 423a 0dbd
00000390: cc83 87bd 46a9 e6bc 47a5 3f3c 1966 8fbd
000003a0: 4ca0 c03c 5d65 8d3d 6dd6 503e 070e a7bd
000003b0: 3efa ebbd 0689 dc3c 1460 79bc 6539 7bbd
000003c0: 6173 d1bd bebe 8c3d 3ece 63bd 5125 343d
000003d0: 6a02 c0bc abab cabd b448 883d fda8 e8bb
000003e0: 130c 80bd 75b3 943c 7189 43bc 3fa2 f4bd
000003f0: 107d 7b3d 18aa 9abd 6355 cc3c 7229 bc3d
-0.03842104 0.0024535214 -0.00637548 0.046290666 -0.10558114 -0.034780942 0.062704116 -0.038725007
0.028683245 0.03153475 -0.0040437756 0.05652777 0.05855523 -0.11896757 0.11337645 -0.17438096
0.07578611 -0.11133058 0.021017898 -0.010552117 -0.091094665 0.08108998 0.1018357 0.051773097
0.061403915 -0.09233282 0.0770493 -0.0038348788 0.055839498 0.05017019 0.045056194 0.10229677
-0.07776054 -0.11665812 -0.0051133083 -0.11448922 -0.036960714 -0.06889459 0.037910044 -0.00763479
-0.09870926 -0.016194023 -0.051655892 0.027476829 0.110688016 -0.061512396 0.05387425 0.03707419
0.030252533 0.13985388 0.059502695 0.103116885 -0.09465059 0.033184122 0.01006277 -0.096759334
0.051529422 -0.033137467 -0.0668211 -0.06807211 -0.03326375 -0.050922625 -0.08132501 -0.044659875
-0.03222883 0.08750647 -0.031059427 0.10996822 -0.07485435 -0.035684787 -0.059168313 -0.102333404
-0.05513383 -0.09057173 -0.1217954 0.020748721 -0.07150076 -0.0010509279 -0.08616585 -0.07234898
-0.002303554 -0.076302595 0.12979232 0.008147584 0.101210065 0.037419975 -0.055010203 -0.14407077
0.07213345 -0.017316028 -0.05587778 0.028651187 -0.0092739565 -0.10641498 -0.016616851 0.106421635
-0.027802 0.0821836 -0.079941384 0.092464715 0.122471854 -0.005996804 0.017177626 -0.08609476
0.0024745949 0.0883885 -0.07025556 0.069205165 -0.10681904 0.02802006 -0.092312925 -0.08427578
0.1255101 0.16870476 -0.01284471 0.099606566 0.041724864 -0.16616288 -0.08983017 -0.06450178
0.043729324 0.038499705 0.06299822 0.05173681 0.0044216933 0.12515895 0.090221934 0.044584054
0.027172962 0.13217643 0.04985467 -0.057350807 -0.043295857 0.0060736663 0.13077115 0.07765264
0.01562923 0.07165346 0.058998454 0.08992408 0.05406893 -0.12406239 -0.1226037 -0.014469498
0.10020122 0.004084199 -0.032250393 -0.06709535 -0.08767954 0.1644285 0.07984397 0.0035566073
-0.025064904 -0.05166663 -0.07004914 -0.17400733 0.09544188 -0.024387585 -0.004422185 -0.025064567
0.061901297 -0.09905139 -0.098064825 0.00530164 -0.021813933 -0.05404594 0.03918244 0.061957598
0.009907584 0.104086906 0.0481707 -0.11383874 0.045033656 0.082438335 0.0014349557 -0.030527186
-0.029726332 -0.009102353 0.0097491685 0.012124929 -0.008488732 -0.07676658 0.12003329 -0.04660905
0.039213073 -0.024980191 0.12519452 0.01927886 0.066567145 -0.036188588 -0.039394863 0.119736746
0.1037131 -0.0633753 0.015256862 0.058685184 -0.0965942 -0.04800512 -0.10740998 -0.084836006
0.038728815 0.20816416 -0.024299126 0.006520263 -0.08369447 -0.18097967 -0.054279733 0.036824774
0.016846098 0.07310649 -0.03626311 0.054583717 -0.11926519 0.031737663 0.02441222 0.10266961
-0.1543 0.07157523 -0.051992152 -0.041780792 0.18707079 0.0058932994 0.03279501 0.084270485
-0.061417248 -0.03860664 -0.0068957717 -0.034479387 -0.06616935 -0.028156888 0.01169712 -0.070018955
0.023513936 0.06904099 0.20394297 -0.081569724 -0.11522339 0.026920807 -0.015220661 -0.061334033
-0.10227085 0.06872319 -0.05561661 0.0439809 -0.023438651 -0.09896024 0.06654492 -0.007100223
-0.06252303 0.018151978 -0.011934624 -0.119450085 0.061398566 -0.07551974 0.02494306 0.091875926

StatefulPartitionedCall/Generator/dense_4/BiasAdd/ReadVariableOp:0 f4 [256]
00000000: 310c bcb8 4c42 d437 481c efb7 f8d4 98b9
00000010: a5be 8137 cc91 3635 a2a1 86b8 f8d7 07b8
00000020: 3ea2 66b5 841e f638 95fb 6e38 3178 0f39
00000030: c1fc 8339 befe 33b8 0deb b238 6617 e137
00000040: 82c9 b138 ec9f 4ab7 f840 e2b6 7585 87b7
00000050: 9529 6eb7 e8af 8fb7 e826 06b7 2e2c 28b9
00000060: fb80 d7b7 e309 5936 fa0c 2538 0b4c 3738
00000070: 7622 b0b8 571c a1b8 d713 e7b7 76f5 60b7
00000080: 8953 3739 c567 a838 043a 0eb9 7600 d7b7
00000090: 7fee 03b8 4c55 6ab8 d144 4537 6b53 5d37
000000a0: 0e0d 00b8 7bc9 bab8 d5d3 cf38 7e24 ea38
000000b0: cc5a 8638 b73f c938 04a1 13b9 56b2 5fb8
000000c0: 9756 9b38 1c64 71b8 0c7b 4fb8 c227 4538
000000d0: ded7 5237 7967 ce38 ab70 5db7 11b8 2c38
000000e0: ee44 5038 c0cb 03b6 ca7b 0bb8 0a32 deb8
000000f0: e417 01b8 5b7e 33b8 c1fc e838 4171 0fb9
00000100: fe63 25b8 7434 ad38 8cbf 7f39 b410 8bb8
00000110: 3ea4 4cb8 a1c8 c438 356f 44b9 ac2f 6f38
00000120: 024a 9bb8 6dd5 1338 5a8d 40b8 dd63 abb7
00000130: 205a 6e38 a592 12b8 5d79 b4b7 b0a3 75b8
00000140: 65f3 bab7 cad7 2237 97d7 b137 c93a 88b7
00000150: a66a 89b9 65d3 ef38 cbcf f6b7 c8de a8b8
00000160: b5af beb8 2bf7 31b8 afc1 44b8 d6d0 8239
00000170: e308 9f39 4541 0db9 a4e6 feb8 3a04 7db9
00000180: 4631 8cb8 6930 83b8 7c87 a4b6 ad48 fd36
00000190: d198 2e38 baad 3c37 dbb0 8239 6f10 0838
000001a0: 5dc0 c037 72d7 a838 f153 63b7 f64c b637
000001b0: f1a4 8eb8 6324 1db9 4246 22b8 d337 8038
000001c0: 843d a2b7 236e 45b7 dc42 dbb7 29e5 32b8
000001d0: 75df 1439 f958 22b8 d097 8eb7 14af 52b8
000001e0: 30f6 2a39 7b72 6eb9 9a38 9038 b57e 90b7
000001f0: 2f5b 8537 763f a7b7 c827 ddb9 b66d 0938
00000200: 7cdd f4b8 0dea 9b38 f9cb ffb7 26ca e537
00000210: 0635 4437 91ba 6039 a190 b2b9 e01d 0638
00000220: e817 e537 3d94 7639 551a 19b8 84e5 c138
00000230: b4c7 9736 14f1 1b38 7def fe37 e326 ad37
00000240: f3ca a4b8 55cd 2a38 3c9a 8537 48c0 12b8
00000250: bac4 dab6 3754 7038 7ee5 44b9 054a 3db7
00000260: 18b6 cf37 3336 de38 0f08 aeb8 928f 0eb6
00000270: 18b5 b737 cd87 2f38 bfea 6cb8 b8d9 6db7
00000280: ed33 b838 eb43 9935 d17c cdb7 5d9e 0437
00000290: ac28 1fb8 3b5f a0b8 a4af a837 f268 afb8
000002a0: e7c5 e9b7 f1ba 8438 d235 b4b7 425a a737
000002b0: b7e7 9a38 6949 3639 0e16 5b37 bdd1 c437
000002c0: fcce 1eb7 8bd7 8cb7 ed91 4038 489b 84b8
000002d0: 648a feb6 c966 39b7 348a 3c38 6095 bfb9
000002e0: e871 bfb8 4217 de38 3652 6f37 0714 1138
000002f0: 5037 8c37 74e6 07b9 2c1d 8538 d001 b9b7
00000300: c43a 9eb9 dea9 5a39 768e 4639 8821 d237
00000310: ec57 9436 0d45 a837 11eb acb8 799d c737
00000320: 36b4 1238 9862 7337 4c41 8138 746a ecb8
00000330: cae3 4eb9 83b6 e2b7 2be5 02b9 3ddc 5d39
00000340: 9b8b 7d38 56e6 b638 38a6 c439 bd5b cd38
00000350: 93d7 a0b8 eb35 e7b7 86cc 9a36 d5bf 4637
00000360: 6d47 17b8 04a2 3cb9 04f4 3438 23fd 3b38
00000370: 1da5 5035 cb1f 1d38 c4b4 2038 efe5 7637
00000380: 2bf3 5ab7 1681 2939 7f99 3c39 0e31 95b8
00000390: 4764 8039 a2c1 03b8 9088 9b38 986e 98b7
000003a0: c972 0539 2909 c1b8 ca63 91b5 4d70 0a37
000003b0: 0c73 6c39 cb1c f0b8 a036 9ab8 e9bd 4c38
000003c0: 9bfb d9b9 530a 73b7 2b20 8739 7c0b acb8
000003d0: a599 f2b7 f031 c2b8 70d7 d739 201a f937
000003e0: bd34 a6b8 1d86 55b9 41a1 aeb8 40ee 1d37
000003f0: 7e4e 54b9 9ffe 2337 dff2 dbb8 13c0 93b8
-8.9668094e-05 2.5303241e-05 -2.850419e-05 -0.00029150373 1.5466774e-05 6.8012446e-07 -6.4197244e-05 -3.2387645e-05
-8.591777e-07 0.00011735878 5.6977926e-05 0.00013682318 0.00025174583 -4.2914173e-05 8.531483e-05 2.6832986e-05
8.4775515e-05 -1.2077373e-05 -6.742888e-06 -1.61554e-05 -1.4195587e-05 -1.7128841e-05 -7.996081e-06 -0.00016038187
-2.5690058e-05 3.2341275e-06 3.935115e-05 4.370142e-05 -8.398753e-05 -7.682357e-05 -2.7546585e-05 -1.3408591e-05
0.00017483359 8.030193e-05 -0.00013563788 -2.5630212e-05 -3.145495e-05 -5.5869386e-05 1.1758138e-05 1.3192049e-05
-3.0529736e-05 -8.9067e-05 9.909986e-05 0.00011164787 6.40653e-05 9.596295e-05 -0.00014078995 -5.333343e-05
7.4071046e-05 -5.755211e-05 -4.9467242e-05 4.7005487e-05 1.2567236e-05 9.842119e-05 -1.3198859e-05 4.117942e-05
4.965526e-05 -1.963912e-06 -3.325547e-05 -0.000105951054 -3.0778247e-05 -4.2794603e-05 0.00011109701 -0.00013679733
-3.943219e-05 8.259053e-05 0.00024390052 -6.631148e-05 -4.8790353e-05 9.383378e-05 -0.00018733444 5.702644e-05
-7.404761e-05 3.52463e-05 -4.590801e-05 -2.0431291e-05 5.6827557e-05 -3.4945686e-05 -2.1514186e-05 -5.8564998e-05
-2.2286267e-05 9.706195e-06 2.1200436e-05 -1.6239837e-05 -0.00026210136 0.000114357834 -2.9422246e-05 -8.0523605e-05
-9.092634e-05 -4.243028e-05 -4.6910423e-05 0.00024951127 0.00030333464 -0.00013471123 -0.00012154624 -0.00024129535
-6.684898e-05 -6.255584e-05 -4.9033533e-06 7.548448e-06 4.1627154e-05 1.1246122e-05 0.000249273 3.244023e-05
2.297776e-05 8.050994e-05 -1.35497985e-05 2.1731928e-05 -6.8018104e-05 -0.00014986242 -3.8689243e-05 6.113914e-05
-1.934055e-05 -1.1767758e-05 -2.6137968e-05 -4.265193e-05 0.00014197624 -3.8706672e-05 -1.6998412e-05 -5.0230956e-05
0.00016304175 -0.00022740096 6.876998e-05 -1.722514e-05 1.5897296e-05 -1.9937503e-05 -0.00042182044 3.276552e-05
-0.00011676081 7.434571e-05 -3.0493351e-05 2.739306e-05 1.1694856e-05 0.00021431806 -0.00034058563 3.1975913e-05
2.731006e-05 0.00023515611 -3.6502566e-05 9.245708e-05 4.523399e-06 3.71794e-05 3.039068e-05 2.0641315e-05
-7.8579316e-05 4.072239e-05 1.5926656e-05 -3.498819e-05 -6.5198083e-06 5.729889e-05 -0.00018777509 -1.1282512e-05
2.4761117e-05 0.0001059588 -8.2984676e-05 -2.1243218e-06 2.1899628e-05 4.1849726e-05 -5.648541e-05 -1.4176992e-05
8.783476e-05 1.1419155e-06 -2.4496027e-05 7.904685e-06 -3.7946433e-05 -7.6471326e-05 2.010895e-05 -8.364198e-05
-2.786792e-05 6.329071e-05 -2.1482734e-05 1.9949981e-05 7.3864525e-05 0.0001738422 1.3058552e-05 2.3462688e-05
-9.465726e-06 -1.678967e-05 4.591227e-05 -6.323174e-05 -7.5859007e-06 -1.1050791e-05 4.4951405e-05 -0.00036541652
-9.1288064e-05 0.00010590117 1.4264651e-05 3.4589346e-05 1.6715057e-05 -0.00012960454 6.347368e-05 -2.2054563e-05
-0.00030179892 0.0002085338 0.00018935822 2.5049565e-05 4.420979e-06 2.0059315e-05 -8.245384e-05 2.3795978e-05
3.4976947e-05 1.4506884e-05 6.163362e-05 -0.000112731854 -0.00019730549 -2.7026288e-05 -0.00012483138 0.00021158248
6.044992e-05 8.72134e-05 0.00037507876 9.792249e-05 -7.669548e-05 -2.7562453e-05 4.6133673e-06 1.1846384e-05
-3.6067726e-05 -0.00017989433 4.31426e-05 4.4820026e-05 7.772631e-07 3.7461326e-05 3.8315324e-05 1.4716278e-05
-1.30504295e-05 0.00016165184 0.00017986259 -7.114011e-05 0.00024488775 -3.141317e-05 7.416413e-05 -1.8171311e-05
0.00012726629 -9.2046634e-05 -1.0832384e-06 8.251588e-06 0.00022549572 -0.00011449455 -7.353467e-05 4.8814258e-05
-0.00041576926 -1.44863325e-05 0.00025773174 -8.203738e-05 -2.8920194e-05 -9.2599425e-05 0.0004116851 2.9695278e-05
-7.92532e-05 -0.00020363224 -8.3270024e-05 9.413401e-06 -0.00020247136 9.774841e-06 -0.00010487972 -7.045283e-05

StatefulPartitionedCall/Generator/dense_3/MatMul/ReadVariableOp:0 f4 [8, 256]
00000000: 9214 c33b d2c5 3f3c 70c3 2e3d 9c5a 50bd
00000010: daec e4bd 46ff e03d 01ed 8cbd 7b5a e9bc
00000020: f61d 863d 48a7 883c 7025 0d3d 3599 bb3d
00000030: e5c9 2fbe 2110 f4bd f714 d83d 919a 99bd
00000040: 108e ac3d 5b34 8d3c 6e98 f1bb 567f 92bd
00000050: 944c f13d cfde c5bd 4057 bb3c d9c8 433a
00000060: 535a b8bd ac31 25be 5d9a 33bd 4658 0cbf
00000070: 518c b33d 050d 97bc 329d 353d a097 64bd
00000080: 23cc 9e3d b6c1 a5bd 0082 5ebe 2a28 29be
00000090: a89d 98bd 3500 b0bc 5f05 c6bd 41dd d43c
000000a0: e80a 1c3e ea59 9b3d a828 a7bd 98a6 6ebd
000000b0: 112e 173e 4c94 e03d 0251 73bc f9f1 843c
000000c0: 79ee a2bd aa3e e03d 4b6e d13d 6bf1 33bd
000000d0: 9e01 693d a617 12bd e310 cabb d94b 9b3d
000000e0: 9d86 bebb 7efd e23d 606c 943c dcac 3b3d
000000f0: c9ed b0bc 4824 0ebe 6872 403c d0fb 0ebd
00000100: a9b1 a6bd 63fd 373c 001f ba3d 9140 be3b
00000110: 353e e6bd 42e1 06be db88 44bc c8e3 b13d
00000120: 235a fe3c d768 593c bec2 ac3d def9 4ebe
00000130: aa5f 21be 31cf 753c 772a d8bb e802 6dbd
00000140: 4e15 093e 047d b63c 7aa4 d9bc 745c 3dbc
00000150: 57b9 2ebc a63a a83c b0a0 1abe ba9e 78bc
00000160: ad80 cdbd 7e7d 8bbc ff30 ecbd ba1c c53c
00000170: af1f 823d c89f af3d 7d4e 94be f9ea 99bd
00000180: 1c26 243e 5a76 23bb d3c5 ca3d b924 7e3e
00000190: 7878 8c3d 3cae 31bd 1f96 7abc f9d4 babc
000001a0: 2ba6 63be 389c 8fbc 4a31 9abd 1384 193d
000001b0: 617b dcbd 45f0 9ebd c78c 7bbd dbff 72bd
000001c0: 4ff9 f9bd a23a 17be 7411 1e3e aece 383d
000001d0: bb33 8a3d 7fc1 a53c d506 1cbe cd77 d33d
000001e0: 6521 ae3c edad c5bd 77b8 2e3d 5b85 da3c
000001f0: d27a b93c 7cad 35be 7f36 a5bd e1bd adbc
00000200: 466d c6bc eb10 233d bb6d e53c 4516 9e3d
00000210: 6a9e f7bd 91a9 33bd 59ea e43d 16c0 d2bc
00000220: 23d9 553d 3413 93bc b4e2 3b3e 9cbb ca3c
00000230: 4064 8e3c ee54 f4be aa67 ff3d 1e9c 823d
00000240: 0573 cbbe 97ee e5bb 7a7b 9dbe 3247 e7bb
00000250: 9bbd 8bbc 1e8a b53d 4768 f6bd 3428 673c
00000260: 4326 90bd ea04 b5bb eb48 6abe e8f8 973d
00000270: 30e7 aebd cc61 3cbe 41b5 453d 3ec5 37be
00000280: cc67 a0bc 3380 7dbe 87bf 75be b248 9b3d
00000290: 3068 8bbd c1f3 78be 4b3b bbbd 782c 18be
000002a0: 24f4 8dbc ddbd 223d 1667 0fbe 83b6 e3bc
000002b0: 7140 713d b309 a73c fa26 00bd 9d0f 46bd
000002c0: e1a7 12be 8712 023e 8808 8d3c b0c4 9cbd
000002d0: 20dd 523c 6556 d6bd 227b b9bd de8b b5bd
000002e0: 19b9 2139 1a34 e73d 4bab b83b ae15 403c
000002f0: 6b32 82be 4d33 f7bd db9c 843c 8f2f 5e3d
00000300: 2bea 38be 54b7 383c d4fb 91bd 58c2 a7bd
00000310: 3ea3 853c ef46 18bd ba36 a23c f946 56be
00000320: 1e21 56bd 8fad 3a3d 813c 8c3d 4e14 4cbd
00000330: cd9a 5bbe a5b9 ec3d 3272 74bd 4020 32be
00000340: 30bc dfbd 32ef aabd ee33 183d a741 a3bd
00000350: 1de0 83bd 66fc 963d 6538 a83d eb84 17bd
00000360: 177e bf3c a5fa 4a3e 1ab2 e0bd 6839 64bd
00000370: a3bb 4a3c f4e5 f4be 70d9 97bd a55b 8ebd
00000380: 0eeb 5abe 2d9e 8cbd de46 3c3d e731 0a3e
00000390: 8f5f 3abc bce8 223d c877 e53d 58c4 283c
000003a0: 647a 1ebe a309 a0be 9224 4fbd c017 243d
000003b0: 5468 ee3c 1988 253e 4630 383e 9286 c2bd
000003c0: 3969 2fba df7d 333c 99c2 1f3e 53fc 88bc
000003d0: 7aed e2bd fd56 833d a1bd 1e3d 2a65 50bd
000003e0: a32b da3d bf93 1abd 85a0 9f3d 2da3 fcbd
000003f0: 6eca 9f3c b9ba 33bd b3fb a4bc a06e 4e3c
0.00595338 0.011704879 0.042666852 -0.05086766 -0.11177988 0.109861895 -0.068811424 -0.028485527
0.06548683 0.016681328 0.03445953 0.09160081 -0.1716686 -0.11917139 0.10550874 -0.07500184
0.08425534 0.01723688 -0.0073729074 -0.07153194 0.11782184 -0.09661638 0.022868752 0.00074685883
-0.09001603 -0.1613223 -0.043848384 -0.54822195 0.087669976 -0.018438825 0.044339366 -0.055808663
0.0775378 -0.08093588 -0.21729279 -0.16519228 -0.074519455 -0.021484474 -0.09668993 0.025984408
0.15238535 0.07585509 -0.081620514 -0.058264345 0.14763667 0.109657854 -0.014850857 0.016228663
-0.07955641 0.10949452 0.10226115 -0.043931406 0.056886308 -0.035667084 -0.006166564 0.07582826
-0.005814387 0.11083506 0.018118083 0.04581915 -0.02159776 -0.13881028 0.011746027 -0.034908116
-0.08139355 0.011229846 0.09087944 0.0058060368 -0.11242334 -0.13171867 -0.0119955195 0.08686024
0.03104884 0.013269625 0.084355816 -0.20212504 -0.15759149 0.015003012 -0.006596859 -0.0578641
0.13387033 0.022276409 -0.026567686 -0.011557687 -0.010664306 0.020535778 -0.1510036 -0.015174562
-0.100343086 -0.017027613 -0.11532783 0.02406155 0.063536994 0.08575398 -0.28966132 -0.075155206
0.16030163 -0.002494237 0.09901013 0.24818696 0.06858915 -0.043379053 -0.015294581 -0.022806631
-0.22231357 -0.017530546 -0.075289324 0.03747947 -0.1076572 -0.077606715 -0.061413553 -0.059326034
-0.12205755 -0.1476846 0.15436345 0.04511898 0.06748148 0.020233868 -0.15236981 0.103255846
0.021256158 -0.09652314 0.042656388 0.026674917 0.022641573 -0.1774196 -0.08067035 -0.021208705
-0.024222028 0.039811056 0.028006425 0.07719091 -0.12090762 -0.043862883 0.11177511 -0.02572636
0.05220903 -0.017953493 0.18348199 0.024747662 0.017381787 -0.47721046 0.12470944 0.06377433
-0.3973619 -0.0070169675 -0.30758268 -0.0070580477 -0.017058184 0.088642344 -0.12031608 0.014108706
-0.07038548 -0.0055242674 -0.22879378 0.07420522 -0.08540189 -0.18396682 0.04826856 -0.17946336
-0.019580744 -0.24755935 -0.23998843 0.07582225 -0.068069816 -0.24311735 -0.091421686 -0.14860713
-0.01732833 0.03973185 -0.14004168 -0.02779699 0.058899347 0.020390367 -0.03128717 -0.048354734
-0.14321853 0.1270238 0.017215982 -0.07654703 0.012870103 -0.10465697 -0.09056689 -0.08864568
0.00015423111 0.112892345 0.005635654 0.011723919 -0.2542909 -0.12070332 0.016188076 0.054244574
-0.18058078 0.011274178 -0.071281105 -0.08191365 0.016313192 -0.037177023 0.019801486 -0.20925511
-0.052277677 0.045575675 0.06847478 -0.04982405 -0.2144577 0.115588464 -0.059679218 -0.17395115
-0.10924566 -0.08346404 0.0371589 -0.079715066 -0.064392306 0.0737236 0.082138814 -0.036991995
0.023375554 0.19822176 -0.1097147 -0.05571881 0.012373838 -0.4783169 -0.0741452 -0.069510736
-0.21378729 -0.06866107 0.04596602 0.13495599 -0.011375322 0.039772734 0.11204487 0.010300718
-0.15476376 -0.31257352 -0.050571986 0.040061712 0.029102482 0.16165198 0.17987165 -0.094983235
-0.00066913996 0.010955303 0.15601577 -0.01672188 -0.11080451 0.06413076 0.038755063 -0.050877728
0.10652854 -0.037738558 0.077942885 -0.12335811 0.019505706 -0.043879244 -0.02013955 0.012599617

StatefulPartitionedCall/Generator/dense_3/BiasAdd/ReadVariableOp:0 f4 [256]
00000000: 094f a638 92bc 713a 1d72 533b 9191 cdb9
00000010: c385 ac39 a630 fcb8 088e bd39 fb8d ce39
00000020: d9d6 203b 328a 7539 1c08 433a cdad bdb9
00000030: d4a4 ae39 4246 9a39 3614 213a e22e 9aba
00000040: a5a7 8cb9 d97b 2ebb bcb1 4fbb ed6e a8b9
00000050: f183 34ba b6a3 cf39 c3e0 8e39 15a2 c3ba
00000060: c67e bf39 94c5 0aba f4ad 97b8 0e7f 923a
00000070: fcb5 1db9 3963 e7ba c450 95ba 6393 25ba
00000080: a5e7 1137 c621 ee39 ac64 0a3a 0254 85b9
00000090: 4621 9339 9557 0c3b 7ca8 9ab8 6dcb 11bc
000000a0: 6952 ed39 e982 b338 8f37 003a 699f de39
000000b0: cca7 98b9 0698 a6b9 3ff1 99b9 3dd2 ae39
000000c0: 268d a739 a952 3d38 1155 e7b9 ea88 813a
000000d0: 6d54 0aba be13 733b 03a9 4239 8eab b839
000000e0: a5a5 d2b9 2bbb 303a c6e0 7e39 d223 a33a
000000f0: ca65 72ba 85a1 7db9 7d82 dc3a cb2d 2fba
00000100: d421 0439 cdb0 813b bee4 9fba 4808 a1bb
00000110: dfca 91b9 75ff 42ba cccb a5bb 07c4 3c39
00000120: 78f8 acba a3bc 4aba ea3d d839 cc2b 433a
00000130: 25d4 c839 8a99 c4b8 ad71 2b3b bb51 d035
00000140: 4c4b e438 829e 573a e528 6a3a ba3b 5839
00000150: 493a 38ba c8c0 0439 e562 ddb9 4278 d2b7
00000160: 69b3 6939 8488 433b 137a 2bb9 f503 6939
00000170: 7602 9fb8 8aa6 e039 2029 1eba aa72 e3b8
00000180: 9b3d 47b9 9f4f 0639 6334 403a 7ed5 79b8
00000190: 35a9 e7b6 7ed4 95b9 e0f7 b039 a088 f3b9
000001a0: 9aa8 8139 bc32 fbba bd63 113a 8f5f 113a
000001b0: ae6c 8eb9 553d d0b8 5747 a4b9 f409 6c39
000001c0: 5170 e7b9 81d7 00b9 7e0e 2c39 5549 063b
000001d0: cca4 7e3a 6141 d3b7 cf62 9cb8 4e36 82ba
000001e0: 1c83 d13a 2230 c538 976c a2b8 9fc5 983a
000001f0: 10ec ff39 105b 8f3a 56f6 1b39 7d28 19bc
00000200: 0846 23bb 0f0d 84b9 75e6 dbba 1468 f5b9
00000210: 9ecf 283a fd6a c939 9350 a33a 124f 3b39
00000220: 8b50 9b39 d7b1 c83b 07fc 2b3a 83db 0c3b
00000230: 3e3a 5ab9 b21d bbb9 61d7 3639 78b7 23ba
00000240: 5329 003b e469 363a a1bb 083a e109 82ba
00000250: a890 27bb 5205 1c3a 18d6 b03a 2bf8 6a3b
00000260: 7025 5d39 c1ad 9cbb 0658 ec39 374a 483a
00000270: a128 e839 0f5e bbb9 ed63 83ba b898 e4b9
00000280: 2c98 493b f98a 6bb9 c0a2 95b7 ce64 b439
00000290: 6d4d 78ba 9d81 a538 b4d0 c7b9 2cf0 c9b9
000002a0: 9a61 a23a 4623 cb39 8031 41ba 90b2 d5b5
000002b0: fe64 6138 9b7b b93a af73 8b3a 4cec 2f39
000002c0: 3989 b8b8 0f96 773a 7086 65bb edb0 123b
000002d0: 2bb7 14bb ce26 4138 8e8f f5ba 1f41 7e39
000002e0: d154 65b9 a8c9 ecb9 fce3 06b9 3435 4a39
000002f0: d306 fbb9 d3f4 423a acc1 1cbb e464 113a
00000300: b0cd 7639 eaf5 b2b9 bd9a db38 950c 2439
00000310: 8078 103b 6d1f b8ba 3c65 1abb 822b 76b9
00000320: fda5 6e39 79df dc3a 22b3 90b9 c533 91b9
00000330: cd77 a9ba 9c15 c039 b503 e3b9 8639 263a
00000340: 3fc5 0bbb cc69 7bba 3148 4839 21ab a938
00000350: f9d6 cf38 ba9c 2739 6de6 8f3a a248 96ba
00000360: 87f5 86ba 6f12 2fb9 f876 2739 3538 6aba
00000370: 82fc 023a 5d6a 803a 29e4 34ba 5b72 c0b7
00000380: 3659 8fb9 af2a 96b9 4eb1 59b9 20cc 08bb
00000390: 6cc0 c139 fa2c 08bb 1cec 8839 646e c83a
000003a0: a216 923a 67f8 32b9 c4b4 f9b9 d749 2539
000003b0: 0bf8 553b da03 c2b9 e9ea e039 72fc 51ba
000003c0: 3967 c6b8 bf72 75b9 2f14 ebb9 5fd2 06bb
000003d0: 86d5 27ba 02ce 3739 26e1 d839 cb5f 6339
000003e0: ef46 c339 e02b de3a f454 51b9 eca7 3ab9
000003f0: ce0d 083a 3693 13bb 10c4 4c39 ff89 a6bb
7.930218e-05 0.00092215196 0.0032264062 -0.00039209102 0.00032906057 -0.00012025358 0.0003615471 0.00039397166
0.0024542122 0.00023416503 0.0007439868 -0.0003617838 0.00033310673 0.00029425515 0.0006144674 -0.001176324
-0.00026827786 -0.0026624112 -0.0031691631 -0.00032126103 -0.0006886116 0.0003960409 0.0002725181 -0.0014925624
0.00036524812 -0.00052937237 -7.2326424e-05 0.0011176781 -0.00015040481 -0.0017653472 -0.0011391868 -0.0006316213
8.696607e-06 0.0004542006 0.00052792835 -0.00025430328 0.00028062816 0.0021414508 -7.374675e-05 -0.008898598
0.00045265563 8.559769e-05 0.00048910914 0.0004246191 -0.00029116718 -0.00031775254 -0.00029362176 0.00033344506
0.00031957886 4.5138095e-05 -0.00044123133 0.0009882723 -0.00052768626 0.0037090625 0.00018564244 0.00035223033
-0.00040177736 0.00067417574 0.00024307062 0.0012446588 -0.0009246735 -0.00024188131 0.0016823557 -0.0006682544
0.00012601103 0.003957844 -0.0012198908 -0.0049143173 -0.00027807706 -0.0007438579 -0.005059695 0.00018002103
-0.0013196608 -0.00077337975 0.0004124486 0.0007445186 0.00038305033 -9.374607e-05 0.0026160285 1.5520994e-06
0.00010885912 0.00082252186 0.00089324854 0.00020621615 -0.0007027728 0.00012660318 -0.00042226087 -2.508995e-05
0.00022287447 0.0029836008 -0.00016353307 0.00022222086 -7.582169e-05 0.0004284869 -0.000603335 -0.00010845561
-0.00019001069 0.00012808897 0.0007332025 -5.9565056e-05 -6.9040348e-06 -0.00028577814 0.00033754017 -0.00046450365
0.00024730415 -0.00191649 0.0005546173 0.00055455504 -0.00027165323 -9.929637e-05 -0.0003133367 0.00022510422
-0.00044143436 -0.00012287313 0.00016408597 0.0020490487 0.00097138877 -2.5183605e-05 -7.457064e-05 -0.0009934397
0.0015984508 9.4026575e-05 -7.7449884e-05 0.0011655575 0.0004881327 0.0010937173 0.00014873719 -0.009348032
-0.0024913568 -0.0002518673 -0.0016777056 -0.00046807586 0.0006439629 0.0003841742 0.0012459926 0.00017863166
0.00029623913 0.006124716 0.00065606873 0.0021493144 -0.00020811797 -0.00035689544 0.00017437107 -0.00062452955
0.001955588 0.0006958528 0.0005215947 -0.0009921157 -0.00255684 0.00059517205 0.0013491539 0.0035853486
0.00021090149 -0.0047814553 0.0004507901 0.00076404534 0.0004428076 -0.000357375 -0.0010024287 -0.00043601333
0.0030760868 -0.00022463118 -1.783797e-05 0.0003440738 -0.00094719866 7.8919555e-05 -0.00038111734 -0.0003851665
0.0012388707 0.00038745458 -0.0007369742 -1.5921705e-06 5.3738237e-05 0.0014151217 0.0010639335 0.00016777328
-8.7993634e-05 0.0009444663 -0.0035022758 0.0022383288 -0.0022692184 4.6050925e-05 -0.0018734799 0.00024247587
-0.00021870738 -0.00045163673 -0.00012864167 0.00019284041 -0.00047879535 0.00074369943 -0.0023919148 0.0005546345
0.00023537013 -0.00034134026 0.00010471556 0.00015644946 0.002204448 -0.0014047452 -0.0023558876 -0.00023476596
0.00022759284 0.0016851268 -0.00027599285 -0.00027695126 -0.001292938 0.00036637194 -0.00043299576 0.0006340969
-0.0021327285 -0.0009590655 0.0001910038 8.090423e-05 9.910571e-05 0.00015984746 0.0010978706 -0.0011465738
-0.0010296562 -0.00016696168 0.0001597068 -0.0008934767 0.0004996733 0.0009797324 -0.00069004536 -2.2941435e-05
-0.00027341553 -0.0002864203 -0.00020760784 -0.002087362 0.00036955194 -0.0020778761 0.00026115857 0.0015291688
0.0011145661 -0.0001706794 -0.00047627662 0.00015763134 0.0032649066 -0.00037005433 0.0004289963 -0.00080103346
-9.4606025e-05 -0.00023407767 -0.0004483773 -0.0020572168 -0.0006402362 0.00017528984 0.0004136648 0.00021684093
0.00037246148 0.0016950332 -0.0001996344 -0.00017800898 0.00051900453 -0.0022518164 0.00019527995 -0.0050823684

StatefulPartitionedCall/Generator/batch_normalization_3/batchnorm/sub:0 f4 [256]
00000000: 5a29 013e dca8 d8be ca22 49be d418 193e
00000010: 3e59 583e 14ca a83d ed0b a3be 483a 66bd
00000020: 3c80 94be e925 95bd 7268 37be f042 353e
00000030: f030 b43e 7983 203e 4a61 f0bd 36f0 6f3e
00000040: 215f d23e 540f e83d ad22 a6be cc6b 9dbd
00000050: 9784 ad3d a9d4 eb3e 8ecc 0fbe b71e 55be
00000060: eec7 a9be 4868 e43c 0c0e 913d 388c 3f3c
00000070: 3ebd 3bbc 2816 a73e 3db3 97bd 1a95 67be
00000080: f963 15be 7edf 04be 481d 923d 229d 2bbe
00000090: 24ad d43d 66ab ea3d a0de 9ebd de0e b2be
000000a0: 8053 17bb 59bf 7a3e 2ab6 9dbe a6f7 7f3d
000000b0: e5fe 8f3d 0bec 16be 6c5e 003d 1658 a23d
000000c0: 8c26 5bbe 7cfc 95be 9940 10be 072e 6fbd
000000d0: a305 9dbe 4075 ac3b b88c cebe 5816 253d
000000e0: d606 07bf 3c75 e2bd 1cd8 4ebe c0f9 01bd
000000f0: e42a 82bc aacb 2abe 3229 60be 242f 31be
00000100: 5d1c da3d 80a1 a5bd 2987 d23d 6140 b7be
00000110: 1af6 a53e 7f8d be3d 40e9 cd3b c272 2b3d
00000120: 0f76 0abe 5ae0 8e3d fab5 c7bd d0e5 3cbd
00000130: 4034 e2bd 14d1 f43d bc7b 0d3e bee0 8abe
00000140: 6687 713e f9f9 8e3d 6163 cebe 7dd0 8c3e
00000150: 2f92 0abe 76a4 143e 1e54 ef3d 003b 0a3a
00000160: 1f05 263f a414 c43c 1302 203f e8ad a4bc
00000170: 576c a7be f058 06bd 817d 04be 565f 373e
00000180: 7c90 4c3d f642 723d 0eeb 42be ab19 bdbc
00000190: bc9a af3d cc32 26be ce2a 7fbe c060 f1bd
000001a0: 8d0c 4f3e e7be 093f c2af ac3e 6ec4 91be
000001b0: ee1e 4e3e ca5e c03d d26f 7d3e 12ef 523f
000001c0: 5480 c5bd 9661 613e d459 8a3e 2a90 0ebe
000001d0: 8375 883d cbef 80bd 9c44 efbd f4e5 12bd
000001e0: 8db0 c5bd efda 023f ec12 c2bd e37a e5be
000001f0: 30e4 0abd 9ea6 aebe 3503 483e 1523 1b3e
00000200: ae77 983d c906 d6bd 80d8 8e3e 2e50 d0be
00000210: f258 513e 51e5 b43e 4e5c 5bbe 20c9 b43e
00000220: 6245 1ebe f075 90bd a5f1 973d d8b2 89be
00000230: 2298 c2bd b8fd 933c 7d12 503e 62bf 86be
00000240: 1dff c3bd d4ce 813e 2b91 ed3d 23fb 353e
00000250: 58be e1bb 5d72 4ebe 57e2 c2bd 3a6b dfbe
00000260: 60fd 9fbc 16a9 8e3d 6813 53be 1849 5a3e
00000270: fcfb 03be fb6b 32be 9127 8f3e a235 f83d
00000280: f697 ad3e 887e 5b3e 1543 813e ab61 b53d
00000290: 3179 863d 423e e2bd e62a 33be c6be 813e
000002a0: 1057 fa3c bcd4 7dbe cda7 623e 4095 da3b
000002b0: 9abb 8d3e 0ebe 37be a099 413e 26aa cfbc
000002c0: ee24 773d fd10 10bf 18e6 e5bd e468 d93d
000002d0: 329d bfbd 4b5b 8d3e f2a7 03bf ee47 c63e
000002e0: 2143 08be c075 3fbe 1841 9f3d 4c79 8fbe
000002f0: 7abe 0f3d 5279 183e acd6 cb3e ff12 22be
00000300: 62a4 24be 84ab df3d 40ce b03b 14b1 483d
00000310: 6839 3bbd d53e 473f d81c 793d 9467 82be
00000320: 6829 863c 742a d4be 48fc 9e3b 3807 ccbd
00000330: c25b cebd ef1c 353d 95a4 643e b2d5 c33d
00000340: ba98 92bd 4eab d43d 849d ddbc 8637 9c3d
00000350: da9b 8d3e 80f3 34bd f985 8a3d 7594 dbbd
00000360: 5192 a83e 3a93 b63e e2d2 203e 3c00 293e
00000370: 00d4 f9bd b277 a0bd 5224 213e d1fd 54be
00000380: e4c0 34be a222 e53d c61b 173d 80df 5bbe
00000390: 7a75 aebe 5090 24bd 9026 babd 481f 1abb
000003a0: bb7d 64be 10ef 2d3d 9077 d6bd 5f41 d3bc
000003b0: 2a63 383e 62be 873e 3ea7 cbbe 4ef4 3ebe
000003c0: 9881 6abd 64c9 3ebe 8663 bcbd 44c5 e73c
000003d0: 50de 19bd cb8f f73d 235e 573e 8177 54bd
000003e0: 37af f13d 7050 b6be c026 b2be 62ec a13e
000003f0: 64cc 8d3e 902d 133e e04b 97bc fdae 83bd
0.1261343 -0.4231633 -0.19642177 0.14950877 0.21127793 0.08241668 -0.31845036 -0.056207925
-0.29004085 -0.072826214 -0.17910936 0.17701316 0.35193586 0.15675153 -0.117373064 0.23431477
0.41088203 0.113310486 -0.3244833 -0.07686576 0.08472555 0.46060684 -0.14042875 -0.20812498
-0.33160347 0.027881756 0.07082757 0.011691146 -0.011458693 0.3263409 -0.07407234 -0.22615471
-0.14588918 -0.1297588 0.07134491 -0.1675916 0.103845865 0.11458473 -0.07757306 -0.34776968
-0.0023090541 0.24487056 -0.30803043 0.062492035 0.07031039 -0.14738481 0.031340048 0.07926957
-0.21401423 -0.29294193 -0.14087142 -0.058393504 -0.30668363 0.0052630007 -0.40341735 0.04030451
-0.52744806 -0.11057517 -0.20199627 -0.03173232 -0.015889592 -0.16679254 -0.21890715 -0.17303139
0.10649941 -0.08087444 0.10279686 -0.35791305 0.32414323 0.09304332 0.006283909 0.04185749
-0.13521598 0.069763854 -0.09751506 -0.046117604 -0.11045122 0.11953941 0.13816732 -0.2712459
0.23586807 0.06981272 -0.40310195 0.27502814 -0.13532327 0.14515862 0.11685966 0.0005273074
0.64851564 0.023935623 0.62503165 -0.020102456 -0.32699844 -0.03279966 -0.12938501 0.17907462
0.04994248 0.05914589 -0.19034979 -0.023083529 0.08574435 -0.16230315 -0.24918672 -0.11786032
0.20219631 0.5380692 0.33727843 -0.28470176 0.20128986 0.093930796 0.24749687 0.8239604
-0.09643617 0.22009882 0.27021658 -0.13922182 0.066630386 -0.06295737 -0.11683008 -0.03586383
-0.09652815 0.51115316 -0.09476265 -0.44820318 -0.033909023 -0.34111494 0.19532473 0.15150101
0.07444702 -0.10450513 0.2789955 -0.40686172 0.20444086 0.35331205 -0.2142193 0.35309696
-0.15456155 -0.07053745 0.07419137 -0.2689426 -0.09501673 0.018065318 0.20319553 -0.26317888
-0.09570143 0.2535311 0.11599954 0.17771582 -0.006889146 -0.20160814 -0.09515827 -0.43636495
-0.019529998 0.06965844 -0.20612872 0.21316946 -0.12889093 -0.17424004 0.27959874 0.12119605
0.33905 0.21434987 0.25246492 0.08856519 0.06566084 -0.11047031 -0.17496833 0.2534086
0.030559093 -0.24788183 0.22134323 0.006670624 0.2768219 -0.17943594 0.1890626 -0.025349688
0.060337953 -0.5627592 -0.112255275 0.106157094 -0.093561545 0.27608714 -0.5142814 0.38726753
-0.13306858 -0.18697262 0.077760875 -0.2802223 0.035093762 0.1489003 0.3981222 -0.15827559
-0.16078332 0.10921386 0.0053956807 0.048997 -0.045709044 0.7783025 0.060818523 -0.2546965
0.016377166 -0.4143864 0.0048518516 -0.09962314 -0.10076095 0.044217046 0.22328408 0.095622435
-0.071580365 0.10384236 -0.027052648 0.07627778 0.27657968 -0.044177532 0.067638345 -0.10721675
0.3292413 0.356592 0.15705445 0.16503996 -0.12198639 -0.0783533 0.15736511 -0.20799948
-0.17651707 0.11188246 0.03689172 -0.21471977 -0.34074003 -0.04017669 -0.090893865 -0.002351718
-0.22313587 0.042464316 -0.104720235 -0.025788007 0.18006578 0.26512438 -0.39776033 -0.18647882
-0.057252496 -0.18631512 -0.0919867 0.028292306 -0.03756553 0.12087973 0.21032004 -0.05187178
0.11800998 -0.35608244 -0.3479519 0.31625658 0.27695 0.1437285 -0.018468797 -0.06429861

StatefulPartitionedCall/Generator/batch_normalization_3/batchnorm/mul:0 f4 [256]
00000000: 26ae ee3e 578a 463e de46 0f3f 7bd7 9f3e
00000010: 763a 1f3e e7f7 5c3e c0fc 993e 2674 ea3e
00000020: 1f90 5a3e 9423 ce3e 8c9a d13e a299 e73e
00000030: e383 253f e0dd 043e 5baf a43e 1696 e53d
00000040: 9e7c 463f 9dff 053e 3191 6d3e 68c7 4d3e
00000050: 1212 183f 1751 403f 0732 a03e 065c 623e
00000060: dcb8 1e3e 6ac6 dc3d eeed 813e e657 b43e
00000070: c11a 5a3e a805 693e 7caf 123f e008 0c3f
00000080: 9586 cc3e 2986 753e 2444 313f ea2b ef3e
00000090: b69f d63e 8840 b53e 3d0e d43e 597c 2d3e
000000a0: f7d2 5d3e 95cc b13e 1886 733e 7121 d13e
000000b0: e4d9 be3e 6007 073f ca4f af3e 936b 513e
000000c0: 15e0 e83e df7f 583e 86c1 b73e f45b b43e
000000d0: c283 e43e 3c8c 1e3e df97 713e 376d 3a3e
000000e0: c095 903e 551a ec3d 694f 723e 60ae 8a3e
000000f0: 4954 d33e 86e0 963e a458 cc3e b569 eb3e
00000100: deef de3e 5915 1d3f f8ad 3d3f f0ee 263f
00000110: 95e3 4c3f 4f24 b33e 3496 0f3f ab86 d73e
00000120: 14f5 743f 747d ab3e 1aad 843e 522d 4a3e
00000130: 4442 ab3e a288 a33e b87a ed3e aaa4 283f
00000140: 0ede 9a3e dd3c 8e3e 83c6 3a3e f7b5 bf3e
00000150: 444f b23f 155e f33e 9518 203e e5b9 473e
00000160: e27c a840 1f02 253f 5fdf e03e 4784 903e
00000170: 2bb8 1d3f 53d1 fb3e fddf d03e 31e5 853e
00000180: ec0f dd3e 5ebe 2f3f 525e 3f3e 5d75 723e
00000190: 98fe 5e3e 8aac 7f3e f01c fe3e 67a2 523e
000001a0: aa57 813e fc07 fb3e 8b27 2c3e e6bc 053f
000001b0: 4186 5e3e d79b 063f 1c7d 3a3e ef97 f43f
000001c0: 9ba5 943e 2ba6 443e 6ca2 2e3e 9ba9 353e
000001d0: ff9c 8e3e 4ffb 263e 82e4 653e b6ec 313e
000001e0: 29c1 fd3e 7bcf 293f eb20 ce3e 45d7 333e
000001f0: ff11 6c3e 2733 843e 2089 e73e a1ac 3e3f
00000200: 904a 9a3e 74a0 643e 61cd b53e cce4 1a3e
00000210: 76da 3b3e 6896 0c3f 9ac8 f73e f2c3 903e
00000220: 4291 b93e c2dc 993e 40d0 283e cd70 a03e
00000230: 6b72 6e3e 6b81 a53e 52c1 653e d5fc a03e
00000240: 8b68 003f 8e26 013f 1c96 bb3e f40a ad3e
00000250: a268 1a3e 0c38 383e f8f5 243f ddc8 a83e
00000260: 6729 413e 4c20 d53e add7 5b3e 1502 323e
00000270: 7485 cc3e 4db2 423e 5004 e23e 13e0 943e
00000280: e5a3 9b3e 2220 0b3e 4715 383e 089f 003f
00000290: 90f3 243e cb60 033f b7e9 603e 802f 883e
000002a0: 9650 133e 74f9 0a3e 4397 1b3f 07a0 303f
000002b0: 62dc b43e 06f2 c13e 3746 173e 07d3 f73e
000002c0: ffe1 623e 3cc8 bb3e b8c3 b03e d404 d03e
000002d0: 301e 243e 6af7 d83e b04d 733e c0a6 073f
000002e0: 4b84 823e d753 0e3f a4a0 e03e 1dd4 e23e
000002f0: 3618 b13e 0631 d23e 3d7c f83e 70da 0e3e
00000300: 4d6a f43e c44a 033f 67b2 f13e cc0a 613e
00000310: d7e8 5a3e c0c4 d23e 17f0 3940 9482 983e
00000320: 66a3 433e d11b 283e 56d1 323e 6370 843e
00000330: e227 f33e 200a 653e bffb e33e 5036 c23e
00000340: 3b0e 733e 9ab1 883e 9448 0d3f 1d76 aa3e
00000350: 6ebd d43e bda3 f63e 31e4 0f3e a161 f93d
00000360: 0bdb f03e a8d1 133f 962b 3f3e 5550 683e
00000370: cb81 ea3d 0bfc 1b3e fd89 7c3e b75f dc3e
00000380: 7f3e 6b3e 4e25 1b3f 3f59 9f3e f148 023f
00000390: b3aa 243f 813f 763e cb6d 8d3e 4d7a 843e
000003a0: ae96 ca3e 6788 803e 1ea8 113e fa73 cf3e
000003b0: a508 eb3e 9eed 143f 2169 633f 1dea cb3e
000003c0: 3498 7a3f fc01 ac3e e6ff fa3e f758 c83e
000003d0: 07d6 983e 8a97 9f3e ee40 583f 3561 8f3e
000003e0: e6a8 ef3e 52e0 313f 393c 773f 043a 123e
000003f0: 8507 b63e c76a 723e 73a0 103f 9056 3d3f
0.4661724 0.1938871 0.5596751 0.31219086 0.15549645 0.21578942 0.30075645 0.4579174
0.2134404 0.4026152 0.40938222 0.452344 0.6465437 0.12975264 0.32165036 0.11210267
0.775339 0.1308579 0.23199917 0.20095599 0.59402573 0.75123733 0.31288168 0.22105417
0.15500206 0.10780032 0.25376838 0.3522331 0.21299268 0.22756064 0.5729902 0.5470104
0.39946428 0.2397696 0.692446 0.4671319 0.41918725 0.35400796 0.41417113 0.16941966
0.21662508 0.34726396 0.23781621 0.40845826 0.37275612 0.5274563 0.34240562 0.20451193
0.4548346 0.21142529 0.35889834 0.35226405 0.44631773 0.15483183 0.2359309 0.18205725
0.2823925 0.1152846 0.23663105 0.27086163 0.41275242 0.29468173 0.39911377 0.45979086
0.4354238 0.613607 0.7409358 0.6520834 0.8003476 0.3498864 0.56088567 0.4209493
0.9568646 0.3349415 0.25913316 0.19743851 0.33448994 0.3194018 0.4638269 0.6587626
0.3024754 0.2778081 0.18239789 0.37443516 1.393044 0.47532716 0.15634377 0.19504507
5.2652445 0.6445636 0.4392042 0.2822592 0.61609143 0.4918314 0.4079589 0.26151422
0.4317621 0.6864985 0.18688324 0.23677583 0.21776807 0.24968162 0.49631453 0.20569764
0.25262195 0.4902953 0.1681196 0.5224136 0.21730901 0.5258154 0.18211788 1.9108866
0.29032597 0.19204013 0.17054147 0.1774048 0.27854154 0.16306804 0.2245045 0.17375454
0.49561432 0.66332215 0.4025949 0.17562588 0.2305374 0.25820276 0.45221806 0.7448216
0.30135012 0.22326833 0.35508254 0.15126342 0.18345055 0.54917 0.48395234 0.28274494
0.36243635 0.30051237 0.16485691 0.3133606 0.23285834 0.323253 0.22437027 0.31442896
0.5015952 0.50449455 0.36637962 0.3379742 0.15078977 0.1799013 0.6443782 0.32965747
0.1886345 0.41626203 0.21468993 0.17383607 0.39945567 0.19013329 0.44143915 0.29077205
0.3039848 0.13586476 0.17976867 0.5024266 0.16108537 0.5131957 0.21964155 0.2659874
0.1438621 0.13571721 0.6077768 0.6899418 0.3532439 0.37879962 0.14772879 0.4840319
0.22156523 0.36676204 0.34524322 0.40628684 0.1602714 0.42376262 0.23760104 0.52988815
0.25491557 0.5559668 0.4387256 0.44302455 0.34588784 0.41053027 0.48532286 0.13950515
0.4773735 0.5128596 0.47206423 0.21976775 0.21377884 0.41165733 2.905279 0.29787123
0.191053 0.16416861 0.17462668 0.25866994 0.47491366 0.22367144 0.44528005 0.37932062
0.23735897 0.26698 0.5518887 0.33293238 0.41550773 0.48171797 0.14051892 0.12176824
0.47042117 0.57741785 0.1866897 0.22686894 0.11450537 0.15232866 0.24662013 0.43041775
0.22973059 0.606038 0.31122777 0.5089255 0.64322966 0.24047662 0.27622828 0.25874558
0.39568084 0.25104067 0.14224288 0.4051817 0.45905033 0.58175075 0.8883229 0.39827052
0.97888494 0.33595264 0.4902336 0.39130375 0.2985079 0.31170303 0.84474075 0.2800385
0.46808547 0.6948291 0.9657627 0.14279944 0.35552612 0.23673545 0.56494826 0.7396021
