gan4hep/onnx/data/models/cluster_decayer.onnx (onnx, 288554 bytes, 10 tensors)

StatefulPartitionedCall/Generator/dense_5/MatMul/ReadVariableOp:0 f4 [256, 2]
000000 e7 3f d8 3c f5 93 02 3d c7 9b ae 3d c7 d9 87 3d
       0.026397659 0.031879384 0.08525806 0.066333346
000010 12 fc f4 3c f8 ed 38 bd 56 7f 6d 39 6b 66 a2 3b
       0.029905353 -0.04514882 0.00022649518 0.004956057
000020 b8 1e 4d bc 02 4b 3b 3b 96 a2 4d bc 7b 27 94 3c
       -0.012519531 0.0028578644 -0.012550971 0.018085232
000030 23 65 a3 bd 79 5e f7 3c 66 41 12 3c f4 a9 30 3d
       -0.07978275 0.030196415 0.008926725 0.04313083
000040 eb fb bc 3d 6d ad 7f 3d 08 8f c4 3c 49 7e 7a bc
       0.09227737 0.06242125 0.023993984 -0.015288898
000050 bd c7 aa 3b 75 01 77 3d f3 27 f7 3c 69 cf 48 bd
       0.005211799 0.060304124 0.030170416 -0.049025927
000060 52 1c aa bc 2f 9d 63 bd de 5b 00 bd 0d 8b a8 ba
       -0.020765457 -0.055569824 -0.03133761 -0.0012858823
000070 3e 18 87 ba 9b 11 08 be 15 80 95 bd 44 c2 c5 bc
       -0.0010306907 -0.13287966 -0.0729982 -0.024140485
000080 70 96 8d bd f4 09 86 3d af 20 42 3d 48 fb 60 3c
       -0.06913459 0.06544867 0.04739445 0.013731785
000090 b0 a8 86 3d 50 11 d4 ba c8 d6 74 3d b2 4c ac bd
       0.06575143 -0.0016179476 0.059775144 -0.08413066
0000a0 7e 17 aa bd 29 0a 40 3c 77 c7 5d bc 09 cf d4 3d
       -0.08305262 0.011721172 -0.013536326 0.10391051
0000b0 e3 9e a0 3c 27 28 ae bc 00 c6 28 bc d1 3e 99 bd
       0.019607013 -0.02125938 -0.010301113 -0.074826844
0000c0 6d 38 20 bd ad 7a c9 3d 37 51 1c 3d fd 6a 53 3d
       -0.03911631 0.09837852 0.03816339 0.051615704
0000d0 65 9b 52 3b c8 32 25 bb 7c f4 95 3a f3 df cc bc
       0.003213608 -0.002520727 0.001144066 -0.025009131
0000e0 3d 72 6d bd 3d 9f c1 bd 34 80 c0 bd c8 37 c8 3d
       -0.057970274 -0.094542004 -0.09399453 0.097762644
0000f0 4f 74 89 b8 3f c6 b1 3a 52 34 7f 39 61 0d ac bc
       -6.554333e-05 0.001356311 0.00024338186 -0.021002473
000100 65 8d ef 3b 33 7c b4 bc 85 bb 19 bd 39 c9 a3 bc
       0.0073105567 -0.022031879 -0.03753235 -0.019993411
000110 b4 ff 4e 3d 78 8f d9 bd 24 a6 9f bd ea 6e f1 3d
       0.050536826 -0.106230676 -0.07795361 0.11788733
000120 42 50 26 bd 07 41 9d bd f8 e7 b3 3d 8b 88 c9 3d
       -0.040603884 -0.076784186 0.08784479 0.09840497
000130 f4 3e 8a 3b a7 7e b0 3d 82 07 31 3b 6d e0 3d bd
       0.0042189304 0.08617907 0.0027012532 -0.046356607
000140 0d 23 5b 3d 25 63 b7 bc 87 6d d4 bb 30 8b 84 3d
       0.053500224 -0.022386143 -0.0064827832 0.064718604
000150 f8 9f 9d bd a7 99 81 3d 13 5a 8f 3c 78 83 39 bd
       -0.07696527 0.06328135 0.017499005 -0.045291394
000160 99 68 f2 3b 8c 42 d0 bd 3f 90 9d 3b 27 de 70 bb
       0.007397723 -0.10168943 0.0048084552 -0.0036753507
000170 45 42 a2 bd 44 fc f5 3d f0 29 2e bd 56 4a e8 3d
       -0.07922796 0.120110065 -0.042520463 0.113423035
000180 c3 1c c0 bc 43 08 86 3d bb c5 d6 bc 64 8f 0f 3d
       -0.023451215 0.065445445 -0.026217332 0.035048857
000190 94 be ee ba 96 3c 87 38 ef cf ae 3c 4e 09 de 3c
       -0.0018214756 6.448587e-05 0.021339385 0.027104046
0001a0 e8 8a dd bc 43 f0 76 3d ad 37 99 ba a6 e4 76 3d
       -0.027043775 0.060287725 -0.0011689566 0.06027665
0001b0 3c c8 0d 3c ac 27 6b bd 06 47 0c 3c 92 94 a4 bd
       0.008653697 -0.05741088 0.008561855 -0.0803615
0001c0 4b 0a 01 3d 70 03 c8 3c 53 d6 b4 ba e3 62 62 3c
       0.031503957 0.024415702 -0.0013796784 0.013817522
0001d0 7d 00 ec 3c 9a 97 e3 bc 42 c0 4e 3c 20 c3 48 bd
       0.028808827 -0.02778225 0.01261908 -0.04901421
0001e0 fe 53 e5 3c 37 5e cf bd 6b f7 5b 3b cb 7a ef 3d
       0.027994152 -0.10125392 0.003356422 0.11693343
0001f0 f8 34 7e bc b4 9d 2d 39 16 f2 e9 bc a6 2f 60 bd
       -0.015515558 0.00016557315 -0.028557818 -0.05473294
000200 1c e2 56 bd dd c9 c2 3d 1a 0d 81 bc 6a 2f 6e bd
       -0.05246173 0.095111586 -0.015753318 -0.058150686
000210 c2 91 c1 bd ae 4d fb bd 25 63 9a 3d 41 ae 49 bd
       -0.09451629 -0.122706756 0.075384416 -0.049238447
000220 95 13 08 bd 83 f3 e3 3c e0 7c ba bc a4 b8 f6 3c
       -0.0332218 0.027826076 -0.022764623 0.03011734
000230 24 da 54 3b 2a 2d b6 3c 4f a3 89 3d 12 c0 9e bd
       0.0032478655 0.022238333 0.06720602 -0.07751478
000240 a0 61 22 bc a7 dd 40 bd 6c 47 91 b9 84 5d 6a b9
       -0.009910971 -0.047086384 -0.0002770977 -0.00022350816
000250 d0 b2 2d bd d1 f9 3e 3d b5 be 97 3d ef ff 0b be
       -0.042406857 0.046624962 0.07409421 -0.1367185
000260 a0 e0 02 bb d7 70 60 3c 87 64 94 bd ed b5 6e bc
       -0.0019970313 0.013698778 -0.072457366 -0.014569742
000270 b0 0c 94 3c 16 85 2a bd 07 44 84 3d 16 69 fe bd
       0.018072456 -0.041630827 0.06458288 -0.12422387
000280 8f 43 5f 3b ac 9a 2a bb be f3 83 3c 64 3b e9 3b
       0.0034067368 -0.0026032133 0.016107436 0.0071176756
000290 a7 a8 81 bc a3 97 6a 3d 9c 64 4b 3d a1 04 68 3d
       -0.01582749 0.05727352 0.049656495 0.05664504
0002a0 40 88 b6 3b 8f 29 22 bc 1b cf 94 bc c9 2d 03 3d
       0.0055704415 -0.009897604 -0.018165162 0.032026086
0002b0 f1 70 8f ba 62 0f 17 bc b0 f5 80 bc 38 9a f5 bd
       -0.0010943693 -0.009219976 -0.015742153 -0.119923055
0002c0 43 fc a9 bb f7 e0 91 bd dc b9 0c bd ae 1b a9 3d
       -0.0051875426 -0.07122987 -0.034356937 0.082572326
0002d0 4a 97 b0 bb 17 16 eb 3c a5 28 2e bd fd 37 75 3d
       -0.005389129 0.028697057 -0.04251923 0.059867848
0002e0 be 66 af bd 92 5a d1 bd 7f ba 50 3d 5d 67 43 bd
       -0.085645184 -0.10222353 0.050959107 -0.047705997
0002f0 00 7c 89 bd 64 51 ee 3d b2 33 4c 3b 6a 8e 29 bc
       -0.06713104 0.11636618 0.0031158742 -0.010348896
000300 cd 8f 5f bd 78 fd 40 bd 82 60 e7 bb d9 f9 2a 3d
       -0.0545805 -0.047116727 -0.007061065 0.04174218
000310 7f fa a8 bc d0 a8 2c bd 0a 16 90 bc 1d 3d a2 3c
       -0.020627258 -0.04215318 -0.017588634 0.019804532
000320 ac 6c 48 bb e7 5c 67 bb 55 88 9c 3d 03 9e 94 bd
       -0.0030582352 -0.0035303177 0.07643191 -0.07256701
000330 43 28 59 3d 0d 05 bf 3d 64 8f 60 3d 87 a5 6f bd
       0.053016912 0.09327135 0.054824248 -0.05850747
000340 9f d8 13 bd 4e 56 4b bd ff 71 02 3c d7 73 dc bd
       -0.036095258 -0.049642853 0.007961749 -0.10764282
000350 99 e2 03 ba b5 87 5a 3a a6 f7 a3 3c f7 2e d1 bd
       -0.0005031019 0.0008336262 0.020015549 -0.10214036
000360 1d 40 8e 3d d5 0d 44 bc 6b 54 6d 3d 69 ad 56 bc
       0.069458224 -0.011966188 0.057941835 -0.013102868
000370 2b e0 c0 3a 33 b6 04 b9 ff 18 d7 bc 49 69 b7 3d
       0.0014715245 -0.00012656375 -0.026257036 0.089556284
000380 4f 4f 06 3d a3 54 d1 bd 83 fe 0b bd 0d e8 02 be
       0.03279048 -0.10221221 -0.03417827 -0.12783833
000390 d6 08 9d bc 65 0c ce bd 63 a1 9d 3b 9a ee b0 b7
       -0.019169252 -0.10060958 0.0048104986 -2.1091942e-05
0003a0 9f cc 33 bd 78 23 99 b9 be 6d 8f bb ff 29 09 be
       -0.043896314 -0.0002920886 -0.004377096 -0.13394926
0003b0 f8 d2 a3 3d b1 77 98 bd bc 08 cb b9 ce 48 69 3b
       0.079992235 -0.07444704 -0.00038725685 0.0035596373
0003c0 74 49 6b 3d 26 2f 4b 3c 41 03 cf bc a7 3c de bd
       0.057443097 0.012401378 -0.025270106 -0.10851412
0003d0 db e5 17 3d 55 8b f8 bc 9a 39 e1 3c ba 53 b8 bd
       0.03708444 -0.030339876 0.027493287 -0.090003446
0003e0 b6 41 6f 3c 58 76 18 bc 65 87 e1 3c 16 c9 b3 bd
       0.014603069 -0.009305559 0.027530381 -0.087785885
0003f0 e3 e3 67 3d e3 cd 1f 3d e3 29 72 3c a0 21 8b 3d
       0.056613814 0.03901471 0.014780494 0.06793523

StatefulPartitionedCall/Generator/dense_5/BiasAdd/ReadVariableOp:0 f4 [2]
000000 df 8b db bb d1 5a f5 3b
       -0.0067000235 0.007487633

StatefulPartitionedCall/Generator/dense_4/MatMul/ReadVariableOp:0 f4 [256, 256]
000000 d6 9f 51 3d 66 5a 29 3d 5a fe e1 3d 81 d4 a8 bd
       0.051177822 0.041345976 0.11034842 -0.08243657
000010 04 b7 1b bb 15 26 74 3d 11 79 e4 bb fd 9e 76 bd
       -0.002376021 0.05960663 -0.00697244 -0.060210217
000020 2c b3 dc 3d e1 1f 33 3c 52 87 54 bd 57 63 9f bd
       0.10776362 0.0109328935 -0.051886864 -0.077826194
000030 d3 fd 55 3d 62 6b fa 3c 28 18 dc bd 13 a5 cb 3c
       0.05224402 0.030568782 -0.10746795 0.024858987
000040 3d cb 67 3b 30 07 74 bc f8 2f aa bd 92 bc e4 3d
       0.0035368942 -0.014894292 -0.083099306 0.111687794
000050 ae 5c e5 3c ae 9e 42 bd bd 7f d0 3c 08 9e 89 3d
       0.027998295 -0.04751461 0.025451535 0.06719595
000060 35 5f c1 bd 02 21 27 3d 7a 4b e6 3d c0 2c ba bd
       -0.094419874 0.040802963 0.11244865 -0.09090567
000070 1f 5c a3 bd 61 a7 8c 3d a6 8d a7 bd 83 12 27 3d
       -0.07976555 0.068678625 -0.08181314 0.04078914
000080 dc ef 3c 3c 5b cb 89 bd f2 c4 14 bd 73 17 a3 3d
       0.011531796 -0.0672824 -0.036320634 0.07963457
000090 16 3d cf bd 89 c3 e9 bc fb 07 da bd 31 60 60 bc
       -0.10119073 -0.028535621 -0.106460534 -0.013694809
0000a0 28 b4 4c bc 0f 52 8b 3a 17 cd f0 bd a8 cc 46 3d
       -0.0124941245 0.0010629314 -0.11757868 0.04853502
0000b0 80 99 61 bd 25 81 cb bd 00 6d 53 bd 28 cf e1 bd
       -0.05507803 -0.09936742 -0.051617622 -0.1102584
0000c0 76 b5 93 bc fe 50 19 bd 76 de 06 bd 89 c5 93 3d
       -0.018030863 -0.037430756 -0.032927 0.07215411
0000d0 7b b6 a3 3d 46 79 30 bc 96 94 f4 3c fa e9 44 bd
       0.0799379 -0.010771101 0.029856008 -0.0480747
0000e0 82 da 99 3d 40 63 70 bd 28 fb ad 3d f6 02 ba bd
       0.0751238 -0.058688402 0.0849517 -0.09082596
0000f0 73 14 b2 3c aa dc e3 3d 26 03 35 3d da bb 31 3d
       0.021738267 0.11126073 0.044192456 0.04339204
000100 2b fe 9b bd 45 59 03 3d 18 2f 7a 3d fc 12 0b 3d
       -0.07616838 0.032067556 0.06108007 0.03395365
000110 f5 c1 6a 3c 31 a4 b8 bd db ca 9f 3d 0f 73 b9 bc
       0.0143284695 -0.09015692 0.078023635 -0.022637872
000120 b0 aa aa 3d be 01 08 bd 6d be 16 bd 14 b1 ad bd
       0.08333337 -0.033204786 -0.036802698 -0.084810406
000130 70 e3 19 bd 84 b4 bb 3d 5b d0 6a 3d 55 8f aa bc
       -0.037570417 0.0916529 0.05732761 -0.0208203
000140 41 bd 51 3c 63 60 45 bd b8 0d 78 3d 60 1f a1 bd
       0.012801469 -0.048187625 0.06055996 -0.078673124
000150 48 f2 0b bc 41 a8 9b bb 3c f1 7c 3d a4 53 bc 3d
       -0.008541651 -0.004750282 0.061753497 0.09195641
000160 3a 23 ba bd 51 74 c4 3d 52 6c 12 bd 4a bb be bd
       -0.0908875 0.09592498 -0.035747834 -0.09313066
000170 25 b9 1b bd 20 83 18 bd e0 93 c1 bd 8b 72 72 bd
       -0.038018364 -0.037234426 -0.09452033 -0.059191268
000180 91 4f f5 3c 66 73 c7 bd 2b ef 96 3d f5 c8 16 be
       0.029945167 -0.097388074 0.073698364 -0.14725097
000190 00 a0 38 bd 89 b4 e6 3d ef 35 b9 3c f8 7f aa bd
       -0.045074463 0.11264903 0.022608725 -0.08325189
0001a0 c1 c0 c3 3d ce 94 6f bd 64 f9 6b 3d c8 3b 9a bc
       0.09558249 -0.05849152 0.057610884 -0.018827334
0001b0 d4 19 36 3d 08 c6 ba 3c 75 2e af bd 4d 4e 87 3d
       0.044458225 0.022799507 -0.08553783 0.066067316
0001c0 8a f1 12 3b cb c8 db bd d1 f5 38 3d 13 d3 c6 3d
       0.00224218 -0.107316576 0.045156304 0.09708228
0001d0 3e 6f 3a 3d e1 96 9f 3c f0 53 cf 3d 04 99 89 3d
       0.045516245 0.019481124 0.10123432 0.067186385
0001e0 3a bd ad 3d 9d 37 77 bd f7 96 01 3e c6 91 3d 3d
       0.08483358 -0.06035577 0.12655245 0.0462816
0001f0 e9 78 e0 3c e0 65 2c 3d 82 68 10 3e 7c 3f 9a 3d
       0.027401404 0.042089343 0.14102367 0.0753164
000200 7e 43 90 bd ec 4e 08 3d d8 f1 ae bd a4 0b 44 3d
       -0.07044123 0.03327839 -0.08542222 0.047862664
000210 eb 58 60 3d 9d 4d 03 3e 57 cb 04 3e 75 d6 9a bd
       0.0547723 0.12822576 0.12968193 -0.07560436
000220 37 2c ec bb 1b 48 9d 3d 28 eb 1e bd f5 49 a5 3d
       -0.0072074193 0.07679769 -0.03879848 0.08070747
000230 72 b5 8d 3d e8 b2 27 3d 05 8e 8b 3d 2b fc bb 3d
       0.069193736 0.040942103 0.068141975 0.091789566
000240 78 4e f2 3c 83 18 ea bd 7e 6b b2 3d 4b 60 17 3d
       0.029578432 -0.114304565 0.08711909 0.036957067
000250 75 95 17 bd 01 9a 31 3d 2b bf cd 3d a6 6b cc 3d
       -0.037007768 0.04335976 0.10046228 0.0998147
000260 93 e0 ea bd 05 a5 89 3d b5 f0 ab bd 62 bc 23 3d
       -0.114686154 0.06720928 -0.083955206 0.039974578
000270 2b 12 e2 bd 3e d1 b1 3b bd c4 95 3d dd d3 30 3d
       -0.110386215 0.005426555 0.073129155 0.0431708
000280 20 d5 79 bd fa 4f 90 bd bb 40 d5 3d 58 d6 5c bd
       -0.060994267 -0.07046504 0.10412737 -0.05391535
000290 44 b3 ed 3c 4d 0a 13 3d 8d 19 ee bd 6f b5 8e bd
       0.029016145 0.035898495 -0.11625967 -0.069681995
0002a0 6f c8 bb bc d3 55 73 bd a3 fe aa 3d 55 b0 83 bd
       -0.022922723 -0.05940802 0.08349349 -0.06430117
0002b0 45 49 ca bb d2 2c d9 bd cb 94 1f bd 2c 8a 6c 3d
       -0.006173285 -0.10604252 -0.03896026 0.05774896
0002c0 15 f8 4c 3d f6 25 1b 3d 5b 5d 23 bb 16 dd bf 3d
       0.050041277 0.037878 -0.002492747 0.09368341
0002d0 96 6d f2 bc 25 12 9d bd 36 e8 ad bc c5 13 ae bd
       -0.02959327 -0.076694764 -0.02122889 -0.084998645
0002e0 1d bc c2 bd 9e d4 9b bd 0a 26 62 3d 6c 7b ae bd
       -0.09508536 -0.07608913 0.055212058 -0.085196346
0002f0 f7 c5 66 bc a7 bb bd bd 6a a5 bd 3d 06 76 75 3c
       -0.014085284 -0.092643075 0.09260066 0.014981752
000300 59 9e 5c 3d 08 fe d4 bd 8f 8e ef bd 31 af 8a bd
       0.05386195 -0.10400015 -0.11697113 -0.06771696
000310 60 4c d5 bc 17 e3 a0 bd 33 aa 9c 3c a2 66 ac 3d
       -0.026037395 -0.07855814 0.019124126 0.08418013
000320 7e 04 a2 3c ac 9e b9 3d e7 29 c2 3c f6 99 c1 bc
       0.019777533 0.090634674 0.023701621 -0.023632985
000330 40 fa 16 bd 5a 26 32 bd c1 e3 72 bc 21 2b 44 3c
       -0.03685975 -0.043493606 -0.014824809 0.011973173
000340 92 fb 97 bd 3c 4a a5 bd 6c d5 0d bd ee 01 de bd
       -0.0742103 -0.080708 -0.034627363 -0.10840212
000350 e3 c1 52 3d f2 cc df bb 1e 85 b3 bd c3 85 11 3d
       0.051454436 -0.0068298513 -0.087656245 0.035527956
000360 03 60 e4 bd c9 ea 3e bd 5d 10 e3 bc a0 96 6e bd
       -0.11151125 -0.046610627 -0.027717764 -0.058249116
000370 9c bb b6 3d 34 de 43 3d b9 48 b3 bc 12 30 84 3d
       0.089225024 0.04781933 -0.021885263 0.06454481
000380 a8 4f f6 3c 6d e5 cd 3d fd a5 87 bb 92 6d e5 3b
       0.03006728 0.10053525 -0.0041396604 0.007001587
000390 94 93 bb bd 3e de 55 3d dc b5 93 bd d0 aa b2 bd
       -0.09159008 0.0522139 -0.07212421 -0.08723986
0003a0 01 92 88 3d 57 66 8f 3d cf 31 a9 bc b7 15 c0 3d
       0.06668473 0.07001942 -0.020653633 0.09379142
0003b0 aa bb fe 3c 6f 92 3c bc e6 1b 9f 3c 34 a4 7a 3c
       0.031095345 -0.011509522 0.019422483 0.015297938
0003c0 40 de f9 bc d3 4e 75 bd 78 04 d2 bd 44 2d 8a bd
       -0.030501485 -0.059889626 -0.102547586 -0.06746915
0003d0 0e 51 a3 bc 2e 4d c3 bd ee f5 ea 3d 0a 24 08 3c
       -0.01993611 -0.09536205 0.114726886 0.008309374
0003e0 53 35 5f 3c 07 b9 19 bc c1 ba d1 3c 5a ab 81 3c
       0.013623553 -0.009382493 0.025601747 0.015828777
0003f0 e0 2b f3 bc f9 f9 ba bd 37 45 02 3d 2f bf 7f bc
       -0.029684007 -0.0912971 0.03180429 -0.015609547

StatefulPartitionedCall/Generator/dense_4/BiasAdd/ReadVariableOp:0 f4 [256]
000000 fe db 24 37 00 94 7a b7 2e 1e 04 b8 30 b2 d4 37
       9.826383e-06 -1.493562e-05 -3.149936e-05 2.5355344e-05
000010 f8 6c be 37 56 70 05 39 35 ef a2 b9 f6 02 95 b8
       2.2700508e-05 0.00012725717 -0.0003107727 -7.105425e-05
000020 6e 11 3e ba 03 2a fe 38 63 1c 4d b9 0e 43 9b b8
       -0.0007250522 0.00012119489 -0.00019560898 -7.403466e-05
000030 5a ba 65 b9 8b eb 1f b9 5e a4 c8 b9 49 91 07 38
       -0.00021908563 -0.00015251168 -0.00038269436 3.2321816e-05
000040 1f 56 7e 39 dd 5c b7 b8 d6 68 e5 37 48 ee 37 3a
       0.0002425541 -8.743417e-05 2.7347745e-05 0.00070164027
000050 f5 f2 67 38 1d 5c 42 3a 36 2d 71 36 69 97 29 b8
       5.5300963e-05 0.00074142386 3.5938115e-06 -4.043375e-05
000060 6d ef f2 b9 de 35 b6 b9 5e 3d b1 b7 41 5d b1 b7
       -0.00046336223 -0.0003475388 -2.112862e-05 -2.1143469e-05
000070 e2 6c 1a b8 e8 6c df b9 7c 39 46 b7 53 cf 56 b9
       -3.6817866e-05 -0.00042615016 -1.1815104e-05 -0.00020485865
000080 5b ae ad 38 ad f8 99 38 0b 40 a3 b9 b5 92 9a 39
       8.281759e-05 7.341928e-05 -0.00031137498 0.00029482474
000090 2d c8 86 b9 d6 64 bf 39 0a 57 d4 b7 55 85 9d 39
       -0.00025707614 0.00036505488 -2.53129e-05 0.00030044714
0000a0 3b 75 17 38 58 22 f7 b9 ed f7 0a 38 d1 65 1d 39
       3.6110385e-05 -0.000471371 3.3132663e-05 0.00015010616
0000b0 8e cd 69 39 23 8e 57 37 c1 0f aa 37 0b 67 09 ba
       0.00022297187 1.2848092e-05 2.0272915e-05 -0.000524149
0000c0 58 02 9b 39 f1 45 08 39 65 24 77 b6 0f cd a2 38
       0.0002956565 0.00012996026 -3.6827053e-06 7.762957e-05
0000d0 ee 0d ac b7 8c 15 55 39 d5 c7 ad b9 44 1f 8a b9
       -2.0510484e-05 0.0002032129 -0.00033146018 -0.00026344706
0000e0 fb 69 23 b8 b9 0b 0b 39 e3 75 8c b8 f7 4e 94 b8
       -3.896093e-05 0.0001326044 -6.697678e-05 -7.071898e-05
0000f0 9c bb b0 39 00 f9 a5 38 63 88 b3 38 98 bc 9d 39
       0.00033709116 7.914193e-05 8.560789e-05 0.00030085887
000100 ae 81 68 ba f3 37 24 39 e5 87 98 39 c4 05 01 b8
       -0.00088694214 0.00015661101 0.00029092949 -3.0761366e-05
000110 6d 51 9f 39 7c 05 52 39 2e 8d 68 b7 cc c5 bc 39
       0.0003038751 0.00020029204 -1.3861149e-05 0.00036005524
000120 d2 49 60 b9 bb e3 94 36 d0 27 e1 39 5e b2 0d b9
       -0.00021389805 4.437255e-06 0.00042945007 -0.00013513255
000130 1f 6b 2e 38 ee ad f7 b8 4c 4d 69 b8 0b 3e 8a 37
       4.1584597e-05 -0.00011810275 -5.5623517e-05 1.6479773e-05
000140 dc 6f 3b 38 ee 70 ff b8 40 48 a2 38 de 45 ee 39
       4.468845e-05 -0.00012180382 7.7382196e-05 0.00045446953
000150 1d e1 90 b8 cb 6d dd b9 9c f5 a4 b7 7f 7b cd 38
       -6.908386e-05 -0.00042234207 -1.9664694e-05 9.798165e-05
000160 d9 fe 8a 39 86 73 41 b8 88 e3 b6 b8 75 44 9d b9
       0.00026511287 -4.6122375e-05 -8.720817e-05 -0.00029996378
000170 f2 2a c6 37 91 92 9a 39 61 06 6c b9 3b b2 da 37
       2.3623437e-05 0.0002948237 -0.0002250909 2.607062e-05
000180 93 31 18 ba 62 43 e7 b9 0b 2a 84 b8 0f ff ad 37
       -0.0005805727 -0.00044109958 -6.3020816e-05 2.0741978e-05
000190 c7 8e 12 39 2c 06 29 ba 34 5d a3 3a ed 90 8b 38
       0.00013976834 -0.0006447758 0.001246369 6.655031e-05
0001a0 16 b7 ad b9 1d 18 34 b9 31 2c e9 37 92 7d cf b9
       -0.0003313354 -0.0001717512 2.7796343e-05 -0.00039575674
0001b0 a5 b0 5b b9 82 db b6 37 db 31 99 b7 13 5a f7 39
       -0.00020951273 2.1798307e-05 -1.8262237e-05 0.00047178622
0001c0 cc 51 1d ba 3c 6d c7 39 70 15 0d ba 36 f8 df b7
       -0.00060012634 0.00038037624 -0.00053819176 -2.6699254e-05
0001d0 24 23 3a 35 0a c4 83 ba a8 f6 05 3a 48 1f 32 38
       6.9341536e-07 -0.0010052931 0.0005110302 4.246764e-05
0001e0 64 c2 cf b8 e8 92 8d 39 fb d2 9a 39 e5 57 ee 39
       -9.906737e-05 0.0002700307 0.00029530362 0.00045460384
0001f0 d9 3f 09 39 02 a5 ed b9 3b 4f 2a b9 77 e4 4e 39
       0.00013089123 -0.00045327103 -0.00016241979 0.000197308
000200 62 bc 61 b8 4b d1 64 39 6a 09 90 39 9c 0f a2 b8
       -5.3819625e-05 0.00021821742 0.00027472834 -7.7276694e-05
000210 5f 50 dc 39 4b f0 08 39 12 44 c0 b8 dd 7e 80 b6
       0.0004202155 0.00013059487 -9.1679525e-05 -3.829466e-06
000220 21 f4 5c ba 4a 9c f1 38 36 6c bc b7 69 99 a7 39
       -0.0008428712 0.000115208866 -2.2461736e-05 0.00031967022
000230 ef 0a a9 37 fc 0e 33 34 92 87 12 b9 23 81 42 38
       2.0151461e-05 1.6676125e-07 -0.00013974149 4.6373472e-05
000240 3b ac d0 39 42 3c ab 39 00 76 65 38 4e 0f 13 b9
       0.00039801173 0.00032660557 5.470775e-05 -0.00014024714
000250 4c 1f bd 38 ba da 39 39 0e 8c 28 ba 8a 88 61 38
       9.018052e-05 0.00017724457 -0.0006429561 5.3771342e-05
000260 bf a4 a5 38 2e 0d ee 38 65 58 35 b9 86 79 58 3a
       7.8984995e-05 0.00011351179 -0.00017294435 0.00082578545
000270 fc c2 04 3a 92 0b ca b8 90 60 15 b7 2a 35 11 39
       0.00050644553 -9.634266e-05 -8.903575e-06 0.00013848083
000280 cc 0d 64 39 8e f0 c3 37 f5 2f a6 36 a6 82 1a b9
       0.00021748914 2.3357828e-05 4.9527684e-06 -0.00014735255
000290 3c 13 88 b8 f0 79 8c b9 ee e0 96 38 32 dd 55 ba
       -6.488568e-05 -0.0002679373 7.194454e-05 -0.0008158266
0002a0 c4 05 cd 38 6a 12 e0 36 7f cb 1a 37 fb 1a 6e 39
       9.776236e-05 6.677864e-06 9.226495e-06 0.000227075
0002b0 17 5e f8 b5 8e 66 c3 38 65 aa af b9 78 c6 52 b6
       -1.8504824e-06 9.317427e-05 -0.00033505555 -3.1407963e-06
0002c0 b2 5b c3 b9 8f 8b 4a 39 5b 26 17 b9 5c 8b 23 b9
       -0.00037261617 0.00019316211 -0.0001441477 -0.00015596807
0002d0 2e 0f 01 3a 47 68 6e 39 97 c4 c8 b9 96 d2 14 3a
       0.00049232214 0.00022736295 -0.00038293444 0.00056771317
0002e0 b8 e2 3c ba a5 09 a3 b7 ca 2a 81 b7 3f bb a2 b9
       -0.00072054146 -1.9435605e-05 -1.5397924e-05 -0.00031038557
0002f0 1a d0 e2 39 11 5f a2 38 95 0b f0 38 e9 84 df 39
       0.00043261127 7.7424695e-05 0.00011446249 0.000426329
000300 12 c3 6e b8 8e ce 07 39 4c d0 82 b6 b8 61 8d 38
       -5.6925295e-05 0.00012951551 -3.898551e-06 6.7416055e-05
000310 8a 91 14 b9 d7 1c 9c 3a 22 15 54 39 c4 31 21 b9
       -0.00014168597 0.001191045 0.00020225768 -0.00015372696
000320 a4 e1 3a b9 0a b8 c4 39 7a 4d 68 b9 fa 28 72 b9
       -0.000178224 0.00037521153 -0.00022154106 -0.00023094183
000330 f8 96 93 39 a6 30 12 37 52 c5 09 b9 bb 8d 33 b9
       0.00028150505 8.713605e-06 -0.00013138846 -0.00017123569
000340 96 de 2e 37 e4 12 db 39 4c 96 f0 b7 98 d9 82 38
       1.0423033e-05 0.0004178501 -2.8680217e-05 6.239413e-05
000350 23 6c 83 39 60 de 1a 38 b0 50 84 b8 51 45 96 39
       0.00025066835 3.6923564e-05 -6.30928e-05 0.00028661874
000360 ff 4b d0 3a 57 6e 43 b9 ec 99 89 38 fe 32 0e b8
       0.0015891789 -0.00018637754 6.561339e-05 -3.390293e-05
000370 37 68 02 39 18 74 c5 38 08 eb 01 b8 2c 0c b1 b7
       0.00012436589 9.415316e-05 -3.0974887e-05 -2.1105712e-05
000380 c6 43 15 ba b6 0a 4d 3a 5a 15 58 38 4a 6a ea 39
       -0.0005693998 0.00078217254 5.15183e-05 0.0004471115
000390 33 cd 78 39 0a 81 a5 b7 a1 ac 7f b9 89 5d 2d 39
       0.00023727566 -1.9729621e-05 -0.00024383004 0.0001653341
0003a0 0e dd 66 3a 02 2d 58 b9 af f9 dd b9 c6 ed 13 38
       0.00088067434 -0.00020616132 -0.00042338434 3.5268975e-05
0003b0 04 8d 15 b8 62 fd ba b9 bc 79 c4 b8 08 39 e9 b8
       -3.56557e-05 -0.0003566547 -9.368683e-05 -0.00011120929
0003c0 3c 3b bf b6 12 89 71 39 a3 7f 20 b9 54 46 23 3a
       -5.6991394e-06 0.00023034614 -0.00015306337 0.0006228436
0003d0 aa cd d0 b8 e6 99 8e 37 9f 00 76 b8 e8 6b 0c 3a
       -9.956521e-05 1.6999384e-05 -5.865155e-05 0.00053566555
0003e0 2b fb 67 b8 b1 4d 1a 39 f0 6c bf b9 7f 23 9d 3a
       -5.530861e-05 0.00014715527 -0.00036511524 0.0011988728
0003f0 94 5a 08 b8 3f c6 ca 36 62 5d 82 b9 8a 10 46 b9
       -3.2509284e-05 6.043148e-06 -0.00024865108 -0.00018888913

StatefulPartitionedCall/Generator/dense_3/MatMul/ReadVariableOp:0 f4 [14, 256]
000000 6c a2 f2 3c ea 3f 1e 3e 93 43 86 bc 4c 2d db bc
       0.029618464 0.15454069 -0.016389644 -0.026754998
000010 98 5d 5a 3d a9 0b 03 3e c3 50 82 bd f7 10 4b bd
       0.053311914 0.12797417 -0.0636306 -0.049576726
000020 fb 03 22 3e e6 3a 36 bd 85 d6 4f bd 2f 3c 04 be
       0.15821831 -0.044489764 -0.05074169 -0.12913583
000030 82 b5 2a 3e 66 67 12 be bc 3b a0 3d f6 7a 96 3d
       0.16670802 -0.14297256 0.078238934 0.07347672
000040 bc e1 b6 3c 29 db 33 3e fe 45 38 bd 8b 4a 9f 3d
       0.022324435 0.17564072 -0.044988625 0.0777789
000050 fa fc fd bd b8 52 d0 3d a6 1d 23 be 11 1a 8b bc
       -0.12401767 0.10172027 -0.15929279 -0.016980203
000060 f2 0f 8f bd 17 2d 05 bd b5 53 f7 bd a5 c0 3c 3e
       -0.06985463 -0.032513704 -0.12076513 0.18432863
000070 c6 3d 97 bd 48 ed 5d bd 3f d1 df bd e6 16 f7 bc
       -0.07384829 -0.054181367 -0.109285824 -0.030162286
000080 d3 7f 14 3d ff 19 16 3e 82 6c 86 bd 90 b2 90 3d
       0.036254715 0.14658354 -0.06563665 0.07065308
000090 2f 4c 3e 3e 52 fc a6 bd d7 be d6 bd 15 bc d0 3c
       0.18583749 -0.08153595 -0.104856186 0.02548031
0000a0 24 22 c9 3c 4e c5 00 be 9b e4 55 3d 02 cf 24 bd
       0.024552412 -0.12575266 0.05221997 -0.04023648
0000b0 9c cf 01 3c c2 3e 02 be c3 dc 90 bc 82 7e 17 be
       0.007923033 -0.12719253 -0.017683392 -0.14794353
0000c0 2f 5c 8a bd b2 1b 2c be bb 3a f7 bc 9d 68 0f 3e
       -0.06755864 -0.1680744 -0.030179372 0.1400475
0000d0 b3 a5 5d 3d e0 1a 75 bc fb 87 a8 3d b2 d6 05 3d
       0.0541131 -0.014960021 0.08229061 0.032675453
0000e0 69 56 75 bd 49 ba ad bc be 7c 25 bc a4 48 2c 3e
       -0.05989686 -0.021206992 -0.010100542 0.16824585
0000f0 b8 86 98 bd 6f c0 96 bd 27 28 d7 bb e9 54 65 bc
       -0.074475706 -0.073609225 -0.006566066 -0.013997295
000100 b6 05 25 3e 90 0d 87 3d 4a 30 5c 3c d7 98 19 3c
       0.1611546 0.06594384 0.013439247 0.009374819
000110 0f a6 6b bd 35 92 78 3c 16 00 2e bd 69 00 61 bd
       -0.057531413 0.015171577 -0.04248055 -0.05493203
000120 f9 3d e5 3d 84 9e ad 3c eb 4a cb bd dc fb a1 3d
       0.11193461 0.02119375 -0.09926399 0.079093665
000130 6b 1d b7 3d aa a4 1a be b9 87 03 3e cb 9e 6a bd
       0.08941158 -0.15101877 0.12844743 -0.057280343
000140 41 21 8f 3c 8a 69 bf bd 31 53 69 3d 4f b4 b9 3d
       0.017471911 -0.09346302 0.056964103 0.09067594
000150 cb 83 64 bd 69 f9 2e 3e 1c 6e c5 bd 9a f7 17 3e
       -0.05578975 0.1708733 -0.09640142 0.14840546
000160 39 fd 82 3d e5 d0 97 bd fd e7 e5 3d 65 ee 6d bd
       0.06395955 -0.0741289 0.11225889 -0.05808868
000170 83 0a 19 3e 64 ee 0e 3e 18 11 0c 3e 11 d6 e4 bc
       0.14945416 0.13958126 0.13678396 -0.027934106
000180 5e 30 65 3d f9 53 87 bd e5 0d 8a bb 15 b1 26 bd
       0.05595433 -0.066078134 -0.004213082 -0.040696222
000190 c2 7b e0 bd 51 46 06 be 02 03 b3 3a 0e d0 b9 bd
       -0.10961105 -0.13112761 0.0013657513 -0.090728864
0001a0 69 06 b5 3c 4f c0 21 bc 91 e5 a7 3d a2 ea 03 be
       0.022097783 -0.00987251 0.08198083 -0.12882474
0001b0 7c e6 c6 3d 2e 43 d5 bd 05 18 68 bc 9e 6b 4c 3b
       0.0971193 -0.10413204 -0.014165883 0.0031192075
0001c0 58 e6 2f bd 29 ac 01 be a2 5a 6b bd 59 7e ef 3d
       -0.042944282 -0.1266333 -0.05745948 0.11694021
0001d0 5c c4 08 be 0a 0e 58 bd e9 5a 0b 3e 20 00 00 bd
       -0.13356155 -0.052747764 0.13608898 -0.03125012
0001e0 ff 3f 19 3e 70 e1 70 3d 1d 33 0d bd a8 94 e7 bc
       0.14965819 0.058808744 -0.034472574 -0.028269127
0001f0 3e b7 da bd e7 b6 f2 3c b2 91 00 3b 4f e2 f4 bd
       -0.10679482 0.02962823 0.0019618091 -0.119572274
000200 12 5e dc 3d ba fc 45 bc f1 ed 8e 3d 2f 67 aa bc
       0.1076013 -0.0120841805 0.069789775 -0.020801155
000210 88 00 17 bd c5 c2 e9 3d 98 e9 85 3d c9 31 47 3d
       -0.03686574 0.114141025 0.06538695 0.048631463
000220 09 f0 fa bc 14 fe 36 be cf 38 d0 bd a7 56 c4 3d
       -0.030632036 -0.1787036 -0.101670854 0.0958684
000230 be 3c 61 3d 32 1b 24 bd 05 cc d1 3b e8 c8 17 3e
       0.05498957 -0.040064998 0.006402495 0.14822733
000240 2d a5 47 3c 39 1e 13 3d e2 2d d8 3d e5 18 41 3c
       0.012185377 0.035917494 0.105556265 0.0117857205
000250 58 c2 25 be 5b 23 16 3c 8a 40 c7 bd 57 2c fc 3d
       -0.16187418 0.009163703 -0.09729107 0.12313145
000260 96 70 f1 3d bf 65 05 be 75 08 e6 bd ed 76 dd bd
       0.11789052 -0.13027094 -0.11232082 -0.10813699
000270 ec 42 e3 bd d5 e4 16 3e c5 97 cc 3d d9 38 c2 3c
       -0.11096749 0.1473573 0.09989885 0.023708748
000280 a3 57 25 bc cb 2e e2 3d 3f c6 11 3d 67 ef 1f be
       -0.010091695 0.11044081 0.035589453 -0.15618668
000290 0b 20 72 3d 51 e2 03 bd 77 3f ff 3d b6 3a d8 bd
       0.05911259 -0.032198254 0.12463277 -0.10558073
0002a0 b4 66 46 bd 56 65 23 3d 29 dc cd 3b 3e 02 cc 3d
       -0.04843779 0.039891563 0.0062823487 0.09961365
0002b0 b4 22 f5 3d c4 e1 82 bc 70 56 d7 3d e4 f1 7d 3d
       0.1196951 -0.015976794 0.105145335 0.061998263
0002c0 58 93 1f be b8 c2 0e bd 7d 6d a0 3b c6 9e 29 3d
       -0.15583551 -0.034853667 0.0048958645 0.041411184
0002d0 2b 35 f3 3d 4f c7 0d 3e f6 a7 8d 3c 5f e1 ce 3d
       0.11875375 0.13845561 0.017292004 0.1010158
0002e0 be 7e 57 b8 33 58 39 3d cc c3 67 bd 52 59 35 bc
       -5.1378032e-05 0.04525013 -0.05658321 -0.011068659
0002f0 2c cf ca bc 3b cc 1a bd 63 c5 dc bc ce 80 10 bd
       -0.02475699 -0.037792426 -0.02694959 -0.035279088
000300 27 a6 d8 bd 44 1b 35 3e 2e 01 fb 3d 4b 82 88 3d
       -0.10578566 0.17686182 0.122560844 0.066654764
000310 f9 55 17 3d ac fa 7c bd dc fa f4 bd 85 fd 11 be
       0.036947224 -0.061762497 -0.1196191 -0.14256866
000320 2f e2 49 ba 6a 3e 20 3e 11 8e 0d be 77 18 e8 3d
       -0.00077012455 0.15648809 -0.13823725 0.11332791
000330 33 1b 2a 3e 23 38 90 3c 70 5f ce bc b1 1c 8e 3c
       0.16611938 0.017604893 -0.025191993 0.017347666
000340 65 9e 19 3e a3 02 5f bd 75 7c 17 3e cf 75 c9 bd
       0.15001829 -0.054445874 0.1479357 -0.09836923
000350 b5 f2 16 3e 3f 43 b1 3c 27 eb e5 bd 74 b7 09 be
       0.14741023 0.02163851 -0.112264924 -0.13448888
000360 0d f4 9e 3d c1 72 bd bd 40 50 4e 3c c9 96 fa 3d
       0.07761393 -0.09250403 0.012592375 0.12235791
000370 f4 49 9c bc bf d5 fb bd 81 c8 a3 3d 50 38 47 3e
       -0.019078232 -0.12296628 0.079972275 0.19455075
000380 c6 b3 c1 bd 02 61 69 3d ba 0b 91 bc a6 a9 ef 3d
       -0.09458117 0.05697728 -0.017705787 0.1170228
000390 0d 6f 16 3e bf 99 0a be 40 5b 00 3e 59 fb 0c be
       0.146908 -0.13535212 0.12534809 -0.13767757
0003a0 a9 dd 46 bd 82 c7 eb bd f8 5e 38 be 0c 33 a2 3d
       -0.048551235 -0.115126625 -0.18004978 0.07919893
0003b0 c6 40 84 bd 6d cd 87 bd 8a 4b 03 3d d9 60 c7 bd
       -0.06457667 -0.06630979 0.03205446 -0.09735269
0003c0 ae e8 91 3d 8c 0c e1 bd 90 9a e7 3d 29 1f 08 bd
       0.07124458 -0.10988721 0.11308777 -0.03323284
0003d0 07 51 b1 bd d9 2a 30 3d 66 a3 17 3e ff b0 05 3e
       -0.08658033 0.043009613 0.14808425 0.130558
0003e0 5d 0c 99 3d 27 9d 70 3d 1f 4e d5 bd b3 1f f6 3d
       0.07473061 0.058743622 -0.10415291 0.12017765
0003f0 70 27 25 3d 7f 8a 92 3c a5 c2 b0 bd 09 3c 00 3e
       0.040320814 0.017888306 -0.086308755 0.12522902

StatefulPartitionedCall/Generator/dense_3/BiasAdd/ReadVariableOp:0 f4 [256]
000000 19 d7 44 ba a0 6e 91 38 29 83 3a b8 50 40 ab 3a
       -0.00075088587 6.934744e-05 -4.4468008e-05 0.0013065431
000010 0e 02 e4 3b 38 ef da b7 79 d9 8e ba c6 0f 28 b9
       0.0069582528 -2.609902e-05 -0.0010898552 -0.00016027605
000020 9c e0 a0 ba 72 df fa ba 50 07 bc b9 7b fc 30 b9
       -0.001227397 -0.0019140078 -0.00035863603 -0.00016878724
000030 e0 91 04 3b 56 f0 31 ba 52 25 86 ba 90 c3 18 ba
       0.002022855 -0.0006787827 -0.0010234511 -0.0005827481
000040 45 92 e0 39 cd d4 5b 39 49 90 04 3a c1 6d 3d b9
       0.0004283359 0.00020964742 0.00050569006 -0.00018065331
000050 40 c9 b9 ba e8 7e b0 ba 99 e3 7b 39 3c 47 c9 39
       -0.0014174357 -0.0013465555 0.00024022012 0.0003839078
000060 4d f6 80 39 05 0c 26 39 2d 90 60 b9 ff fa 54 ba
       0.0002459757 0.00015835471 -0.00021416014 -0.00081245595
000070 92 bc 0b 3a bc 08 52 39 85 e1 45 3a 89 e5 d6 39
       0.00053305284 0.00020030414 0.00075485586 0.00040988278
000080 55 96 ad ba 7d c4 97 b9 e6 09 df b8 62 c5 cf bb
       -0.0013243655 -0.0002894736 -0.00010635312 -0.0063406685
000090 4b ce d5 ba 3e a4 7a 3a 18 10 47 3c 4c 4a 7c ba
       -0.001631209 0.0009561217 0.012149833 -0.0009624108
0000a0 c7 71 99 b9 d1 49 93 b9 23 d8 5e 3a b5 34 74 ba
       -0.00029267205 -0.00028093022 0.0008500835 -0.0009315715
0000b0 75 26 52 ba cd d0 35 ba 3f 3e aa b8 b0 c1 f8 b9
       -0.0008016595 -0.0006935716 -8.117826e-05 -0.00047446555
0000c0 80 07 1e 3a cb 57 0d 3a 5c 99 40 ba a5 54 1c b9
       0.0006028339 0.00053918053 -0.0007347071 -0.00014908852
0000d0 26 5c 11 bb 73 8d 3f ba 81 cc 68 b8 dd 6f f6 b9
       -0.002218017 -0.00073071494 -5.550357e-05 -0.0004700412
0000e0 b5 17 2d 3a 5c 7d 0c 3a 1e c3 bb 39 62 48 c0 38
       0.0006602959 0.0005359256 0.00035812793 9.168756e-05
0000f0 07 97 87 37 17 d2 a2 38 53 14 20 b8 1e ad ed 39
       1.6163582e-05 7.763894e-05 -3.81659e-05 0.00045333145
000100 72 f9 9f b9 77 74 83 b9 96 a3 cd 38 28 9b 81 39
       -0.00030512695 -0.0002507304 9.805632e-05 0.00024720398
000110 4e f9 6a 39 1b ba b3 3a 45 b7 6b 3b 22 61 9e 39
       0.00022408852 0.001371208 0.0035967391 0.00030208478
000120 7c d8 fa 39 98 44 c3 b9 77 7c dc b9 8f 31 9e 3a
       0.0004784501 -0.00037244405 -0.00042054403 0.0012069213
000130 6d bb cc 39 60 e2 c4 b9 6b c0 24 38 a3 b2 9f ba
       0.00039049555 -0.00037552696 3.927985e-05 -0.0012183975
000140 54 00 f2 38 f6 cc 80 b8 77 91 69 38 06 21 34 39
       0.0001153952 -6.1416926e-05 5.5687004e-05 0.0001717844
000150 4a 52 23 39 0b f6 e2 39 da 00 ba 3a 91 74 50 3a
       0.00015575546 0.00043289395 0.0014190928 0.000795194
000160 89 e4 bf 3a 1c 75 4c ba 04 e7 3d 3a 69 0c 77 bb
       0.0014640252 -0.0007799433 0.0007244202 -0.0037696606
000170 39 94 6d 3a cc cc a7 b8 58 a3 92 b9 65 9d 83 3b
       0.00090629194 -8.001327e-05 -0.0002796899 0.0040165656
000180 22 bd c6 b9 df 82 1a ba c5 f2 3f b9 c9 6a ac b9
       -0.00037906418 -0.0005894135 -0.00018305618 -0.00032885958
000190 88 51 a3 38 4a 2e 47 3a d3 f6 43 3a 8b bd 21 b9
       7.787632e-05 0.0007598145 0.00074754393 -0.00015424767
0001a0 35 72 f5 b7 c4 10 a7 3a 6f 38 b3 3a 1f 24 48 39
       -2.9259458e-05 0.0012746085 0.0013673435 0.00019086942
0001b0 12 17 99 39 ac 50 a4 b8 15 2a 11 3a 91 5b 1a 39
       0.00029199623 -7.835156e-05 0.0005537582 0.00014720696
0001c0 e0 ee a0 3a 75 06 63 39 53 12 88 37 5d 4d b0 39
       0.0012278222 0.00021650812 1.6220996e-05 0.00033626976
0001d0 37 27 a7 b9 93 25 80 b9 ed e8 2c ba e9 ab 60 ba
       -0.0003188194 -0.00024442057 -0.0006595988 -0.00085705385
0001e0 45 8c 0a ba 4c 6f d5 b9 39 4c 20 ba ea ab 7a ba
       -0.0005285184 -0.00040709449 -0.00061148737 -0.00095623604
0001f0 81 ae 20 3a 09 9d 1b 3a d1 37 85 3a ce 71 87 39
       0.0006129519 0.0005936181 0.0010163729 0.00025833998
000200 6f 72 e8 39 11 af 61 b9 b0 f6 60 ba f9 6c 24 37
       0.00044335748 -0.0002152289 -0.0008581681 9.800534e-06
000210 c2 f3 24 3a f6 c4 ee 39 69 88 40 ba f7 92 d5 37
       0.0006292426 0.00045541645 -0.00073445454 2.5460015e-05
000220 a8 8d 68 b9 6b 6b 20 3a eb 08 bc 3a 48 3c 6e 3a
       -0.00022178015 0.0006119522 0.001434592 0.0009087962
000230 8a bf 87 b8 53 8f 08 3a af 37 85 ba 5e bd 91 38
       -6.4729786e-05 0.0005209345 -0.001016369 6.949411e-05
000240 bf 5e ab ba 58 f2 21 ba 97 65 09 3b f6 aa 22 ba
       -0.0013074501 -0.00061777746 0.0020965093 -0.0006205285
000250 fe a4 1f 39 2b 39 8c b8 2b c2 df 3a 14 b5 90 b9
       0.00015224886 -6.6863686e-05 0.0017071416 -0.00027600734
000260 5f 0f 4c 39 a6 ff 73 b9 c3 eb 7e 38 67 ec 60 b8
       0.00019460682 -0.00023269522 6.077789e-05 -5.362593e-05
000270 d1 b3 91 39 de 6c 27 39 87 14 5d b8 0d 4a ce b9
       0.0002779053 0.00015966917 -5.2709624e-05 -0.00039346554
000280 b7 9d c7 ba eb e5 1d ba 2e bb 6b ba de 86 82 ba
       -0.0015229498 -0.0006023335 -0.00089924305 -0.0009958406
000290 13 46 0f ba 89 03 cf 39 ac ae 40 b9 fe d8 b7 b9
       -0.0005465459 0.0003948475 -0.00018375617 -0.00035066152
0002a0 86 40 a9 39 7e 1d b0 ba 70 06 5d 3a 99 e9 d5 b9
       0.00032282266 -0.0013436524 0.000843144 -0.0004080057
0002b0 fc 46 19 ba a1 7e 59 bb cb 1b 7c b9 47 d6 97 3a
       -0.00058470643 -0.003318705 -0.00024042946 0.0011584245
0002c0 2a 5f e7 b9 76 42 d7 39 47 f7 88 b9 82 77 81 39
       -0.00044130656 0.00041057513 -0.00026124177 0.00024693838
0002d0 b7 7a 10 38 80 b2 c0 3a c2 2e e7 39 7e d4 00 ba
       3.4446562e-05 0.0014701635 0.0004409459 -0.00049144763
0002e0 95 af f0 b9 b9 12 f8 b9 95 71 39 b9 ad 3c cf b9
       -0.00045907186 -0.00047316196 -0.00017685287 -0.00039527324
0002f0 e1 4d c5 38 d8 c6 15 39 4e 88 91 b8 eb 6d 57 39
       9.408198e-05 0.00014283822 -6.9395275e-05 0.00020544945
000300 44 49 53 b9 16 68 da 39 f8 f0 3d b8 42 51 50 bb
       -0.00020149822 0.0004165775 -4.528553e-05 -0.0031786715
000310 35 29 21 39 02 4a 1e ba d1 20 2d ba 12 ec 16 b9
       0.00015369507 -0.00060382497 -0.00066043163 -0.00014393058
000320 e7 ef ac 3a 72 8b ef b9 c9 0e 8a b9 fb 38 e6 b9
       0.0013194055 -0.00045689527 -0.00026332427 -0.00043911472
000330 48 42 a4 38 35 84 8b b9 87 95 10 ba ea c4 9a 3b
       7.832475e-05 -0.00026610648 -0.00055154454 0.004723181
000340 5b 29 b8 39 e9 b9 c5 b7 ed 72 57 b9 d0 4a fa 39
       0.00035126027 -2.3570801e-05 -0.00020546811 0.00047739455
000350 4f b2 39 3a f0 34 de 35 98 06 31 ba e7 d7 f5 3a
       0.000708376 1.6555696e-06 -0.00067529967 0.001875636
000360 56 70 24 ba ac d6 91 b9 fc bf 22 b8 aa 83 53 3a
       -0.0006272843 -0.00027816498 -3.880261e-05 0.00080686307
000370 bb cb b7 b9 26 c0 9a b9 c4 1b 4a b9 af b9 e7 ba
       -0.0003505627 -0.0002951633 -0.00019274565 -0.0017679239
000380 12 4b fa ba 3c eb 1e 39 7d 13 38 b9 d9 d3 dd ba
       -0.0019095859 0.00015155686 -0.00017554867 -0.0016924097
000390 09 c3 71 ba ae 24 0c ba 6b 64 8f b9 e5 d7 a5 ba
       -0.0009222483 -0.0005346042 -0.00027349903 -0.0012652843
0003a0 21 58 bd b9 bc 61 9d 39 b4 27 f4 39 09 1b cf 39
       -0.0003611455 0.0003001819 0.00046568888 0.0003950226
0003b0 26 ac db b8 d9 59 92 ba 85 2d c6 b9 69 29 68 b8
       -0.00010474799 -0.0011165693 -0.00037799418 -5.5351677e-05
0003c0 44 ba f1 ba ea be b0 b8 1f b9 58 3a 4e 9e 3e b6
       -0.0018442352 -8.4278945e-05 0.0008267331 -2.8404352e-06
0003d0 77 20 0f 3a 4c 07 8a ba 4f e0 46 b9 79 7b 0d 3a
       0.0005459855 -0.0010530739 -0.00018966313 0.0005397122
0003e0 46 83 fd b9 ca 05 18 b9 54 45 8d b9 12 f0 79 b8
       -0.00048353727 -0.00014498006 -0.0002694527 -5.958981e-05
0003f0 d5 31 3b b9 ec 2f 39 ba 81 97 f1 38 7c 76 7b b9
       -0.00017852274 -0.0007064331 0.00011519995 -0.00023981364

StatefulPartitionedCall/Generator/batch_normalization_3/batchnorm/sub:0 f4 [256]
000000 87 65 58 be 86 17 42 3e 5e ee 58 bd ea 71 94 3d
       -0.2113248 0.18954286 -0.0529617 0.0724829
000010 a0 8e 5d be e0 fa dd 3e f6 ce 1f 3e fb 70 24 3e
       -0.21636438 0.43355465 0.15606293 0.16058724
000020 d2 d5 92 3d f0 ce 46 bc 92 5a 12 be 89 98 5f be
       0.07169689 -0.012134299 -0.14292362 -0.21835531
000030 e6 dd 30 3e 50 a8 46 3d fe 10 4f 3c ab 96 7b 3c
       0.17272148 0.04850036 0.012638329 0.015355746
000040 92 84 25 be 34 8b 8d bd 82 ae 3e bd 6a b3 f4 bd
       -0.16163853 -0.069113165 -0.046553142 -0.11948283
000050 ef 13 9d 3e 47 e1 88 bd 0b b3 2f 3d 09 c1 97 3e
       0.3067927 -0.06683593 0.042895358 0.29639462
000060 24 0e 88 bd 16 b3 73 be e6 0f 66 bd 7a ac 09 bf
       -0.06643322 -0.23798785 -0.056167506 -0.53778803
000070 bf 77 b7 3e 6f e9 23 3d 40 bd 87 b9 34 9c b1 3e
       0.35833547 0.04001754 -0.0002589021 0.34689486
000080 3f 1f 02 3d 20 00 49 3e 62 12 cf bc bb 55 b1 3e
       0.03176808 0.19628954 -0.02527732 0.3463572
000090 13 9f f8 3d 81 70 80 3c 9e 72 3f 3d a6 2b b9 3d
       0.12139716 0.015678646 0.046740167 0.090415284
0000a0 ba c2 4d 3e 76 05 60 bd e4 ae 5c bd 83 c7 1c be
       0.20093814 -0.054692708 -0.053877726 -0.15310483
0000b0 e6 39 85 3d 8d 4d fa 3d 92 80 50 be 8c 2f 13 3e
       0.06505184 0.12221823 -0.20361546 0.14373606
0000c0 83 14 0c bf 9b 19 33 3e 5d 9d ad 3e fa b4 3c bd
       -0.547188 0.17490236 0.3390912 -0.04607103
0000d0 63 c5 4f bd 7e 9f a8 3d d6 3e 22 3d fe 47 c1 bc
       -0.050725352 0.08233546 0.039610706 -0.023593899
0000e0 98 6d 07 be 02 01 23 3f 70 e1 a6 3b 30 b2 3d 3e
       -0.132254 0.6367341 0.005092792 0.18525004
0000f0 aa d9 0c be 29 f5 b6 be af 13 ca bd e4 d7 32 3e
       -0.13754907 -0.35733917 -0.098670356 0.17465168
000100 e0 a8 f3 3e 11 f7 b6 bd 56 3c c4 3d 90 09 62 bd
       0.4758978 -0.08933843 0.09581821 -0.0551849
000110 b7 3f 3a 3e 7a 7c c1 3c bb bf 16 3e a7 f6 36 be
       0.18188368 0.023618925 0.14721577 -0.17867528
000120 fb f1 45 3e 7a ba d6 3e bd c2 8e be 1e 0d b8 be
       0.1933059 0.41939145 -0.2788295 -0.35947508
000130 c7 90 18 3f 44 18 72 3e 74 b4 00 be 0a 0c bc 3d
       0.5959591 0.23642069 -0.12568837 0.09181984
000140 ce b6 cb be a8 19 c2 bd 4a 05 4e be bc 8b 77 be
       -0.39787906 -0.0947755 -0.20119205 -0.24174398
000150 93 aa 97 be 83 ab a5 bd 96 99 39 3d 62 d3 03 3c
       -0.29622325 -0.08089354 0.045312487 0.008046003
000160 b8 b6 f2 bc b4 f7 97 bc 6f 4b d6 3e 20 58 c2 3d
       -0.029628143 -0.018550731 0.41854426 0.09489465
000170 22 fd f9 3e 01 92 b0 3d c3 ed cd 3c a5 18 b9 3d
       0.48825938 0.08621598 0.025137788 0.09037904
000180 79 9d 0a bd 8a a0 14 bf 61 73 2b 3d 5b 08 a6 3e
       -0.033841584 -0.58057463 0.04185808 0.3242825
000190 b4 27 24 be 9e 54 60 3e 84 ec 45 be 9f e1 fc bd
       -0.1603077 0.21907279 -0.19328505 -0.12347721
0001a0 61 ab 49 3d a5 e6 b1 3e 91 02 dc bd 1a b0 a4 3e
       0.049235705 0.3474628 -0.10742677 0.32165605
0001b0 8d d9 c3 bd 92 1f 64 bc 1b af 56 3e 66 9b db bc
       -0.09562979 -0.013923543 0.20965235 -0.026807498
0001c0 ed 3b 89 3e 7e 2f 88 3d 9e cc 2c bb af e6 b3 be
       0.26803532 0.066496834 -0.0026367079 -0.35136935
0001d0 f8 a5 48 3e fe 0d 7d be 4e 6c ec 3d aa 05 09 3f
       0.19594562 -0.24712369 0.11544095 0.5352427
0001e0 ba 4f 31 bd 6b b8 e0 bd a2 c4 1a 3d c9 99 19 3e
       -0.043288924 -0.10972675 0.03778518 0.1500007
0001f0 22 94 43 3e cb 90 26 be 7e 1d ba 3d 90 09 03 be
       0.19099477 -0.16266172 0.090876564 -0.12796617
000200 45 b5 ba 3e d6 27 a0 bd c6 d3 2b 3c 6c f0 40 be
       0.36466423 -0.07820098 0.010487502 -0.18841714
000210 90 4e 58 3b b9 d7 81 3e 9c 8b 88 3c 34 05 25 3e
       0.0033005811 0.25359896 0.016668133 0.16115266
000220 79 11 99 3e 87 8a f1 bc 0a 80 83 be 11 57 5b 3e
       0.29896143 -0.029485 -0.25683624 0.21419932
000230 c2 e7 a3 be f5 53 7a 3e e9 6e 92 be c5 01 17 be
       -0.32012755 0.2444609 -0.28600243 -0.14746769
000240 32 a4 88 3e e5 21 96 3e c4 2f aa 3e 48 d6 9a 3e
       0.2668777 0.29322734 0.33239567 0.3024161
000250 2c 9b d1 be ed 9c ae bc da 23 a5 3d 5c d6 9c bd
       -0.409387 -0.021315062 0.08063479 -0.07658073
000260 78 68 aa 3c 8e 8a ce 3d 8e c7 3f bd 39 f0 88 3e
       0.020801768 0.10085021 -0.04682117 0.26745775
000270 fe a6 40 bd 2c 1b 1d 3d 71 a9 90 3d 5c f1 03 be
       -0.047034256 0.03835599 0.070635684 -0.1288504
000280 c1 2b 0b be 74 e4 85 bd 22 00 6c 3e d2 62 e5 bd
       -0.1359091 -0.065377146 0.23046926 -0.11200489
000290 fc 69 89 be 96 e2 b7 bc e1 3b 77 3e a2 9b 53 be
       -0.26838672 -0.022446912 0.24143936 -0.20664838
0002a0 59 38 9e bd 44 78 16 bf 52 bf 90 3d ac 47 da bc
       -0.07725591 -0.5877726 0.070677415 -0.026645504
0002b0 61 77 be bc 85 75 3b 3c ce a6 85 3e e5 2d ae 3c
       -0.023250284 0.011441593 0.26103824 0.021262119
0002c0 3f d6 7f be cb 54 a5 be 13 f8 c3 3e 24 6c 5a 3d
       -0.24984072 -0.32291254 0.38275203 0.053325787
0002d0 2a f3 91 bc 67 9e 5d 3d 98 ee 9e 3e 9e d5 f2 bd
       -0.017816145 0.054106142 0.31041408 -0.118571505
0002e0 17 46 06 3e c4 62 7b 3e ca 9d 62 be ca b9 a2 bd
       0.13112675 0.24549395 -0.22130504 -0.07945593
0002f0 22 a4 e0 3d f2 ca c0 be 35 95 c2 3e 54 25 89 3e
       0.10968806 -0.37654835 0.3800446 0.26786292
000300 68 5b 13 3d f1 2d 82 bd d9 b8 ae 3d 82 16 e0 bd
       0.035975844 -0.06356419 0.08531351 -0.10941793
000310 24 81 7e 3e 36 e5 47 3d 1d 2f db be 4d 18 a1 be
       0.2485395 0.048802577 -0.42809382 -0.31463853
000320 1d 27 0d 3e 6f f3 ad 3d 51 a8 84 be 32 9b 0a 3e
       0.13784452 0.08493697 -0.25909665 0.13535765
000330 bc 5d aa 3e b2 0c 62 3e 09 1e 1a 3e 0f 55 2c be
       0.3327464 0.22075155 0.1505052 -0.16829322
000340 bf c8 56 be da 89 2e 3e b2 54 5d bd d7 50 5e 3d
       -0.20975016 0.17044774 -0.05403585 0.054276314
000350 ef 07 ce 3e 40 b6 ef bb 2a cf 6d 3e a7 28 5d be
       0.40240428 -0.007315427 0.23223558 -0.21597539
000360 e3 d4 91 be 2c d3 75 3e b6 f9 01 3e bb 44 2d 3e
       -0.28482732 0.24006337 0.12692913 0.1692075
000370 0e b7 0a be 04 60 8a bd ed 21 30 3e 72 ff 3a 3e
       -0.13546392 -0.06756595 0.17200442 0.18261507
000380 17 54 8d bd 24 97 0c 3e 6f 77 56 3e 6d ff d4 bd
       -0.069008045 0.1372953 0.20943998 -0.10400281
000390 44 9d d6 be 44 6c 58 bd 01 c6 4d 3e ec 56 1d 3d
       -0.4191686 -0.052837625 0.20095064 0.038412973
0003a0 47 32 f3 bd 27 98 16 3e 64 5a 48 3e 30 d7 ea bd
       -0.11874824 0.14706479 0.19565731 -0.11466825
0003b0 c4 3b 45 3e 81 44 a7 3e 33 7c 08 be 4d 34 17 be
       0.1926108 0.32669452 -0.13328628 -0.14766045
0003c0 55 06 1a bf bd ea 47 3d 83 0f 93 3e c2 f1 ec 3c
       -0.6016591 0.04880785 0.28722772 0.028923873
0003d0 b5 e3 79 3c 04 7c a0 bb c6 66 4b 3e 02 f6 0c bf
       0.0152520435 -0.0048975963 0.19863424 -0.5506288
0003e0 28 23 74 bd 2d 7e f1 3e 58 6f 3d be e0 f1 a8 be
       -0.05960384 0.47166577 -0.18499506 -0.32997036
0003f0 78 cd d7 bc e9 35 81 3e d0 f9 16 3e a6 04 89 be
       -0.026343092 0.25236443 0.14743733 -0.2676136

StatefulPartitionedCall/Generator/batch_normalization_3/batchnorm/mul:0 f4 [256]
000000 b7 6e 26 3f 89 ec 10 3f 0e ab 37 3f 59 04 38 3f
       0.6501269 0.56610924 0.71745384 0.71881634
000010 4c c0 01 3f e9 41 42 3f a2 0f f9 3e d0 5c 97 3f
       0.50684047 0.7588182 0.4864474 1.1825199
000020 4f 60 10 3f 75 0a 01 3f aa 24 6d 3f 94 62 68 3f
       0.56396955 0.5040658 0.9263407 0.9077542
000030 b4 ec 3d 3f cf 2b ca 3e e2 87 e8 3f f7 21 e5 3e
       0.74189305 0.39486548 1.8166468 0.44752476
000040 ca 6f 40 3f c1 a0 f3 3e 0e 48 f8 3e 2e c7 1f 3f
       0.75170577 0.47583583 0.48492473 0.624133
000050 6d 2a dc 3e ea c9 12 3f 22 ae 0e 3f c1 07 88 3f
       0.43001118 0.57339346 0.55734456 1.0627366
000060 2b 8e 73 3f b2 8c 42 3f ff 07 49 3f 61 61 9a 3f
       0.95138806 0.75995934 0.78527826 1.2060968
000070 a0 dd 21 3f c2 9c 0e 3f e6 48 0a 3f 3c a1 82 3f
       0.632288 0.55707943 0.54017484 1.0205455
000080 fb 1c 50 3f e3 49 10 3f 64 a6 29 3f 4e 32 36 3f
       0.8129422 0.5636274 0.66269517 0.7117051
000090 b4 db 36 3f a2 d3 42 3f 03 d6 4c 3f 31 15 59 3f
       0.7142899 0.76104176 0.80014056 0.8479796
0000a0 ce 57 e8 3e 4b 6c a6 3f 8d cf 1d 3f 3f 5f ac 3f
       0.4537949 1.3001798 0.6164482 1.3466567
0000b0 b2 af b1 3f ea e1 46 3f 81 1e 6d 3f c2 0a 7e 3f
       1.3881743 0.7768847 0.9262467 0.99235165
0000c0 c1 32 66 3f 11 82 40 3f be 41 f7 3e c6 6b 20 3f
       0.89921194 0.75198466 0.48292345 0.6266445
0000d0 40 73 3a 3f cb b1 7d 3f 73 dc 8a 3f 51 05 77 3f
       0.7283211 0.99099416 1.0848526 0.9649249
0000e0 85 26 1c 3f 58 69 a8 3f 98 59 23 3f 10 f9 a5 3f
       0.60996276 1.3157148 0.63808584 1.2966633
0000f0 b9 8e 84 3f 4a d2 64 3f 00 04 c1 3e 96 42 2a 3f
       1.0356055 0.89383376 0.37698364 0.6650785
000100 c6 f0 51 3f 5c 6b 28 3f d4 99 1e 3f 65 f2 1d 3f
       0.82008016 0.6578882 0.61953473 0.6169799
000110 2f 36 22 3f 27 66 3a 3f c3 f4 98 3f 7f de 16 3f
       0.6336393 0.7281212 1.1949695 0.5893325
000120 bf 21 36 3f 67 28 13 3f b0 30 22 3f 12 a9 81 3f
       0.7114524 0.57483524 0.6335554 1.0129721
000130 a2 da 75 3f 67 6d fa 3e 40 ca 51 3f ea 78 64 3f
       0.9603673 0.48911592 0.81949234 0.89247
000140 07 01 30 3f e3 95 ea 3e ee a5 7e 3f ca 69 21 3f
       0.6875157 0.4581748 0.9947194 0.63052046
000150 43 7f a2 3f c1 ef 20 3f 26 0b 46 3f 62 78 43 3f
       1.2695087 0.62865835 0.7736076 0.76355565
000160 4e c1 30 3f 84 e2 69 3f 8d 51 d6 3f a4 4e 6c 3f
       0.6904496 0.9136126 1.6743637 0.92307496
000170 2d f7 26 3f 4a 4c 27 3f 1f 12 7c 3f 47 c2 22 3f
       0.6522091 0.6535078 0.9846515 0.63577694
000180 ce f5 1f 3f a4 28 9c 3f 03 cf 44 3f 9a 18 29 3f
       0.62484443 1.2199903 0.76878375 0.66053164
000190 5f 19 31 3f 91 c0 4c 3f c5 1a 64 3f cd cd 1c 3f
       0.6917934 0.79981333 0.8910335 0.6125153
0001a0 96 1c 38 3f 21 75 8d 3f 33 ec 18 3f 21 a9 85 3f
       0.7191862 1.105137 0.5973541 1.0442239
0001b0 76 cf ed 3e 21 13 dd 3e 1d 3e de 3e 32 7a 88 3f
       0.46447343 0.43178657 0.43406764 1.0662291
0001c0 76 9a 1d 3f 5a ad 8d 3f 99 46 6a 3f a3 72 01 3f
       0.61563814 1.1068528 0.91513973 0.50565547
0001d0 b5 96 b5 3e 72 a7 8e 3f 5f 47 15 3f 5a 82 6e 3f
       0.35466543 1.114485 0.5831203 0.9316765
0001e0 bb 69 d5 3e 15 32 4c 3f 4a 09 0e 3f 8e e0 25 3f
       0.41682228 0.7976392 0.55482924 0.6479577
0001f0 35 cf 23 3f f7 37 48 3f 02 c7 0d 3f bf 3c d5 3f
       0.6398805 0.78210396 0.55381787 1.6659163
000200 c4 3d 56 3f 55 56 3f 3f b1 e0 84 3f e3 14 5c 3f
       0.83687997 0.7474111 1.038107 0.8596937
000210 d9 37 31 3f 07 fc f4 3e b1 17 02 3f f8 54 2c 3f
       0.6922584 0.47848532 0.508174 0.6731715
000220 d3 a9 65 3f b9 14 29 3f 17 35 e8 3e 3e 2b df 3e
       0.89712256 0.66047245 0.45353004 0.4358768
000230 0c 80 de 3e 30 1b 48 3f 3a 2b 06 3f 4c 37 33 3f
       0.43457067 0.78166485 0.5240971 0.7000625
000240 ab 1b 1d 3f 02 f7 73 3f ad 2a 31 3f 05 ac 7c 3f
       0.6137034 0.9529878 0.69205743 0.9869998
000250 c4 46 21 3f b4 23 5a 3f b1 62 0f 3f bb 69 20 3f
       0.62998605 0.8521073 0.56009966 0.6266133
000260 3b 6a 1b 3f b8 dd 43 3f 2d a5 33 3f 20 bd 5b 3f
       0.6070897 0.7651019 0.70173913 0.85835457
000270 97 b9 39 3f a6 75 21 3f 96 41 23 3f 54 0c 35 3f
       0.7254881 0.6307014 0.6377195 0.70721936
000280 58 fa 3f 3f c6 51 fc 3e 3a 06 09 3f 24 85 b5 3f
       0.7499137 0.49281138 0.53525126 1.4181256
000290 7f 19 43 3f 88 8d 11 3f e1 70 fb 3e 37 7a 3b 3f
       0.7621078 0.56856585 0.49109557 0.7323336
0002a0 44 e5 09 3f ec 3d d9 3f 5d 26 bb 3e 91 36 33 3f
       0.53865457 1.6972022 0.36552706 0.70005137
0002b0 66 f2 c5 3e e7 cb 5f 3f dc d7 1d 40 52 c5 50 3f
       0.38661498 0.87420505 2.4663 0.81551087
0002c0 a6 c1 3a 3f cd cd 13 3f 4d f1 3e 3f 07 a1 91 3f
       0.72951734 0.577359 0.74586946 1.1377267
0002d0 33 c8 7f 3f ad 74 12 3f 45 ac 61 3f 21 da 71 3f
       0.99914855 0.57209283 0.8815349 0.94473463
0002e0 f9 b1 47 3f b0 42 06 3f fc fc 08 3f 16 e3 2b 3f
       0.7800594 0.5244551 0.53511024 0.6714338
0002f0 72 43 6a 3f d4 4d 4a 3f b2 f4 99 3f 11 4d ab 3f
       0.91509163 0.79025006 1.20278 1.3382894
000300 7c 9a 13 3f 14 a3 a1 3f 7f 67 2d 3f b5 ac 08 3f
       0.576576 1.2627892 0.6773605 0.5338853
000310 cc b7 0f 3f 6e c1 3d 3f 25 b2 96 3f c4 cb 42 3f
       0.56139827 0.74123275 1.1773115 0.7609217
000320 bf ad 0f 3f f6 26 42 3f b4 6a 8a 3f 45 bd db 3f
       0.5612449 0.758407 1.0813813 1.7167135
000330 20 e0 1d 3f b1 ae 07 3f dd 5d 5c 3f bc 13 38 3f
       0.6167011 0.5300093 0.86080724 0.7190511
000340 89 f1 1c 3f 45 87 1b 3f 86 91 03 3f 57 b5 50 3f
       0.61306053 0.6075328 0.51393926 0.815267
000350 08 f6 12 3f 1a 2c 61 3f 5c 39 e6 3e 30 4d a0 3f
       0.57406664 0.8795792 0.44965637 1.2523556
000360 ab 94 91 3f 91 fc 87 3f 79 ec 27 3f 04 19 14 40
       1.1373495 1.0623952 0.65595204 2.3140268
000370 30 ba 32 3f ec eb 2e 3f 31 aa e4 3e c7 f5 11 3f
       0.6981535 0.6832874 0.44661096 0.5701565
000380 ac 16 8d 3f f7 85 5d 3f 7f 1e 54 3f 8b 18 7b 3f
       1.1022544 0.8653254 0.82859033 0.98084325
000390 60 e4 ab 3f f2 62 d3 3e 93 45 6c 3f 95 02 67 3f
       1.342907 0.41286427 0.9229366 0.90238315
0003a0 34 96 8d 3f 8c 18 cb 3e b3 a6 40 3f 83 5b de 3e
       1.1061463 0.39667165 0.7525436 0.43429193
0003b0 56 94 9a 3f df 97 87 3f 36 bc cf 3e cd bf 02 3f
       1.2076519 1.0593222 0.4057328 0.51073915
0003c0 82 5e 7a 3f 09 a0 94 3f 5d 1d c1 3f 1e 0f 46 3f
       0.9780046 1.1611339 1.5087086 0.77366817
0003d0 cd 7b cd 3e e4 0d 09 3f 71 47 59 3f c7 70 65 3f
       0.40133515 0.5353682 0.84874636 0.8962521
0003e0 c9 b0 1a 3f 45 df d5 3f 34 2e 1c 3f 5b 89 e3 3f
       0.60426 1.6708761 0.61008 1.7776293
0003f0 d1 cd 3e 3f d8 1d 39 3f 96 f1 49 3f 8d 6f 1d 3f
       0.745328 0.7231116 0.78884256 0.6149834
