gan4hep/onnx/data/models/cluster_decayer_pert.onnx (onnx, 288537 bytes, 10 tensors)

StatefulPartitionedCall/Generator/dense_5/MatMul/ReadVariableOp:0 f4 [256, 2]
00000000: 2d4b 513b 8916 6abb 127e c83b a896 a43a
00000010: b6b8 9e3c d4a1 09bb 77eb bdbd 958e 933d
00000020: 789f d9bc def4 ddbc ca85 aa3d c53e 65bd
00000030: 13d3 cebc edd8 07bd 5080 91bc e13b 1a3b
00000040: 8bd1 073b 466f 4ebc 6251 383e b6a5 f3bd
00000050: e893 39bd d1c7 da3c 691b 4c3d 7e55 8f3d
00000060: 64e2 b1bc 6e5a b53b b7b1 0fbc 768f 66ba
00000070: 0b3f 63bc dbd5 e93a 4fb0 c33c 7ffc b1bb
00000080: 3692 003c 8659 013b fd5b 2fbc cc86 be3a
00000090: cd04 15bb 82e7 9f3b 551f 5b3c 76cf ffbc
000000a0: d088 32bc 0557 c53a ced9 ba3c b6a0 5abb
000000b0: 379c a2b9 3e27 9eb9 b9d1 ee3c ee8b 8ebd
000000c0: 70cd eeba 6c56 b9bc ab90 4fbc b572 81bd
000000d0: 1512 a43b 997c bd3b a249 2b3d 54a7 01b9
000000e0: 9c32 8dbc c7f9 963b 53cb 03bd e43d b73b
000000f0: ba43 ba3c bd4a ddba 0828 08bd c261 1d3d
00000100: 4bb9 94ba 09a3 64bb 187c 96bb 4e82 0dbb
00000110: d9ec c9bb e534 89bc 6af9 d9bc c2ff bf3a
00000120: 0cc0 383c 3f0d 48bb 7368 7339 f11d e93d
00000130: 5151 51bd adce 9bbd e4a2 a93b 5103 473b
00000140: 24f0 6dbb 1620 5fbb 6f1b 42ba 17e1 c5bb
00000150: e787 da39 14b0 f33a cf67 1e3c 1c5b 4d3b
00000160: 05f9 08bc afa4 553b 40db 1cbd 5fc0 173d
00000170: 85dd 9dba b895 5a3d 7b3d fabb 9fa6 69bb
00000180: e374 693c 6c19 39bd ec33 78bc 2d0f 5d3a
00000190: d045 2abb ff7d 1ebb f71a 313e 9fda 303e
000001a0: 5966 c2ba 84e3 8bb9 6932 443c a2cc 5fbb
000001b0: 4946 b3bd 2097 b6bd 370c c0bd 9890 6b3d
000001c0: 5848 8e3b 3306 8a3a 7b80 53bd 5d9a 173d
000001d0: b707 adbc c744 bc3a 5c53 0cbd 69b3 153d
000001e0: 659b 8cb9 1ac2 403a 881d 283d 7712 ce3d
000001f0: 35c7 ae3b 8f8c 3c3a eda6 73bc a2ee 0fbb
00000200: e214 db3c 2206 2bbb cd76 9fbb edfa 133b
00000210: a86d 783c 0929 1e39 8a4e e3bc 1e0f 1ebd
00000220: 83dc 2a3d fe9c 9cbd 1fdb 4d3c bc48 2bbb
00000230: 762b bb3b f0bc 8ebb 66ce 1f3c 8eb2 29bb
00000240: 0c39 eeba 8089 bdba b982 803b 702d 3c3a
00000250: 91c0 2d3b bd01 42bb 03e8 86bd a20b 203b
00000260: c089 27bd d334 213d e65d 303d 1edc f5bc
00000270: deb0 45bb fd90 31bb 10fa 8eba a9fa 693b
00000280: 1836 0f3d 8cc5 38bd 36ac 3cbd ace2 29bd
00000290: fcaa 59bb fda0 abba a024 7a3c c7dd 49bb
000002a0: 02a2 a63d 832a b3bd 3df6 25bd 519b 22bd
000002b0: 5338 da3c 32d9 0abb a4eb f8ba 08bb b7bc
000002c0: b398 24bb ac31 31bb 75e5 12bc 2343 0a3b
000002d0: 9b4a 62bd d0bc 89bb 6070 373e b79a c1bd
000002e0: 0fa6 a7bb f85c 38bd 252c b2bb 88f5 363d
000002f0: ef86 ff3c 13ef 433d fb5e 053d 7422 763d
00000300: b446 f23a 1f23 4ebd 7585 83bc 0453 c43b
00000310: 6391 02bd 4577 a93a 6528 1ebc 9445 c33a
00000320: 999f 35bb f658 65bb ec3e 643d 4b8c 643d
00000330: 9d4d b53c 4ee3 00bd 6b2e 033d 0997 71bb
00000340: cf42 70bb 9d18 1bbd 0568 42bd 447f d5bc
00000350: 7ef1 7cbc 9d02 16bd d1a8 d8bb d270 6d3b
00000360: 4966 91bb 6219 3fba 3a18 b8bc 2aeb 463d
00000370: 7a64 4c3c 9c0d d33c d2bc 08bb fa16 8abb
00000380: e5f9 8ebc badf d13a d15b f93c 4e9b 653c
00000390: bec6 a43c 067a 8db9 5029 873c f26e 01bb
000003a0: c983 143c 25c8 0cbe 90e2 df3b 0ba9 353b
000003b0: b781 563d a5a4 8d3d 835c f8bc 6384 3b3d
000003c0: f3d8 cd3b 8dd0 45bd bf1f f939 9f3a 5ebb
000003d0: a79f 823d 4d0f fc3c 4ab2 97bd 219e 96bd
000003e0: d8b3 87bc dd7f 8e3b a2f3 e83d e555 103d
000003f0: 3b89 20bc fa63 afbd 4035 88bc 9057 b83b
0.0031935677 -0.0035718998 0.0061185444 0.0012557106 0.019375186 -0.0021000998 -0.09273427 0.0720493
-0.026565298 -0.0270943 0.083262995 -0.055968065 -0.025247132 -0.03316586 -0.01776138 0.0023534226
0.0020724263 -0.012599772 0.17999795 -0.11896841 -0.04530707 0.026706608 0.049830828 0.06998728
-0.021714397 0.0055344617 -0.008770398 -0.0008795181 -0.013870011 0.0017840223 0.023887781 -0.005431711
0.007847359 0.0019737198 -0.010703084 0.0014536022 -0.0022738457 0.004879893 0.013374169 -0.031226855
-0.010896876 0.0015055841 0.022808935 -0.0033359951 -0.00031015437 -0.00030165346 0.029152738 -0.06960283
-0.0018219184 -0.022624217 -0.012668769 -0.06320707 0.0050070384 0.0057826755 0.04181827 -0.00012364733
-0.017236046 0.0046074125 -0.032176327 0.0055920947 0.022737373 -0.0016883236 -0.0332413 0.038423307
-0.0011346726 -0.0034887216 -0.00459243 -0.002159256 -0.0061622676 -0.016748855 -0.026608188 0.0014648365
0.011276256 -0.0030525473 0.00023213196 0.11382664 -0.05110294 -0.0760778 0.005176889 0.0030366967
-0.0036306465 -0.0034046224 -0.00074046006 -0.0060387957 0.00041681455 0.0018591904 0.009668305 0.0031334823
-0.008360152 0.003259938 -0.03829503 0.037048694 -0.0012044167 0.05336544 -0.0076367236 -0.0035652292
0.014249059 -0.04519026 -0.015149098 0.00084327423 -0.0025981553 -0.0024183986 0.17295443 0.17270897
-0.0014831527 -0.00026681658 0.011974909 -0.003414907 -0.0875364 -0.089155436 -0.0937733 0.057510942
0.00434212 0.0010530412 -0.0516362 0.037012447 -0.021121843 0.0014363759 -0.034259185 0.036548052
-0.0002681866 0.0007353142 0.04104379 0.10062116 0.005333806 0.0007192576 -0.014871341 -0.0021962305
0.026743356 -0.0026096185 -0.004866457 0.0022579983 0.015162863 0.00015083341 -0.027747411 -0.038588636
0.041714203 -0.076471314 0.01256445 -0.0026135882 0.005711968 -0.004356019 0.009753799 -0.002589378
-0.001817496 -0.0014460534 0.0039218334 0.00071784016 0.0026512484 -0.0029603087 -0.065872215 0.0024420996
-0.040902853 0.039357018 0.0430583 -0.030012187 -0.0030165236 -0.0027094476 -0.0010908265 0.0035702384
0.034963697 -0.04511027 -0.04606267 -0.041475937 -0.0033213487 -0.0013094243 0.015267521 -0.0030802356
0.08136369 -0.08748343 -0.040518034 -0.039698903 0.026638186 -0.0021186587 -0.0018991125 -0.02242805
-0.002511543 -0.0027037663 -0.00896584 0.0021097146 -0.05524693 -0.0042034164 0.17913961 -0.09453338
-0.0051162313 -0.045010537 -0.0054373913 0.04466775 0.031192271 0.04783542 0.032561284 0.06009145
0.0018484206 -0.050326463 -0.016054848 0.0059913415 -0.031876933 0.0012929222 -0.0096531855 0.0014898055
-0.0027713536 -0.0034995652 0.05572407 0.055797856 0.022131735 -0.031466775 0.03202669 -0.0036863706
-0.0036660915 -0.03786527 -0.047462482 -0.026061662 -0.015438436 -0.036623586 -0.0066119214 0.0036230576
-0.004437242 -0.0007289854 -0.02247249 0.048564114 0.012475127 0.025763325 -0.0020864499 -0.004214165
-0.017453143 0.001601211 0.03043929 0.014014078 0.020114299 -0.0002698453 0.016499192 -0.0019749966
0.009064623 -0.13748224 0.0068324283 0.0027719166 0.0523698 0.06916169 -0.03031755 0.04578055
0.006281966 -0.048294593 0.00047516634 -0.0033909453 0.063781075 0.030769015 -0.07407053 -0.073543794
-0.016565248 0.0043487386 0.11374594 0.035238165 -0.009798343 -0.08563991 -0.016626954 0.0056256726

StatefulPartitionedCall/Generator/dense_5/BiasAdd/ReadVariableOp:0 f4 [2]
00000000: e8b3 2ebb 5eb5 783c
-0.0026657525 0.01517996

StatefulPartitionedCall/Generator/dense_4/MatMul/ReadVariableOp:0 f4 [256, 256]
00000000: f134 d7bd 5f3b 3e3e 3e3a b73c db0b c03c
00000010: 2bd4 4e3e d700 a7bd d897 023e bb4e 893d
00000020: f013 133d 0d60 06be a7ef de3d 6927 6cbd
00000030: 827b 8ebe 84f9 9dbd c373 f73d 8ff7 0fbe
00000040: cb44 f13d 7e68 59bd ff81 a23d 5220 eabd
00000050: d9af 3c3e 1599 24be d22b 793d c225 593d
00000060: de35 303d 76b9 443d ee9d 12bc 8739 d3bc
00000070: d2d7 a6bd d89c 9dbe 06ed 8c3d cff5 ef3d
00000080: 8bc5 2a3e 6ff1 f63c 0525 d23c 7efe 543e
00000090: a60c d73d c747 eabb 47a9 fc3d f879 6bbc
000000a0: ceb9 0b3e 6402 c43d f1a8 6ebd fe05 0dbe
000000b0: b3d1 c8bd bf91 4c3b 2a1f adbd f2a4 0dbc
000000c0: f4a9 f839 b20a d63d cc3c 3fbd 813d 52bd
000000d0: d081 b9bd b9aa 72ba ff17 133e 80b1 dd3d
000000e0: ba00 0cbe 3283 03bb e8a5 893d a13a b73d
000000f0: bcbb aebd d9f0 203d 767a 2d3e 6e78 ab3d
00000100: 210d 643e eec4 f73d 5177 84bd 907d e33b
00000110: f978 18be af97 103e 1e2a ea3d 8381 f93d
00000120: c825 cd3d 58fc 263e afbb 2a3e 60a4 bfbe
00000130: 0990 f63d f7aa 0fbe 2f34 71be 003b 843e
00000140: 3064 d9bd 1849 5fbd 6288 8c3d 8716 2bbd
00000150: 8c84 ca3b 7dcc a53d bf4c 14be f632 bc3b
00000160: 7a11 1fbe 11b8 c43d 79cc e63e e5e3 37be
00000170: 3c2c 0bbd 2965 80bd 81ab 9dbd 4a72 d2bc
00000180: 6c39 d73d e6e8 dabd 7715 9b3d 9ceb debd
00000190: fc94 bfbb 83b8 25bc ef54 8ebd c5bf 353e
000001a0: 7054 00bd 8fa9 0c3e cd02 82bb 8aac 213e
000001b0: cdd9 863c 716b 07bd 5c5e b33d 955c fb3c
000001c0: bc5c 0b3e fc88 0bbe 53e4 98be 5c22 d8bc
000001d0: 6334 8fbd 8122 74bd 43dd b7bc 9255 bebd
000001e0: 8180 c03d ff71 a3bb 5c3c 19be 0af5 313e
000001f0: d7e6 cfbc 4f36 6dbe f890 173e 39ee 4fbd
00000200: 5103 5abe 361b 1ebe 9934 18be 5f0f a4bd
00000210: e1fa 98bd 17fe 583d 09ab 9cbe 55fb 9bbd
00000220: 0b90 aabd 0c2a 01be 6b5c 02be 2ecc 19be
00000230: 8da4 1fbe 3139 c33c 2c03 d7bd a1fe 013e
00000240: 6487 8fbc 7067 96bd cdd6 a03d b8a5 b3be
00000250: 8e74 d1bc dc7d 05bd b36b c6bc 9077 1f3e
00000260: 9d45 833d 2415 db3d 8982 a0bd 8552 3cbe
00000270: 4d0a d8bd e7fe 11be b19a 1a3e c8db 533d
00000280: 26f2 893c 3edc c7bd 49ea 993c a4c7 a63d
00000290: b412 0e3c 8485 eb3d 0c21 593c a13d 5b3d
000002a0: 437b 2f3e 03fb 8b3d e960 24be c8ea 35be
000002b0: 3432 d7bd 42ef b1bd e159 9abd 59ff 1b3e
000002c0: 97f2 64be 6e60 1c3c 7559 553b 2339 6a3d
000002d0: ae44 8c3d a69a b73d 004e 55be 17cc d4bd
000002e0: 4eb1 0c3e 4f5e cebd 5137 143e 32d0 44be
000002f0: c8f5 263d 78d3 283d 1079 87bd 0bd4 edbc
00000300: be8a 9dbd 613f 1bbe 7a3d b5be b46e 923d
00000310: 9608 b73e 7d53 9a3d 9b51 0bbc cba9 90bd
00000320: 7742 93bd 07b5 9bbb 17f6 94bd 15f8 ed3a
00000330: e626 20be f51b b23d 6f87 4cbc b05e f53d
00000340: 8271 b7bc 95e6 61bd 67a6 103e 24f1 4ebe
00000350: 60b7 833d 2722 72be 4e2f 0abd af30 67bc
00000360: 48c4 093c 7318 66bb 44d2 ee3d 5fea 773d
00000370: f2be 743d 77ce f3bc 962a 13be 87f0 9abc
00000380: 5ca0 a13d e7a7 04bc f085 983b 5e3d 623e
00000390: 2c3b 2c3d 44ad 8f3b d662 49bc 14ff 533d
000003a0: e890 d13d 7134 00be e78e c53d 83ed 2fbd
000003b0: 7288 813d 2bb5 a1bd 6cb1 92bd 085c 7a3c
000003c0: d1ff be3d 5840 433d c2f5 6a3d 2e7d 2bbd
000003d0: 2011 aebd 71f4 1dbe 4834 993d a37c 913e
000003e0: b091 61bc 2537 adbd 4d73 203e 38fd 9e3d
000003f0: 777c cabd 9f32 c6bd c169 883d 0213 973d
-0.10508145 0.18577336 0.02236664 0.023443153 0.20198123 -0.08154457 0.12753236 0.0670447
0.035907686 -0.13122578 0.10885554 -0.057654772 -0.27828604 -0.07713607 0.12082627 -0.1405928
0.11780699 -0.053078167 0.07934951 -0.11431946 0.18426456 -0.16074021 0.060832806 0.053014524
0.04302012 0.04802843 -0.008948786 -0.025784267 -0.08146633 -0.30783725 0.06881146 0.11716806
0.16676919 0.030144421 0.025652418 0.20800206 0.105004594 -0.00714967 0.123369746 -0.014372341
0.13645098 0.095707685 -0.058266584 -0.13771817 -0.09805622 0.00312148 -0.0845321 -0.008645283
0.0004742887 0.10451259 -0.04668884 -0.051328186 -0.09057963 -0.0009257007 0.14364623 0.10824871
-0.13672152 -0.0020067212 0.06721097 0.089467295 -0.08531901 0.03929219 0.16941246 0.083725795
0.22270633 0.12098108 -0.0646807 0.0069424585 -0.14889897 0.14120363 0.114338145 0.121829055
0.10016972 0.16307199 0.16673158 -0.37430096 0.12039191 -0.14030062 -0.23555063 0.25826263
-0.106148124 -0.054513067 0.068619505 -0.04176953 0.0061803516 0.08095644 -0.14482401 0.0057433797
-0.1553401 0.096054204 0.45077875 -0.17958029 -0.033977732 -0.06269295 -0.076987274 -0.025689263
0.10508999 -0.10688953 0.075724535 -0.10884783 -0.0058466177 -0.010114792 -0.069497935 0.17748936
-0.031330526 0.13736556 -0.003967619 0.15788475 0.016461277 -0.03306145 0.08758232 0.030683795
0.13609594 -0.13626474 -0.29861698 -0.026383571 -0.06992414 -0.059603218 -0.022444373 -0.09293665
0.0939951 -0.0049879546 -0.14964432 0.17378631 -0.025378628 -0.23165248 0.14801395 -0.050764296
-0.21290328 -0.15440068 -0.14863814 -0.08010744 -0.07469726 0.052976694 -0.3059924 -0.07616297
-0.08328255 -0.12613696 -0.12730567 -0.15019295 -0.15590115 0.023830982 -0.10498652 0.1269479
-0.017520614 -0.07343948 0.0785347 -0.3508737 -0.025568273 -0.032590732 -0.024221277 0.15572953
0.06409762 0.10697392 -0.078373976 -0.18390854 -0.1054884 -0.14257394 0.15098073 0.05172327
0.016839098 -0.09758805 0.018788474 0.08143547 0.008671451 0.115000755 0.013252508 0.05352557
0.17136864 0.06834986 -0.16052593 -0.17765343 -0.10507622 -0.08688213 -0.07536674 0.15234126
-0.22358166 0.009544475 0.0032554541 0.057183396 0.06849037 0.08965044 -0.20830536 -0.103904895
0.13739511 -0.10076582 0.14474227 -0.19220045 0.04076174 0.041217297 -0.06614888 -0.029031774
-0.076924786 -0.15160896 -0.35398465 0.07150021 0.35748738 0.075354554 -0.008503343 -0.070636354
-0.071904115 -0.0047518048 -0.072735004 0.0018155599 -0.15639839 0.08696739 -0.012483462 0.11980951
-0.022392992 -0.05515154 0.14125977 -0.20209175 0.064314604 -0.2364584 -0.03373652 -0.014110728
0.0084086135 -0.0035109788 0.11661199 0.060526248 0.059752412 -0.029761536 -0.14371714 -0.01891352
0.07891914 -0.008096672 0.0046546385 0.22093722 0.04204862 0.0043846685 -0.012291631 0.051756933
0.10232717 -0.12520005 0.09646397 -0.04295112 0.06324853 -0.07895883 -0.07162747 0.015280731
0.09326137 0.047668785 0.05736328 -0.041867428 -0.0849936 -0.15425278 0.07480675 0.28415403
-0.013767645 -0.084577836 0.15668984 0.077631414 -0.09887021 -0.09677624 0.06660796 0.07376672

StatefulPartitionedCall/Generator/dense_4/BiasAdd/ReadVariableOp:0 f4 [256]
00000000: 770f 1ab9 69e0 99b8 c7a0 08b9 6d31 713a
00000010: ec8b e9b5 330a d6ba c4ff 43b9 793a bdba
00000020: 4474 383a 0531 ed3b 57db bd3a 7a5f b73b
00000030: 3447 6938 c685 97b9 bc59 cdb9 8643 d439
00000040: a939 0a3a 06ad 58b8 a905 2dbb f32b cdb9
00000050: 8c04 d639 a005 533a e944 1638 f3b7 00bb
00000060: 9343 45b9 c009 a6ba c88e 3f3b d68e 5f38
00000070: 25cc 8bb9 9c2b 81b9 1ac0 9c3a 7bf7 f73a
00000080: 4d13 dcba 812c 33b7 87bc d739 5391 2cb8
00000090: baf2 dcb8 6daf e3bb c6b2 cf3b 76e6 663a
000000a0: cf03 843a fcfb faba cb60 d0b8 7d8d 303a
000000b0: 1966 f936 c168 3e3b 4cd0 313b 4b89 b7ba
000000c0: 4e9d f73a 53ad b23a 792c 12b8 9900 48bc
000000d0: 4a6f 48ba 476e d439 a1b6 d73a f61d 943a
000000e0: f876 61ba 5915 beb9 2c6a 9339 f857 a739
000000f0: ce14 9aba 8d5c 793b 6b94 bf39 fef5 893a
00000100: 8a79 1d39 354f 4cba 1e21 c538 73a2 a23a
00000110: dca0 2d3b 22d2 1e39 6e8a 0138 2937 7339
00000120: c373 0a3b a263 26ba aadb eeb9 7735 a9b9
00000130: 4dde 13b9 33a0 7a3b 0a17 c339 04e2 b6b8
00000140: 8d57 42bb 25c7 0abc 8516 e1b8 4d85 51b9
00000150: 285e 33bb 275e 86b9 82ca e439 4030 3ebb
00000160: d106 2f3a 1c8e bc3a 62d2 f6b9 278d 143b
00000170: 3a70 a33a 20a3 c63a 94e5 903b 3bf5 c7b9
00000180: 5c7c 6039 8db3 9d39 1ace 06ba 00c4 35b9
00000190: e84d 6e39 c8e8 543b 010e 61ba 2f14 f839
000001a0: 95e5 78bb 3cbe e4ba a267 d83a 0ecb e638
000001b0: d186 38ba c848 86ba e91a adb9 0283 ffb7
000001c0: aa38 d638 73f3 c939 c081 6f38 57e1 eaba
000001d0: 44da 203c e08a d03a cc88 c3ba 1bd0 e0bb
000001e0: dacb 70bb 43dc 9539 ba0e 65bb 0e31 68b9
000001f0: 3e3f 31b9 2d1e e23a 0dae 993b 2212 acb8
00000200: 1f1f 48b8 f021 b6ba 2bda ac39 5b31 4d38
00000210: 2e94 1db9 5025 2dba 2183 fa39 496f adbb
00000220: dafc 8939 458f e93a e7cd 00b8 0fd7 4c39
00000230: 599f 7e38 012e 8cba 80a6 553b b797 15bb
00000240: c045 173c 1fe2 da3b f020 dab9 3dae 53ba
00000250: 60b3 8339 6319 b2b9 5d84 253b f329 663b
00000260: 0a2e 2838 f685 9839 9bc3 4fba f2ca cdb9
00000270: 976d c138 86c0 b739 607f f436 71c0 43b9
00000280: db6e ba3a e43b 28ba 2740 a63c 9b7b d0b9
00000290: 6d00 9139 26bd 683a 289e 683a a3bb 08b8
000002a0: edd3 94ba b4a8 fe3a 1623 80ba df19 c23a
000002b0: 2342 273b 9a0a ff3b 8f11 19ba 35f2 53ba
000002c0: 869f b037 3e43 f93a c16d f6ba 9b0c 143a
000002d0: e994 a7bb 18c7 d8bb fd48 0db8 b295 e039
000002e0: 06c8 be3b 414d 4e3a 8161 fb39 b51e c5b8
000002f0: 8672 483b 221d cb38 b0ab efb9 f96b f5ba
00000300: a12a ffb9 d42f afb8 496c 96b8 290b 2e3a
00000310: 23b4 8ab9 2238 0a3c 7500 c639 360c 2bba
00000320: 1b3d 8b39 bb2f 9a3a 55c9 01b9 0298 803b
00000330: f675 8ab9 9f9b 5c3b be3d 9539 e8ea c6b9
00000340: 9d25 09ba 13df d33a 1077 2dba 82ba 39ba
00000350: c808 b639 780a 73b8 2ffd 6239 596e a2bb
00000360: 512c c5ba bb46 c2ba 985d 163b 1340 3bb9
00000370: d955 32ba fe9b beba 7728 16b8 9583 2037
00000380: db3c 50b9 7fbe 4abb c27c 41b5 c2b2 aa38
00000390: 681c 05ba b347 863a 18f4 56bb 40ed 753a
000003a0: fb2c 0dbb 74fd 8a3a 9e21 75b9 d6c3 c63b
000003b0: 18e7 36bb 7413 f0b8 52b9 a13a 9dc7 e9b8
000003c0: bb7f 08bb ac01 75ba fddf eab9 4be2 3f3a
000003d0: e924 34b9 d583 d6b9 7350 6739 a651 1238
000003e0: df60 0d3b d84d 1f3a 7f98 ad36 d5d4 cf36
000003f0: ca7a 1739 42be 13bb 0bb4 ceba 7093 0139
-0.00014692346 -7.337408e-05 -0.00013029865 0.00092007854 -1.7400575e-06 -0.0016329944 -0.0001869193 -0.0014436982
0.0007036368 0.0072385096 0.0014484924 0.0055960985 5.5617842e-05 -0.00028900633 -0.00039167504 0.000404861
0.0005272874 -5.1659554e-05 -0.0026401079 -0.00039133392 0.00040820648 0.00080498494 3.5826964e-05 -0.0019640892
-0.00018812557 -0.0012667701 0.0029229391 5.330037e-05 -0.00026664246 -0.0002463729 0.0011959106 0.001891836
-0.001679042 -1.0679593e-05 0.0004114846 -4.114334e-05 -0.00010535629 -0.0069484026 0.00633845 0.0008808145
0.0010071936 -0.0019148584 -9.936242e-05 0.00067349506 7.432664e-06 0.0029054137 0.0027132211 -0.0014002708
0.0018891485 0.0013631977 -3.485053e-05 -0.012207174 -0.0007645978 0.00040517954 0.0016457626 0.0011300433
-0.00086007966 -0.0003625553 0.0002811713 0.00031918264 -0.0011755468 0.003804955 0.0003654094 0.0010525582
0.00015017964 -0.0007793785 9.3998606e-05 0.0012408033 0.0026493585 0.00015146335 3.088492e-05 0.00023194835
0.0021126128 -0.0006347244 -0.0004555856 -0.00032274026 -0.00014101826 0.0038242459 0.00037210464 -8.720535e-05
-0.0029654235 -0.008470331 -0.00010733031 -0.00019981452 -0.0027369354 -0.0002562862 0.0004363843 -0.0029020458
0.0006676736 0.0014385614 -0.00047077524 0.0022667141 0.0012469359 0.0015154816 0.004421899 -0.0003813895
0.00021408632 0.0003007915 -0.0005142406 -0.00017334521 0.00022726471 0.0032487381 -0.00085851556 0.00047317284
-0.0037978638 -0.0017451714 0.0016510377 0.000110050765 -0.0007039132 -0.0010245079 -0.0003301718 -3.0459374e-05
0.0001021487 0.0003851909 5.710288e-05 -0.001791994 0.009817664 0.0015910529 -0.0014918088 -0.0068607456
-0.0036742599 0.00028583602 -0.0034951405 -0.00022143518 -0.00016903595 0.0017251425 0.004689938 -8.2049766e-05
-4.77127e-05 -0.0013895612 0.00032968944 4.8921775e-05 -0.00015027888 -0.0006604986 0.00047781414 -0.0052928072
0.00026319065 0.0017819187 -3.070934e-05 0.00019535072 6.0706723e-05 -0.0010694863 0.0032600462 -0.0022826025
0.009232938 0.0066797878 -0.0004160474 -0.0008074975 0.00025119912 -0.0003396972 0.0025255897 0.0035120219
4.00972e-05 0.00029091508 -0.0007925571 -0.00039251853 9.22337e-05 0.0003504792 7.286595e-06 -0.00018668339
0.0014223711 -0.0006417616 0.020294262 -0.00039764945 0.00027656872 0.0008878283 0.0008873665 -3.2599677e-05
-0.0011354663 0.001942894 -0.0009776081 0.0014808736 0.0025521598 0.007783246 -0.0005839103 -0.0008085103
2.1055119e-05 0.0019017232 -0.001880102 0.00056476303 -0.005114187 -0.0066155307 -3.3684995e-05 0.0004283614
0.0058221845 0.0007869788 0.00047947097 -9.399412e-05 0.003058584 9.685221e-05 -0.0004571355 -0.0018724195
-0.0004866915 -8.353559e-05 -7.172727e-05 0.0006639236 -0.00026455623 0.008436235 0.00037765843 -0.0006524952
0.00026557673 0.0011763492 -0.000123774 0.0039243707 -0.000264093 0.0033662093 0.00028465496 -0.00037940522
-0.000523174 0.0016164504 -0.0006617168 -0.0007084982 0.00034720288 -5.7945465e-05 0.00021647358 -0.004957002
-0.0015043115 -0.0014822105 0.002294397 -0.00017857579 -0.00068029534 -0.0014542339 -3.5800473e-05 9.5673795e-06
-0.00019859096 -0.0030936298 -7.207965e-07 8.139528e-05 -0.000507778 0.0010244757 -0.00327993 0.00093813613
-0.0021541703 0.0010604099 -0.00023377544 0.006065826 -0.0027908739 -0.00011447715 0.0012338555 -0.00011147487
-0.0020828086 -0.00093462574 -0.00044798842 0.0007319792 -0.00017179888 -0.00040915483 0.00022059846 3.4885154e-05
0.0021572632 0.0006076968 5.1735547e-06 6.1938576e-06 0.00014446225 -0.0022543822 -0.001577021 0.00012357323

StatefulPartitionedCall/Generator/dense_3/MatMul/ReadVariableOp:0 f4 [14, 256]
00000000: 7b67 b3bd 4c42 153e db29 383e bfaa 043e
00000010: 0649 22bd 3812 2d3e 7eef 7e3d 9310 febc
00000020: 6d57 573d fb00 0dbd 14d0 3e3d df2a 303e
00000030: 1b0a 4fbe c401 2e3b 74c6 fe3d 21e4 76bd
00000040: 34f0 203e f3e2 8b3d 99db b8bb c923 1fbc
00000050: 0508 1b3e 62ec c7bc 1264 98bd 740f 123e
00000060: ff63 51bc 4c8a 673e b91e 303e dd3b 343e
00000070: d242 0cbe 8331 39bd ac76 1bbe 6aba dabb
00000080: 0484 603d b4b0 2c3d fcf6 6b3e a41e bbbd
00000090: 8921 b9bd e94e 423d 5bf4 32bc fa35 023e
000000a0: 30b3 403d 55fa 403e a377 893a d918 93bd
000000b0: 87df 623d f07d 2936 6c38 693e fd15 ab3d
000000c0: 4463 133e b722 8dbb e09d 77bb fedf 2dbe
000000d0: e282 49bd 1582 3f3e 3cf1 8c3e 6788 c03d
000000e0: 2216 bb3d c472 38be 05d9 b33d f2bc a6bd
000000f0: 4536 233e 5d57 6bbd f6e1 9e3d d493 0f3e
00000100: ec43 d8bc 8189 c43e 4ac0 4a3e 42bc c83d
00000110: fd40 4f3e 0812 a63e 45dc 143e a076 4a3c
00000120: 8aed 3cbd 8e55 143e bf87 883e 9551 8c3e
00000130: 9658 c43d 5a4a 883c 11e6 1b3d 5b44 c1bd
00000140: cd86 aebd d955 873d 2e1c 9e3e 88e7 44bd
00000150: 6524 093e 8590 c6bc 59af f3bc 2bae 833e
00000160: 0ba7 2f3e fd71 d4bc ce20 883e bddb d03d
00000170: 8552 efbb ef37 c43d b17d d5be 1806 2b3d
00000180: 283d fa3d 39de e7bd 1ffb b13b 12e6 263d
00000190: 051d 0c3e bb64 523e a6e9 e43d f9d3 84be
000001a0: ecee c43c 9962 563d f981 28bc 84db 8c3e
000001b0: 5808 803e 8059 fcbb 1982 87be 5622 18be
000001c0: 0bc5 943e 92b5 6cbe 171d e4bd 487c 93be
000001d0: 08cf 683c 8dbe 20bc aca1 2fbc e771 693e
000001e0: 02fa 49bd 1deb b53d 4879 38be c7cf 103d
000001f0: a8d9 b03c 53ba ca3d 0774 8f3d 955f d3bc
00000200: 06e1 8dbd 5070 273e 2a4e dfbd db20 85be
00000210: 6d5a b2bd 866a 23bd 72b6 8fbc d8ae 913c
00000220: 0e4b 813c 87c2 9c3e bde2 e5bd 85c1 4c3e
00000230: fd49 89bd fb0c 1bbe 6874 8e3e ef61 173c
00000240: de01 87bc fd5a bd3e 1098 9dbd bd93 403e
00000250: 1c70 1e3e b6e9 dd3e a80d 333e bb18 c5bd
00000260: ed94 dd3d e6d1 843e fc7f c83d cdd4 923e
00000270: e6d1 7a3e 1b86 0a3e a1a9 773d b468 4dbc
00000280: 69af 3f3d e293 7f3d 318b 83bd 79d1 783e
00000290: 867e dfbc 1836 9a3d 21e3 cc3c 1f61 3cbc
000002a0: d2b0 63be 8315 dc3d fb65 bebb 94f2 60bd
000002b0: 35b5 2b3d e9e2 b43c ebfc 8a3b 52c6 04bd
000002c0: ebf3 473d 5370 6d3e 6e02 b73d a484 09be
000002d0: 16e9 513b 0673 603e ade6 26be c546 7dbd
000002e0: f5f1 73be 22e2 c2bd 65a3 5dbd 7dcc c93d
000002f0: 71ab 973e 8eaa c93d 68ac 7a3e 46dc b73d
00000300: 3cbf 46be b996 663d 5a0d 88be 5744 da3d
00000310: c2db abbc f29b 743e 56b6 d13d a12b e0bd
00000320: c306 6ebe a487 c93d 4090 1e3e 422e 40bd
00000330: 79d1 043e 88a8 92bd 693d 643e 23bf 933e
00000340: f846 793c ca8c 32bc 99ee 8e3d 5189 ec3c
00000350: 4c93 843e cba5 a0bd 4bef 78be d512 dd3c
00000360: 690f ea3b ef83 193e e717 3c3e efc7 8fbe
00000370: f40c b4be 1b26 f5bd f338 e03b 1fee 3cbd
00000380: af5c 033d b9cc bebd 3f60 79be bc43 5b3e
00000390: 1cf4 e2bd c94d cc3d e262 c93e e175 e63d
000003a0: 9a98 933c d142 2d3e 1110 ae3d f09a 6c3e
000003b0: 382e 833d f220 0e3e 03cd 763d 3943 3abd
000003c0: 9a5e bc3d 3723 8cbd 9986 6dbd 6dfa a3ba
000003d0: f4c1 3b3e 4859 8d3e 48a7 7c3e 55fc 783d
000003e0: b47f d4bc dad4 d9bc 5ef7 f5bd 7237 e8bd
000003f0: b357 fb3c 7b20 e13e b345 433e 0912 973d
-0.08759972 0.14576072 0.17984717 0.1295576 -0.03962042 0.16901481 0.062240116 -0.031013763
0.05257361 -0.034424763 0.046585158 0.17203854 -0.20218699 0.0026551345 0.12440196 -0.060276154
0.1571663 0.068303965 -0.0056414125 -0.009713122 0.15139778 -0.024404708 -0.07440962 0.14263707
-0.012780189 0.2261135 0.1719922 0.17600961 -0.13697365 -0.045213234 -0.15181988 -0.0066750543
0.0548134 0.042160705 0.23043436 -0.091367036 -0.090395994 0.047438536 -0.010922517 0.12715903
0.047045887 0.18845494 0.0010487925 -0.07182474 0.055388954 2.5256268e-06 0.2277543 0.08353803
0.14393336 -0.004307117 -0.003778331 -0.16979977 -0.049197085 0.18701966 0.27527797 0.09401017
0.09135081 -0.1801253 0.087816276 -0.08141507 0.15938671 -0.057456363 0.077579424 0.14021236
-0.026399575 0.38386157 0.19799915 0.09801532 0.20239635 0.32435632 0.14537151 0.012357384
-0.046124972 0.14485762 0.26666066 0.27405992 0.09587209 0.016637016 0.038061205 -0.09436866
-0.08521805 0.06608171 0.30880874 -0.048072368 0.1339279 -0.024238834 -0.029746698 0.25718817
0.17153566 -0.02593326 0.26587528 0.10198162 -0.0073035383 0.09580981 -0.41697457 0.04175386
0.12218696 -0.113216825 0.0054315473 0.040746756 0.13682945 0.20546238 0.111773774 -0.25942972
0.024039708 0.052340124 -0.010284894 0.27511227 0.25006366 -0.007701099 -0.26466444 -0.14856848
0.29056582 -0.23116139 -0.11138361 -0.28805757 0.014209516 -0.009811056 -0.010719698 0.22797357
-0.04931069 0.08882735 -0.18015015 0.035354402 0.021588162 0.0989882 0.07004552 -0.025802413
-0.069276854 0.16351438 -0.109035805 -0.2600163 -0.087086536 -0.03989651 -0.017543051 0.017783567
0.01578286 0.30617163 -0.112248875 0.19995697 -0.06703565 -0.1514167 0.27823186 0.009239658
-0.016480383 0.3698348 -0.07695019 0.18806358 0.15472454 0.4334237 0.17485678 -0.096238576
0.10819421 0.2594139 0.09790036 0.2867798 0.24494132 0.1352772 0.060464505 -0.01253717
0.046798144 0.06239689 -0.06423033 0.24298657 -0.02728201 0.07529849 0.025010647 -0.011497765
-0.2223542 0.107462905 -0.005810497 -0.05491884 0.04192086 0.022080855 0.004241576 -0.032415695
0.048816603 0.2318738 0.0893601 -0.13429505 0.00320298 0.21918878 -0.16298933 -0.06183507
-0.23822768 -0.09515788 -0.054110903 0.09853456 0.29622987 0.09846984 0.2447983 0.08977561
-0.19408888 0.056296084 -0.26572686 0.10657566 -0.020978812 0.23887613 0.10239856 -0.109458216
-0.23244767 0.098403245 0.15484715 -0.046919115 0.12970532 -0.07161051 0.22289051 0.28856763
0.015214674 -0.010897825 0.06979103 0.028874071 0.2589363 -0.078441225 -0.24310033 0.026986519
0.0071429503 0.14991735 0.18368493 -0.28082225 -0.35166132 -0.11970159 0.0068427264 -0.046125527
0.03207081 -0.093163915 -0.24353121 0.21412557 -0.110817164 0.09975774 0.39333254 0.11252952
0.018017102 0.1692002 0.08499158 0.23105979 0.064053 0.13879755 0.06025411 -0.045474265
0.09197731 -0.06842654 -0.05798969 -0.0012510546 0.18335706 0.2760718 0.24673188 0.060787518
-0.0259398 -0.026590753 -0.12010072 -0.113387 0.030681467 0.43970093 0.19069557 0.07376487

StatefulPartitionedCall/Generator/dense_3/BiasAdd/ReadVariableOp:0 f4 [256]
00000000: a7e1 713a cbb1 01ba ace9 eb3b ece4 a138
00000010: 48b9 623a e5a6 a13b c8d7 a5bb 6412 593b
00000020: b62f 1dbb b79e 96ba f9da a33b 639d a4ba
00000030: 95b2 ac3a 251c 64ba addb 5bbb fdf3 143b
00000040: c5a2 0f39 7df0 7b3a df42 6b3b 38d8 bcbb
00000050: fb52 2c3b 36fe 3f3c e4e4 793b 35c4 a1ba
00000060: 85bf c9ba ab29 e23a 084d 13ba a858 6b3b
00000070: ed5e fdba 98bd 8eba 7a88 d23b 2c8b 9d3a
00000080: 7545 df3a f6e1 2fbb 2c13 56ba 7fa1 3fbd
00000090: 089e d2bb d1eb 5fbb f323 f8bb 3c64 19bb
000000a0: 52b2 9e3a c573 52ba 32e3 b3b8 5d57 a53a
000000b0: 7b42 283c 9027 133a 288d f33b 6444 103a
000000c0: 189b 57bb 0a13 e8ba 4019 cbba 7efb c13b
000000d0: 1514 1eba deae 2cbb 504d 003b 136c 1a3a
000000e0: 5d05 843b a291 143b 16db 52ba c0ac c6bb
000000f0: d6b3 7fb9 3fb9 98ba e728 3fbb 36fe a1ba
00000100: d5fb 0938 b7ca 823a db2c fdba f65d 2bba
00000110: 1599 f8bb 98a8 8d3a 8cbe ff39 1b1e fcba
00000120: ad8f 0fba 9587 eaba 5529 c33a 5a3b 7b3a
00000130: 3387 363b 9d23 89bb 050b aaba 096b 1abc
00000140: 807e 4e3a 5fd6 cf39 4a08 e7bb b52a 02bb
00000150: e711 ec3b 3553 3f3a 5f7d a4ba 3bd8 923b
00000160: 0b3e caba 25d6 d33b 1551 dcba de74 4c3b
00000170: 9d5e 223b f000 e93a 4b78 c5bc 3e00 baba
00000180: 2591 a33b d17a 783c 35c8 313b 5ec7 c13b
00000190: 5800 83b9 b9f7 28bb c34e a1bb 6979 a13b
000001a0: 6edd 523a 84a5 4a3a 9455 2938 270f 923a
000001b0: 6cea bdba c120 863b 64dc c83d 4c50 32bb
000001c0: b8a1 e4b9 e71e 1d3d dd32 b53a 61ff ce38
000001d0: bc78 7f3a 4f7a c2b9 5141 64bb 86d9 2fbc
000001e0: f1cf ee3a 071e 9b3a f5f9 6f3c 0ce5 253b
000001f0: 1da0 8c3a 13f3 9b38 5def 083c 3c0d 4f38
00000200: 76a7 87ba c94d bf3a e57a bebb 4492 de3b
00000210: 5215 d8bb b0d8 303b d1d9 a3bb 23fe 0cbb
00000220: 8c05 50ba e6cc d3bb a2ef 85ba 5295 a4bb
00000230: 1074 3c3a ef51 90ba 5fd8 cc3a f548 caba
00000240: 0140 5b3b 5a28 c4ba 4e0d ba3a 7be0 6fbd
00000250: e650 a83b 73d9 fdbb bd19 2b3b 708a c1b9
00000260: d1ea 68bb 2d35 033c b6d7 143c 8901 0dbb
00000270: c61f f2b9 39fb b7bb 5aa2 84bb 02cd db39
00000280: ce08 7e3b 1272 31ba d6b4 9cbb 37af 993b
00000290: 533d 2b3b 31d8 61ba 037e c53a ac50 e73a
000002a0: 04a7 c43a 3e38 59bb 3ea7 a6bb 51be e839
000002b0: 3e79 0b3b 6dbc 133b 37f6 083b 55c9 2038
000002c0: 8e57 95ba fb2d 05bb 2e34 413b f632 9f3b
000002d0: d906 823b 7af9 4b3b fe1e a1bb 7200 aebb
000002e0: d783 ac3c c801 56bc 95da 143b 9425 f7ba
000002f0: 87b0 c7bb 9246 b6ba f229 24bb 7913 cabb
00000300: 8335 34bd 036f 98ba 83c0 683c 08a5 e339
00000310: 8971 b039 002a 633b d047 05bb ee25 63b9
00000320: 9171 8cba d3f4 323a 68c5 193a 9301 783b
00000330: 63b2 96ba 083f ae3b 4809 643b cae8 5ebb
00000340: 8462 a33a eae0 263a 69b7 04bc 397c 6838
00000350: b9c3 61ba fb38 22bc a0cf dcba 921b 57bb
00000360: e078 afba b421 02bc 0e36 6139 ac38 beb9
00000370: ba95 39bb f058 c53b a376 233b 52b4 3abb
00000380: 560c dd3a 8dda 18bb 924b 553b 4aff 553a
00000390: c18b 583a 2465 c23a 693b 683c cbf5 233b
000003a0: 855f 0ebb a13e f1b9 af97 963a fd72 09bb
000003b0: a944 933a bff8 01bb 2f0d f9bb 1660 0fba
000003c0: 1d2b 8eba 6028 10bb 6967 65b9 a8d6 4c39
000003d0: c7eb 66bb 2ba8 6e39 f123 73bb 7e8d 8b3a
000003e0: cb5b 58ba 8613 59bb a539 323b 2c56 2ebb
000003f0: d111 ac38 498a e73b 4a5e fdbb 5cfb 843b
0.0009227045 -0.00049474527 0.0071994867 7.719718e-05 0.0008648825 0.0049332255 -0.0050611235 0.0033122534
-0.0023984737 -0.0011491393 0.005000469 -0.0012559112 0.001317578 -0.00087017036 -0.0033547685 0.0022728436
0.00013698179 0.00096107257 0.0035898013 -0.00576308 0.0026294577 0.011718323 0.0038130814 -0.00123418
-0.001539216 0.001725485 -0.00056190835 0.0035910998 -0.0019330658 -0.0010890244 0.0064249607 0.0012019626
0.001703425 -0.0026837564 -0.0008166309 -0.046784874 -0.00642753 -0.0034167657 -0.007572645 -0.0023405692
0.0012107587 -0.0008028115 -8.5777036e-05 0.0012614537 0.010269756 0.00056135 0.0074325986 0.0005503355
-0.003289884 -0.0017705869 -0.0015495196 0.005919873 -0.0006030214 -0.0026349346 0.0019577332 0.0005890738
0.0040289597 0.0022669812 -0.00080435106 -0.006063074 -0.00024385689 -0.0011651887 -0.0029168667 -0.0012359086
3.2897882e-05 0.0009978627 -0.0019315736 -0.00065371336 -0.007586608 0.0010807691 0.0004877936 -0.0019235046
-0.00054764264 -0.001789319 0.0014889637 0.0009583734 0.002785158 -0.0041851536 -0.0012973255 -0.009424933
0.00078771263 0.00039641836 -0.0070505487 -0.001986188 0.0072042826 0.00072984706 -0.001254957 0.004481343
-0.0015429867 0.006464737 -0.0016808832 0.0031197588 0.0024775632 0.0017776769 -0.024105212 -0.0014190746
0.004991668 0.015166 0.002712739 0.005913659 -0.00024986523 -0.002578242 -0.004922719 0.0049278033
0.000804386 0.0007730352 4.037244e-05 0.0011143432 -0.0014489419 0.00409326 0.09807661 -0.0027208505
-0.0004360804 0.03835955 0.0013824363 9.8704135e-05 0.0009745469 -0.0003709369 -0.003482897 -0.010733014
0.001821993 0.001183451 0.014646997 0.0025313525 0.001072887 7.436252e-05 0.00835785 4.936497e-05
-0.001034959 0.0014595325 -0.00581299 0.0067923386 -0.0065943385 0.0026984625 -0.005000331 -0.0021513782
-0.0007935397 -0.006463635 -0.0010218511 -0.005022683 0.00071889255 -0.0011010746 0.0015628448 -0.001543312
0.0033454897 -0.0014965639 0.0014194639 -0.05856369 0.005136597 -0.007746869 0.002610787 -0.00036914973
-0.0035540352 0.008008284 0.009084633 -0.0021515808 -0.0004618151 -0.005614665 -0.004047674 0.00041923678
0.0038762572 -0.0006769012 -0.0047822995 0.0046900767 0.0026129081 -0.0008615284 0.0015067462 0.0017647943
0.0015003388 -0.0033145095 -0.005085855 0.00044392285 0.0021281983 0.002254273 0.0020898709 3.8334478e-05
-0.0011393891 -0.0020321596 0.0029480564 0.00485837 0.0039681015 0.0031124041 -0.0049170246 -0.0053101117
0.02105896 -0.013061948 0.0022713293 -0.0018855804 -0.0060940417 -0.001390653 -0.0025049415 -0.006166872
-0.043996345 -0.0011629764 0.014206055 0.00043419772 0.00033653926 0.0034662485 -0.0020336993 -0.00021662537
-0.0010714998 0.0006826643 0.00058659026 0.0037842735 -0.0011497255 0.0053175725 0.003479557 -0.0034013265
0.0012465273 0.0006365912 -0.008100369 5.54288e-05 -0.0008612234 -0.0099012805 -0.0016846545 -0.003282283
-0.0013387464 -0.007942606 0.00021477809 -0.00036281848 -0.0028318004 0.006022565 0.002494254 -0.0028488827
0.0016864638 -0.0023323626 0.0032546264 0.0008163346 0.0008260571 0.0014831168 0.014174321 0.002501833
-0.0021724415 -0.00046013764 0.0011489297 -0.002097308 0.0011235672 -0.0019832102 -0.0076004486 -0.0005469335
-0.0010846589 -0.0021996722 -0.00021877665 0.00019534922 -0.003523575 0.00022760096 -0.003710028 0.0010647026
-0.00082534243 -0.003312321 0.0027195003 -0.0026601655 8.204918e-05 0.0070660454 -0.0077321874 0.0040582847

StatefulPartitionedCall/Generator/batch_normalization_3/batchnorm/sub:0 f4 [256]
00000000: 9a61 6e3b 5e02 2fbb fd7d 19bb 18b5 883e
00000010: 4148 013e b670 103e b50a 7f3e 5487 a6bb
00000020: b25b f13e 8937 8fbe 5256 37be b2be 0e3d
00000030: b248 1bbb dce3 343b 5e04 143b a85e 153b
00000040: a69e a5ba ce02 08ba aa00 633a 66c2 033e
00000050: c869 503b d612 f7ba 8e04 283a 1dd2 a9bd
00000060: 79af a53d 765f c13e 566b 05bf 98c6 f53b
00000070: 0b89 873b e7f3 8abb 6c2f 44b9 9b1d 943e
00000080: ab36 3d3b acf5 9cbe 6098 0ebb d168 233a
00000090: fe4e c6ba 356d 2ebf ea7f 50be 91d8 863d
000000a0: 183e ce3c bf0e 37bd a0c8 463a 8165 c83b
000000b0: 3eca beba 2e40 8e3e 4e46 a8bc f773 c23e
000000c0: 2211 c3bd 0fbd c13b 367e b23b 1bf9 6fbc
000000d0: 6e86 d23c a814 0b3c 0c3e f43d 2a63 98bc
000000e0: 284e a83e 7984 52be 4105 07bb 099a eabe
000000f0: 6c60 603e 0076 923e e882 0e3e 791b aebb
00000100: 267b fe3b f372 31bb 9ccf 793a 2c87 3d3e
00000110: 1fc6 c03c db86 7d3a aacc 063b 5cdc 983a
00000120: 9829 db3d df92 fb3d 02e7 823b 2c78 a33c
00000130: 7ac7 73bd 3cfa c7bc ee3f bd3b db95 4dbb
00000140: 64b8 263d dc19 243e 325e eeba 18ee 7cb9
00000150: 8cd0 09bf 4dd5 413d 165f a83b 96f3 d2bd
00000160: 0257 ae3b 7e18 8abb 5e95 693e 7995 cabe
00000170: 4bf1 363f fd10 75be eb4f f0be a4ab 4cbe
00000180: 6b60 a13c 8185 5d3b 5d71 d8ba 60e5 713b
00000190: c527 533c 353e 2cbe 6f9d 863e ee81 483b
000001a0: 4dfd 083e 6b89 823d 4425 6dbe 665e 23bc
000001b0: 0c30 c13e 8c88 0a3d eddc 06bd 0cff 353e
000001c0: 557d d03a 3ed8 2ebe 5df5 033b 85b2 863b
000001d0: 7630 9ebe f640 0e3e dc30 45be 7be5 56bd
000001e0: 25b2 1b3f 9a73 423b 1411 993c 1afd aebe
000001f0: be06 e339 227e 72bd 91e5 15be 3409 cf3a
00000200: 9a56 043c 38c6 8abe 3f86 b23d f990 99ba
00000210: b45f 133c cd0d f9bd c82d c53a 372b 97be
00000220: c1f7 b1ba fa5b 44be e14e f2bb 516f 933b
00000230: bcf5 b4bb 4bd8 193d 13df 87be 14e3 94be
00000240: b48a dcbc 147f a73e 307b b3b8 cf85 7dbb
00000250: 1142 37bb a45a 853b 22b5 973e aea1 6e3e
00000260: b8b4 933b 30b1 b5bb 4e19 c2be 21d4 d03b
00000270: a50e 153e 805c 323b 4606 0d3c 220a cb3b
00000280: 45eb f5be 75d4 f3ba e2b1 5fbd 8818 f5bd
00000290: 50c4 753c d0b1 3d3b ce9a 663e 820a 72ba
000002a0: f6c3 f0bd 7de0 f9bd 57ca 31be 84df 243c
000002b0: 50a4 293e 6c5a 1ebb 002c 51be e92d 9bbe
000002c0: 244f e93a 5c87 27bf 8010 23be e074 ea3a
000002d0: 3195 403e 6f59 ce3d e00b 53ba 179d 38be
000002e0: 9cec eabd 8e00 733e 20c6 1d3f 1e54 f63a
000002f0: a2a5 0cbe 2ef1 9fb9 9d93 a6ba c202 bb3d
00000300: 8029 2a3c fafa 16b9 d3e5 0dbb 4614 7fbe
00000310: 18c9 dd3a e227 58be 96a4 9dbb 8818 a83b
00000320: c6b7 c83e 3666 e93d 3da0 7cbb 554b 733e
00000330: db54 7439 9af2 e53d 4ffe ecbe d031 d738
00000340: 1310 b3bb ea2e b3ba 6c4d 65be 90f4 773b
00000350: 1e40 473e ac84 95ba 0058 89bb aaad a5bd
00000360: 705f 293d 6b13 733d 7bd4 abbb a07b a839
00000370: e2f9 1dbe 894a a03e 8047 23bb aa6f 083b
00000380: 8431 0c3b 5f4d c13e 25e3 273b da0f 21be
00000390: 4cf5 d7bd 76d2 d5bb bda7 873e c017 8e3d
000003a0: 1a69 92be 9598 78be 4478 54be 139c 2abf
000003b0: f195 0e3b b4a4 dcbc 9cb1 4b3c d9c7 28bb
000003c0: 32c5 3a3e 50c7 3e3f ac85 333f 5cba c2bb
000003d0: 21db 5f3c d8a0 8e3a e9df abbb 558b 66ba
000003e0: ac3d c5be fe28 a53d 2bb7 113c 1618 dfbb
000003f0: 8ff7 45be f4f8 743e 56eb 7f3b 20ee a6b8
0.0036374093 -0.0026704292 -0.0023421042 0.26700664 0.12625219 0.14105496 0.24906428 -0.0050820503
0.4714027 -0.27972057 -0.17904022 0.03484983 -0.0023694453 0.0027601635 0.002258561 0.0022792015
-0.0012635782 -0.0005188406 0.0008659462 0.12867126 0.0031801332 -0.0018850218 0.000640937 -0.08292029
0.080901094 0.37768143 -0.52116907 0.007500481 0.00413621 -0.004240501 -0.00018709683 0.28928837
0.0028871696 -0.30656183 -0.0021758303 0.00062335754 -0.0015129743 -0.68135387 -0.20361295 0.065842755
0.025176093 -0.044691797 0.0007582996 0.006115616 -0.0014556122 0.2778334 -0.020541336 0.379791
-0.09524752 0.00591243 0.0054471744 -0.014646794 0.025698867 0.008488812 0.11925897 -0.018601973
0.32872128 -0.20558347 -0.0020602497 -0.45820644 0.21911782 0.28605652 0.13917124 -0.0053133336
0.0077661453 -0.0027076572 0.00095295324 0.18508595 0.023531971 0.0009671279 0.0020568767 0.0011662352
0.10701293 0.12283873 0.0039948234 0.019954763 -0.059516408 -0.024411313 0.0057754433 -0.0031369838
0.040703192 0.1602549 -0.0018186031 -0.0002412129 -0.5383384 0.04732256 0.0051382883 -0.103003666
0.0053204307 -0.0042143455 0.22810885 -0.39567164 0.71461934 -0.23932262 -0.46935973 -0.1998735
0.019699296 0.0033801498 -0.0016513277 0.00369104 0.0128879 -0.16820605 0.26291987 0.0030595022
0.13377877 0.06373867 -0.23158747 -0.009971237 0.3773197 0.033821627 -0.032925535 0.17773074
0.0015906492 -0.17074677 0.0020135262 0.0041106367 -0.30896348 0.13891968 -0.1925692 -0.052464943
0.608187 0.0029670955 0.018684901 -0.34177476 0.00043301837 -0.05920232 -0.14638354 0.001579559
0.008077288 -0.27104354 0.08717012 -0.0011716179 0.008994985 -0.121608354 0.0015043551 -0.29525158
-0.0013577865 -0.19175711 -0.007394657 0.004499354 -0.005522458 0.03755979 -0.2653738 -0.29079497
-0.026921608 0.3271414 -8.5583306e-05 -0.0038684492 -0.0027962963 0.004069643 0.2963038 0.23303863
0.0045076273 -0.005544804 -0.3790993 0.006372944 0.14556368 0.0027215779 0.008607453 0.0061962763
-0.4803106 -0.0018602746 -0.054613 -0.119675696 0.015000418 0.0028945096 0.22519991 -0.0009233133
-0.117561266 -0.12201021 -0.17362343 0.010063056 0.16566586 -0.0024162782 -0.20426941 -0.30308464
0.0017800075 -0.65440917 -0.15924263 0.0017887615 0.18806912 0.10075652 -0.0008050781 -0.18028675
-0.11470911 0.2373068 0.6163044 0.001879338 -0.13735059 -0.00030506536 -0.0012708787 0.091313854
0.010385871 -0.00014398611 -0.0021651878 -0.24910077 0.0016920893 -0.21108964 -0.00481088 0.0051298775
0.39202708 0.11396448 -0.0038547658 0.23759206 0.00023301264 0.11227913 -0.46287772 0.00010261277
-0.0054645627 -0.0013670598 -0.22392815 0.003783498 0.19458053 -0.0011407337 -0.0041913986 -0.080897644
0.041350782 0.05934469 -0.0052438355 0.00032135565 -0.15427354 0.31306866 -0.0024914443 0.002081851
0.0021391818 0.37754342 0.0025617566 -0.15728703 -0.105448335 -0.006525333 0.26495162 0.06938124
-0.2859581 -0.24276955 -0.20749003 -0.666444 0.0021756853 -0.026934005 0.012432482 -0.0025753884
0.18239287 0.74522877 0.7012584 -0.005942626 0.013663084 0.0010881675 -0.005245198 -0.0008794566
-0.38523614 0.08064459 0.008893768 -0.006808291 -0.19332717 0.23923093 0.0039050183 -7.959851e-05

StatefulPartitionedCall/Generator/batch_normalization_3/batchnorm/mul:0 f4 [256]
00000000: 814e d4bb e54b 3b3b 5a68 deb9 9fa3 6c3f
00000010: 9c67 dd3f 6d9f 0b3f 828e 583f 3acc 843b
00000020: 0297 4940 130a 0140 19f2 113f c446 8c3f
00000030: 3b90 bbba 21e3 713a 297b be3a 8989 e9bb
00000040: a7be 1bbb 21a5 9d3a d0ce fa3b 0746 253f
00000050: e42b 303b 5f41 50ba edbf 013b 4067 8a3f
00000060: 1baa cd3f e3c6 863f 71fc fd3f f43f 8c3a
00000070: 191e 783a c167 5abb ba4a 82b8 6846 343f
00000080: 032d 89ba 3d72 373f 28d9 463f 696c cc3a
00000090: 9c99 0ebb 1517 1540 a746 193f 6cd6 7b3f
000000a0: 92e0 bbbb 7578 e73f ec72 1aba 1174 babb
000000b0: dace 6839 0d14 2c3f f07e 863f 82cd 123f
000000c0: 5518 653f 7a64 c4bb ab6a f53a eaed 0940
000000d0: 324d ae3e 26fb bdbb 70d4 1f3f b918 303f
000000e0: 851a b43f 14d9 363f e5b7 98ba f4b3 8f3f
000000f0: fafa 493f 3871 9a3f d513 6b3e 7617 f2b8
00000100: cd7d 81bc 64df dc3a 4eb0 dd39 e21f 8f3f
00000110: e01b 133f 0a21 70b9 f8fe 2c3b 83e4 a339
00000120: e98a 073f d809 353f adfa 1d3b 6562 a5bc
00000130: 821a 223f 7209 223f 7b5a a639 67a5 1d3a
00000140: a099 5c3f 55e0 fc3f 2dd9 8dba 3d23 093a
00000150: 35fc 9c3f 8c6a 153f 3691 57bb c2a3 863f
00000160: 6bfe d9bb 9827 fc3b 9a75 903e 7201 b53f
00000170: 8eac c03f af7d 9e3f cec7 ac3f 42fa 923f
00000180: dd38 7e3f 8d52 d03b 18c3 4539 fa48 f4ba
00000190: b30f eebb 6b43 113f 7fda 5b3f 5e0f cabc
000001a0: 5c69 693f c185 083f 4312 6e3f ebf5 f43b
000001b0: 40e9 9a3f 6b4c bb3f 5a07 933f a963 ab3f
000001c0: 8dc5 da39 89b0 213f f23f 363c c002 91bb
000001d0: 73eb 6b40 3d1c 7e3f 5795 343f f5a1 c33f
000001e0: 3ee7 8c40 2337 283a 7430 243f cb07 a63f
000001f0: a9dc 50bb 58fe 0c3f d120 7a3f 9cec 29bb
00000200: 0cfa dfbb d91f 553f f9d5 db3e 5022 923a
00000210: 1050 a9bb d4e8 bb3e c89b 65bb bb4e d83f
00000220: 0af4 02bb b0b5 573f 3b63 3aba 3de9 6cb9
00000230: 76fd b53b 6a55 9c3f 7a27 ec3f 3ac8 983f
00000240: d49b b33f 1325 923f 40c2 04ba 5a7d a2bb
00000250: bf16 a3ba e577 2aba c586 4f3f 2bf9 903f
00000260: edc8 213a 608b c13b 7765 5e3f 298c 8ebb
00000270: ba86 5c3f 09ea 373b 3bb0 67bc ed75 3dba
00000280: d922 493f 189a 1fba f72a 5040 eebe 973f
00000290: e82b da3e 4124 e2b8 935f ad3e 709d 6cbb
000002a0: bf78 893f 0109 6f3f a900 cc3f 391c ba3e
000002b0: 870a 7b3f c0cc 1640 9f3f fb3e ec79 2b3f
000002c0: 633d b1ba be88 a73f c873 2f3f 4b82 4cba
000002d0: 46ff 8a40 e89c 893f f98c 1c3b 5a0c 053f
000002e0: d2b8 4d3f dfde af3f fff8 8b3f eb42 4b3b
000002f0: 5320 313f bde3 f43a a948 b8ba 5752 bf3f
00000300: fc10 d237 c9fd 91ba fbb4 8039 e61a 963f
00000310: c44c 623b 95c0 213f 977b d8ba ea78 f73f
00000320: c040 2a40 47c1 d13f 94a3 8f3b 4c3f ac3f
00000330: 5065 79ba 58f7 7f3f dec2 9f3f d88f baba
00000340: 45b4 713a 30e3 e3bb e7ad 0f3f a6e3 64ba
00000350: 7a0c ba3f 552c fbbb 2d7b 1b3b 7a4d 0c3f
00000360: 059b 933f 762e 693f 13a9 113c 9159 b1ba
00000370: 5c44 ba3e 959a 373f 0e88 113a b372 db38
00000380: 4a6d 4e39 3f89 fc3f 743e ac3b a474 c73e
00000390: 4e16 643f 41b6 4c3c 3ec3 f53f 0b9a 873f
000003a0: f224 c13f 935b 823f ff83 873f 0a3b 1c40
000003b0: 6647 88ba c0ed 5739 7829 be3e 3221 50b9
000003c0: 2aaa 8e3f 48e4 5d40 6a3f 8a3f b1fb e23b
000003d0: afa5 7d3b ac62 17bc dcb5 8fb7 558f 45bb
000003e0: aba9 d63f cb96 413f 07f4 92b9 5ec5 60b9
000003f0: a8be f93f a759 803f da1d e1ba 9bfe aabb
-0.006479085 0.0028579172 -0.00042420888 0.92437166 1.7297244 0.5454014 0.8459245 0.004052666
3.1498418 2.01624 0.57010037 1.0959096 -0.0014309952 0.0009227265 0.0014532554 -0.007126991
-0.002376476 0.0012027362 0.0076540485 0.6455998 0.002688163 -0.00079443114 0.0019798235 1.0812759
1.6067537 1.0529445 1.9842664 0.0010700212 0.0009464934 -0.0033326002 -6.212802e-05 0.7041993
-0.0010465685 0.7165869 0.77675104 0.0015596274 -0.0021759039 2.3295338 0.5987343 0.98374057
-0.005733558 1.8083636 -0.00058917585 -0.0056901057 0.00022202302 0.67218095 1.0507488 0.5734483
0.8949025 -0.005993423 0.0018723806 2.1551461 0.3404327 -0.0057977615 0.6243353 0.68787724
1.4070593 0.71424985 -0.0011651485 1.1226792 0.78898585 1.2065802 0.22956784 -0.00011543829
-0.015807057 0.0016851244 0.00042283762 1.1181605 0.5746441 -0.00022900492 0.002639709 0.00031260037
0.52946335 0.70718145 0.0024105713 -0.02018852 0.633217 0.6329566 0.000317294 0.00060137216
0.86171913 1.9755961 -0.001082217 0.0005231386 1.2264467 0.583657 -0.003289295 1.0518725
-0.0066526434 0.0076951496 0.28214723 1.4141066 1.505266 1.2382106 1.3498476 1.1482623
0.99305516 0.006357497 0.00018860062 -0.0018637471 -0.007265055 0.56743497 0.85880274 -0.02466553
0.9117639 0.5332909 0.92996615 0.007475605 1.2102432 1.4632696 1.1486619 1.3389789
0.00041727387 0.63159996 0.011123644 -0.0044253767 3.6862457 0.9926184 0.70540375 1.52838
4.403228 0.00064169074 0.64136434 1.2971128 -0.0031869805 0.550756 0.97706324 -0.0025928384
-0.006835228 0.8325172 0.42936686 0.0011149142 -0.005167015 0.3670107 -0.003503548 1.6899027
-0.0019981884 0.8426161 -0.00071101234 -0.00022593602 0.0055538965 1.2213566 1.8449547 1.1936104
1.403193 1.1417564 -0.0005064346 -0.0049587907 -0.0012442692 -0.0006502851 0.81065017 1.132604
0.0006171603 0.0059065074 0.86873573 -0.0043502045 0.86143076 0.002806308 -0.014141138 -0.000722735
0.785688 -0.00060883304 3.2526224 1.1855142 0.42611623 -0.000107832726 0.3386198 -0.0036104582
1.0739974 0.93373114 1.5937701 0.36349657 0.9806294 2.356247 0.49071977 0.66982913
-0.0013522323 1.3088605 0.68536043 -0.00078013976 4.3436613 1.0751009 0.0023887737 0.5197197
0.8036014 1.373989 1.0935363 0.0031015228 0.6918995 0.0018683594 -0.001405974 1.4947003
2.504186e-05 -0.0011138256 0.00024548903 1.1726959 0.003453062 0.6318448 -0.0016516325 1.9333775
2.660202 1.6387109 0.0043835137 1.3456817 -0.0009513693 0.9998679 1.2481344 -0.0014233543
0.00092202827 -0.006954573 0.5612473 -0.0008731432 1.4535058 -0.007665197 0.0023724542 0.5480572
1.1531683 0.9108652 0.008890408 -0.0013530721 0.3638028 0.7172025 0.0005551585 0.00010464098
0.00019686404 1.9729384 0.0052564684 0.38956177 0.89096534 0.012494625 1.9200208 1.0593885
1.50894 1.0184196 1.0587157 2.4411035 -0.0010397255 0.00020592567 0.37141013 -0.00019848792
1.114568 3.4670582 1.0800602 0.0069269766 0.0038703491 -0.009239834 -1.7131613e-05 -0.0030145247
1.6770529 0.75620717 -0.00028029105 -0.0002143583 1.9511309 1.002736 -0.0017175034 -0.0052183396
