gan4hep/onnx/data/models/mlp_gan.onnx (onnx, 282382 bytes, 10 tensors)

StatefulPartitionedCall/Generator/dense_5/MatMul/ReadVariableOp:0 f4 [256, 2]
000000 c4 b6 b6 3a e5 99 25 3c fd de 57 3b 6b 8e 8a 3c
       0.0013939966 0.010107492 0.0032939308 0.016913613
000010 06 ac d0 bb 15 d0 c7 3c ec 8f e8 bb 31 51 0f 3a
       -0.006368163 0.024391213 -0.007097235 0.00054671156
000020 89 4b 2c be 0d e0 64 bd e8 6d 5b 3b 1f b1 2f bc
       -0.1682569 -0.055877734 0.0033482257 -0.010723381
000030 14 24 f4 bb 88 48 8f 3d 0f 6d 64 bd 9c 0a 2d ba
       -0.00745059 0.06996256 -0.05576807 -0.0006601007
000040 da 18 58 3c 7c 65 5d 3d b8 65 17 3c 3e 65 85 3d
       0.013189519 0.05405186 0.00924056 0.06513451
000050 86 0e 07 3a 7f ff 14 bd c4 92 7d bc 3d 42 a7 bd
       0.00051520055 -0.036376473 -0.015476886 -0.08166931
000060 69 11 95 ba 0c 20 2f bb 24 4e ce bc aa 93 03 ba
       -0.0011372986 -0.0026721982 -0.025183745 -0.0005019257
000070 bd 39 e2 3b 28 e6 62 bc f9 1c 18 bd 63 65 93 ba
       0.0069038556 -0.013848819 -0.037137005 -0.0011245426
000080 2c de 06 3c eb 64 f0 3a a7 bf 8b 3c c6 84 84 3d
       0.008231681 0.0018340623 0.01705916 0.06470637
000090 d8 89 5a 3c df d4 db bc e4 6e 49 bc 93 55 64 3d
       0.013338529 -0.026834903 -0.012294505 0.055745672
0000a0 1e e6 c4 3b 2d 2a aa bc 92 55 f1 bd 5d 00 2f 3e
       0.0060088774 -0.020772064 -0.11783899 0.17089982
0000b0 67 4e 35 3d e8 a5 f1 3a c6 90 29 bd 70 06 12 bb
       0.044264223 0.0018436285 -0.041397832 -0.002228167
0000c0 50 00 1e be 6c 23 fa 3c 93 90 27 bc 24 b2 67 bc
       -0.15429807 0.030534469 -0.01022734 -0.014141593
0000d0 b6 a3 9e bc 0d 14 45 3d ef 57 48 bd ee dd ab bc
       -0.019365173 0.048114825 -0.048911985 -0.020979848
0000e0 77 e5 a1 3c b3 36 c3 bc 09 f5 06 bc 20 c3 8a 3c
       0.019762738 -0.023829794 -0.008237132 0.016938746
0000f0 1c fa d7 3b 41 3f ac 3c e6 7b cc bc 24 6a 67 ba
       0.0065910947 0.021026256 -0.024961423 -0.0008827767
000100 82 46 ab bc 4a b0 af ba ea 6a 3c bd 41 92 0c 3b
       -0.020907644 -0.0013403979 -0.0460004 0.0021449479
000110 1a f6 a3 3b f6 96 d6 3b 48 11 04 3d 6c 1f 18 3a
       0.005003703 0.0065487577 0.032243043 0.0005803022
000120 4e be 19 3e ba 37 ac bb ae a5 57 3c c6 b8 86 3d
       0.15014002 -0.0052556666 0.01316206 0.065782115
000130 12 7e 2c 3d 0e 4c d6 3a 4b b4 0c bd 34 a3 a3 bc
       0.042112418 0.001634957 -0.03435163 -0.019975282
000140 13 85 9a 3b 83 a5 39 bb 0c d1 31 ba 60 02 e0 bd
       0.0047155707 -0.0028327412 -0.00067831646 -0.10937953
000150 e2 f5 80 bb 11 68 16 bd 26 d8 2e 3c 94 d2 48 bb
       -0.0039355615 -0.03672034 0.010671651 -0.0030643092
000160 74 56 39 3c e7 9c 21 bd 4d 9c 47 3b cc 34 5b 3a
       0.011312116 -0.039456274 0.0030458153 0.00083620544
000170 fa 5b 2f bd 6a 14 11 bb 3c 1d 68 3c 6d 2e 41 3d
       -0.042812325 -0.0022137412 0.014167126 0.047163416
000180 33 5b 08 bb 2c b4 13 3a cb 38 89 bc a5 5f 61 3b
       -0.0020806312 0.00056344527 -0.016750714 0.0034389284
000190 12 27 15 bc 4a 86 8b b9 a8 60 21 3d 7c 59 cb 3a
       -0.009103553 -0.000266122 0.03939882 0.0015514339
0001a0 59 01 81 bd 4d 06 46 bb 14 34 49 bd b2 4c c1 bb
       -0.06299085 -0.0030216158 -0.04912193 -0.0058990354
0001b0 c1 e8 42 3d 09 ec a2 3d b3 8e c2 3b 51 b0 24 bc
       0.047585253 0.079551764 0.005937421 -0.010051803
0001c0 31 fe 0d bc 86 e6 b1 bd 68 ce b6 bb 22 af 88 3b
       -0.008666561 -0.08686547 -0.0055788048 0.004171268
0001d0 36 a9 1f bc a6 2f 8f 3c bb 70 b7 bd 86 79 e4 bb
       -0.009744933 0.017478775 -0.089570485 -0.0069724945
0001e0 e0 0d f2 3b a1 e1 84 3b e6 89 9e 3d 02 45 ef 3a
       0.007386908 0.0040552174 0.07741146 0.0018254819
0001f0 a7 4f f9 3d 63 03 73 3c 08 5c 53 3d 5d c4 15 3b
       0.121733956 0.01483235 0.05160144 0.0022852637
000200 45 0a f2 bc bd 06 0d bb 90 63 1b bd d0 a7 bc 3a
       -0.029545913 -0.002151891 -0.037936747 0.0014393274
000210 2a 03 95 3c a9 3a 6a bd e0 9c 3c bd 65 95 15 bb
       0.018189985 -0.05718485 -0.046048045 -0.0022824642
000220 17 4e 7b bd 00 14 a0 ba 0c 63 80 3b bb 49 88 3d
       -0.06135377 -0.0012212992 0.0039180573 0.06654688
000230 11 e5 c5 3c 5f 42 d2 3a 42 c0 01 be a2 14 4a 3d
       0.024157079 0.0016041509 -0.12670997 0.049336083
000240 59 71 74 bd 1e 4e 14 ba 36 eb c7 bc 95 0f e5 ba
       -0.05967841 -0.00056573923 -0.02440415 -0.0017475957
000250 79 a8 0d 3d 66 31 f1 3a 9d 93 01 3d 0a b3 03 3b
       0.034584496 0.0018401563 0.031634916 0.002009573
000260 8d 78 64 3d 6d 0c 0b 3b f5 5c 22 bd aa 01 bd 3a
       0.05577903 0.0021217123 -0.039639432 0.0014420052
000270 97 05 34 3b ce 60 23 bd 97 a6 93 bc 7e 6c 48 ba
       0.0027469152 -0.039887242 -0.018023772 -0.0007645561
000280 5f 83 4d bd a9 ae 30 bb 6c a9 46 3b d8 34 7b bd
       -0.050174113 -0.0026959574 0.0030313386 -0.061329693
000290 a8 7b 59 bc 2d 95 f7 3a 1c b9 d6 bc 37 71 c5 bb
       -0.013274111 0.0018889062 -0.026211314 -0.006025459
0002a0 dc 60 fc 3c f7 d3 84 3a 04 8a 1b bb 1a 43 b8 bd
       0.030807905 0.0010133971 -0.0023733387 -0.089971736
0002b0 4a 9c d8 bc c7 29 b9 ba fd c8 f7 3c b8 0a 8f ba
       -0.026441712 -0.001412683 0.030247206 -0.0010913229
0002c0 9c 7a fd 3b df 6a 61 bd 98 40 12 3d 94 dc 67 b9
       0.0077355634 -0.05503356 0.035706133 -0.00022112048
0002d0 67 87 71 bd 6e 4c 50 3a 41 e9 57 3c 63 54 e0 3a
       -0.05896702 0.0007945959 0.013178171 0.0017114993
0002e0 e1 0e 03 3b 79 3f 52 bc 62 d1 48 bb c2 0f 00 ba
       0.0019997882 -0.012832516 -0.003064238 -0.00048851606
0002f0 43 9a 5d 3c 15 13 9e bd 5b c6 9a bd fe 76 60 3c
       0.013525548 -0.07718483 -0.075573646 0.013700245
000300 e3 c3 e1 3d 51 2c 92 3c 2a 31 d7 ba 7a db af ba
       0.110236906 0.017843397 -0.001641785 -0.001341685
000310 74 be ae bc 90 72 95 3c 70 65 1a bd f4 60 fe ba
       -0.02133105 0.018243104 -0.037694395 -0.0019407556
000320 6c fa 6d bc 52 c5 83 3d ca 64 9f bc 8f f9 44 bd
       -0.014525037 0.0643412 -0.01945724 -0.04808956
000330 db 64 6c bd 17 56 1d bb 4b 33 04 3b 3d 0b 14 ba
       -0.05771337 -0.0024007612 0.0020172175 -0.00056474266
000340 ee 2f ab bd 04 a6 22 bc be 4b de bb ab 7f be 3d
       -0.08358751 -0.0099272765 -0.0067839315 0.093016945
000350 cc b0 0f 3c 65 e1 df 39 d6 2a c7 3b e4 74 90 bd
       0.008770179 0.00042701807 0.0060781045 -0.07053545
000360 1b bc 96 bc d4 0b 0e be b5 1e 1a 3e b5 54 32 3b
       -0.018400243 -0.138717 0.15050776 0.0027211134
000370 75 4e 9f bc 74 5c af ba e7 9c 62 bd b5 80 75 bb
       -0.01944659 -0.0013378994 -0.055325415 -0.0037460749
000380 fc 99 41 bd 44 8e 3b bb 5f 11 0b 3c 5c 00 26 3d
       -0.04726599 -0.0028618732 0.008488028 0.040527686
000390 77 09 45 3e 02 04 df bd 1e 98 38 be 31 aa 46 3c
       0.19241892 -0.10889436 -0.18026778 0.012125538
0003a0 2d 4d 09 bd 44 9d 1f ba 93 30 ad 3d 9e 5a 16 bb
       -0.033520866 -0.0006088803 0.084565304 -0.0022942196
0003b0 d6 74 87 3d 96 ff 2f 3b 9a 88 4b bc 1c 43 48 3d
       0.066140816 0.0026855222 -0.012422705 0.048892125
0003c0 97 5b 37 bd 06 eb 04 ba 5b 6b e1 39 d8 be c7 bd
       -0.04476508 -0.00050704216 0.0004299533 -0.097531974
0003d0 3d f1 ff 3a 1d 6a f8 bb 3e 29 95 3d 74 02 84 3b
       0.0019526851 -0.007581009 0.07283257 0.0040286127
0003e0 11 d9 20 3c 32 d0 2f 3d 80 04 7b bd 1a 90 ec 3d
       0.009817378 0.04292316 -0.06128359 0.11550923
0003f0 d7 33 cf 3c 75 24 85 3d 45 41 01 bb a7 82 d2 3c
       0.025293274 0.06501094 -0.0019722742 0.025697066

StatefulPartitionedCall/Generator/dense_5/BiasAdd/ReadVariableOp:0 f4 [2]
000000 46 cb 50 3d 91 3b 29 3c
       0.050975107 0.010329143

StatefulPartitionedCall/Generator/dense_4/MatMul/ReadVariableOp:0 f4 [256, 256]
000000 32 58 b2 3c 73 58 a3 bb 3d c4 eb bd 99 f3 46 be
       0.02177057 -0.004984909 -0.11512039 -0.19428863
000010 a1 06 e0 3c d1 c0 d9 bd a9 79 ac bd 66 38 4a bc
       0.02734691 -0.1063248 -0.08421642 -0.012342548
000020 7c 0e 4a 3e be f0 4e be 8c 0b 0a be e6 53 bd bd
       0.19732088 -0.20209023 -0.13480967 -0.09244518
000030 3b cc 4b 3e 34 ea ab bd 57 3b 58 3d 4e c4 90 3e
       0.19902126 -0.0839428 0.052790966 0.2827477
000040 b5 ec 99 3d 69 1a 59 be 24 ea 4b be 59 5f e7 bd
       0.075158514 -0.21201481 -0.19913536 -0.11297483
000050 fc 27 59 be de bb 22 bc 12 87 0f 3c f5 36 02 3d
       -0.21206659 -0.009932486 0.008760231 0.031790692
000060 7e 67 b8 3d da d4 87 bd 9e 30 9d 3d 9d 51 41 3e
       0.090041146 -0.06632395 0.076752886 0.18878789
000070 60 ec f9 3d a5 54 99 bd 4f 97 ff 3d d7 c6 ac bc
       0.12203288 -0.07486848 0.12480032 -0.021090908
000080 43 7f c3 bd 1b 98 24 3d 44 ce 1d 3e f1 9b 3a be
       -0.095457576 0.04018412 0.15410715 -0.1822355
000090 b9 d3 fb bd 63 a1 54 bc 5a 94 1a be 3b 8c 9f be
       -0.12296242 -0.012977931 -0.15095654 -0.31161675
0000a0 30 72 fb 3d 45 e3 13 3e 4c 8e 8c bd a1 0d 21 be
       0.12277639 0.14442165 -0.068630785 -0.15727855
0000b0 00 fc 60 bd 69 bc bc bd c6 66 0f be 9c d7 83 3c
       -0.054927826 -0.09215624 -0.14004049 0.016094021
0000c0 ad aa b3 bd f4 3b e0 ba 8a 63 e1 bd 46 8e 9b 3e
       -0.08772788 -0.0017107711 -0.11005314 0.30381984
0000d0 fb 19 be 3d 6f f3 23 be 06 ca 1f be ed 21 ae 3d
       0.09282299 -0.16010831 -0.1560441 0.085025646
0000e0 1d ff d0 bd d4 24 44 be 45 25 ec bd 01 08 35 bd
       -0.10204909 -0.19154674 -0.11530546 -0.044197086
0000f0 33 0d e3 3b f0 90 e0 bd 29 53 d3 bc b4 d0 95 3e
       0.0069290637 -0.10965145 -0.02579649 0.2926079
000100 1d e6 29 be dd e6 52 3d 81 73 ed bb 9d 71 a6 bd
       -0.16591688 0.0514897 -0.007246435 -0.08127139
000110 a5 6d 91 3e 42 c9 74 3d 1f 78 02 3e 59 9d 66 bd
       0.28403965 0.059762247 0.12741135 -0.056302402
000120 a3 69 40 ba 5a 4d 25 be e5 9d 8c 3e 00 88 7e bc
       -0.000733996 -0.16142789 0.27464214 -0.015535355
000130 b2 73 2a 3e 1e 11 41 3c f8 15 fc bd a9 a6 25 be
       0.16645697 0.011783866 -0.12308878 -0.16176857
000140 c8 52 a4 3b 3e f7 a5 3d c6 f5 73 3e 75 02 91 be
       0.005014751 0.08103798 0.23824224 -0.28322187
000150 a3 96 12 be 3d 67 1a be b0 89 61 be d9 c7 b7 bd
       -0.14315276 -0.15078445 -0.2202518 -0.08973665
000160 98 8a 21 bc 4a fe 19 be 5d 8f 5a be 0a 31 45 3e
       -0.0098597035 -0.1503841 -0.21343751 0.19256988
000170 70 dc 66 3e 30 62 92 3e de 9e 2b 3e 04 ae 9d ba
       0.22545028 0.28590536 0.16759822 -0.001203001
000180 2c db 79 3d a2 d7 13 3c 76 d0 52 3b f6 82 0b 3e
       0.061000034 0.009023579 0.003216771 0.13624176
000190 7c fc 29 be fd ab 15 3e 6a d6 3a 3e f2 b0 ae bc
       -0.16600221 0.1461639 0.18245855 -0.021324608
0001a0 2e 1e b2 bd 87 36 1a 3e 73 a3 b5 bd ca 80 0a be
       -0.086971626 0.15059863 -0.08869066 -0.13525692
0001b0 49 ec 9e bd b2 0d bb bd e7 d6 fb 3c 27 21 95 3d
       -0.077599116 -0.091334715 0.030742122 0.07281714
0001c0 4a 35 d4 3d c6 d3 33 bd c2 00 c7 bd 2c 91 5c 3e
       0.103617266 -0.043903135 -0.097169414 0.21539754
0001d0 34 60 56 be a2 97 40 be b7 b0 c7 be ca 73 f8 bd
       -0.20935136 -0.18807843 -0.3900201 -0.1213146
0001e0 46 10 e3 3d d4 64 30 3e a2 d8 72 bb 48 0e d3 3d
       0.11087088 0.17225963 -0.0037055393 0.10305458
0001f0 1c 2e 02 3a c8 6a 9a 3d 69 d9 ed 3d 45 29 6b 3c
       0.0004965977 0.07539898 0.11613733 0.014353101
000200 5b 91 6d bd 2e 12 55 3c e6 6a 30 3d 45 21 52 bd
       -0.05799995 0.013004823 0.043070696 -0.05130126
000210 33 01 32 be fd 2b e4 bd d1 5a 29 3e ad a1 3d 3d
       -0.1738327 -0.111412026 0.1653855 0.046296764
000220 85 ab 92 3d e4 78 92 3c 8f fd 71 bc 12 ec 4a 3e
       0.07161621 0.01787991 -0.014769926 0.19816616
000230 68 3e 45 be 4f 68 03 3e c4 4a 1a 3e 4e 47 db 3b
       -0.19262087 0.1283276 0.15067583 0.00669185
000240 78 88 9e be 9f 99 19 3b 47 11 3a 3e 7f 68 07 be
       -0.30963492 0.0023437513 0.18170653 -0.13223456
000250 3d 76 15 3d 88 91 33 be 73 6f 1e 3e 7c b2 3e 3e
       0.036489714 -0.17535985 0.15472202 0.18622774
000260 28 59 d3 3d c9 fa 4d bb 95 48 b6 be 0a a8 0e be
       0.103197396 -0.0031429997 -0.3560225 -0.1393129
000270 e6 fa 10 be b4 7e b5 bc 02 67 05 3e 41 99 ca bd
       -0.1415821 -0.022155143 0.13027576 -0.09892512
000280 33 11 21 be 19 09 a8 bd c2 05 aa bd 46 da f6 3d
       -0.15729217 -0.0820486 -0.083018795 0.12053351
000290 39 ac 31 3e 05 e5 05 3c 55 eb 09 bd d8 66 d2 3e
       0.17350854 0.008172278 -0.033671696 0.4109409
0002a0 b3 82 1b be 95 0e c3 bc 52 bb 2d 3c 3d c1 46 3e
       -0.15186577 -0.023810664 0.010603743 0.19409652
0002b0 3a 33 1f 3e 94 21 37 be 87 f6 f6 3d 60 af 83 be
       0.15546885 -0.17883903 0.1205874 -0.25719738
0002c0 7d 2a 24 3e 85 ff 8c bd 9b 3a a1 be 6b f7 04 3e
       0.16031833 -0.06884674 -0.31490025 0.12985007
0002d0 6d c5 4f 3d f7 14 f8 be 20 5e be bd f9 f9 cb bc
       0.05072539 -0.48453495 -0.09295297 -0.02489947
0002e0 7b 2b 24 3c 9a c2 32 be 1e 87 3b be ad 2c 74 be
       0.010020132 -0.17457047 -0.18313262 -0.23845167
0002f0 e4 ca 38 bd 1a 97 e9 3d 9d f8 16 3e c3 4e 93 3d
       -0.045115367 0.114057735 0.14743276 0.07192757
000300 7d e9 32 bd cc 63 2e 3d 7f 03 37 3d b9 64 6f be
       -0.043679703 0.042575642 0.04468107 -0.23378266
000310 bd 20 6c 3d 3d dc 48 be ec 0d 38 be 37 d5 25 be
       0.05764841 -0.19615264 -0.17974061 -0.16194616
000320 cb 29 dc bd af f6 80 bd 12 9c 37 bd 8f 82 30 3e
       -0.10750159 -0.06297051 -0.044826575 0.17237304
000330 27 ed 16 3d 35 28 88 be f4 b2 25 3d 49 ad 02 3e
       0.03684726 -0.26593176 0.040453866 0.12761416
000340 59 5d 07 bd d8 6f 9e 3c 60 6e 20 3e a8 24 0f be
       -0.033048008 0.01934044 0.15667105 -0.13978827
000350 b2 02 83 3c 1f df 86 3d 1e ea 65 3e 66 49 57 3c
       0.015992496 0.06585526 0.2245259 0.013140058
000360 bb b8 6e 3d 30 a4 c9 bd 13 b3 25 be df c6 88 3d
       0.05828164 -0.098457694 -0.16181593 0.06678557
000370 d3 d3 01 3e 6a 37 21 3e 12 38 dd 3d e3 b3 b8 bd
       0.12678461 0.15743795 0.1080171 -0.09018686
000380 1c 2e 01 bd cc c3 0e bd 07 9b 98 bc 66 57 06 3e
       -0.031538114 -0.034854695 -0.01862861 0.13119277
000390 d3 04 a7 bd 02 12 38 3e ac 3d aa bd 73 58 15 3b
       -0.08155217 0.1797562 -0.08312544 0.0022788316
0003a0 78 67 07 3d b4 13 11 be d2 71 5c 3d cf 01 4e 3e
       0.03305766 -0.14167672 0.053819485 0.20117877
0003b0 a9 bd 31 3e ad 54 a4 bd 76 e0 14 3d 63 23 95 3d
       0.17357506 -0.08023963 0.036346875 0.0728214
0003c0 00 5a 4b bd 13 c9 8b bd a4 c5 9e bc 41 cf 2f 3e
       -0.049646378 -0.06825461 -0.019381352 0.17168905
0003d0 7f 86 0e 3e fe 14 86 3d c7 97 11 bb c0 f4 2c 3d
       0.13918494 0.06546973 -0.002221571 0.0422256
0003e0 75 a5 0f 3e 7d 1d 99 3e 45 78 df bc 0e b9 81 be
       0.1402796 0.2990531 -0.027279029 -0.25336498
0003f0 ad be d2 bd 1a 41 5b be 9c cc 74 3d 5b 2b 1c 3e
       -0.10290275 -0.21411553 0.059765443 0.15250914

StatefulPartitionedCall/Generator/dense_4/BiasAdd/ReadVariableOp:0 f4 [256]
000000 2b 4b f7 b9 62 d8 49 39 5d 3f cd 37 15 0f 23 b8
       -0.00047167516 0.00019249463 2.446741e-05 -3.8876275e-05
000010 1b 66 17 3b be 73 28 b9 9b ae 7e 3b 43 e6 88 39
       0.002310163 -0.00016064846 0.0038861397 0.000261115
000020 58 56 93 b9 e8 9a 3b 3a 79 a8 23 b8 51 64 c5 39
       -0.00028102356 0.0007156567 -3.901913e-05 0.0003764951
000030 d7 eb 02 3b 2f ef 8e b9 fa 8c ab ba 89 3c 01 39
       0.0019976997 -0.00027262556 -0.0013088279 0.0001232495
000040 ba 95 20 39 97 44 95 3a 12 ff 10 b9 5f cb 15 3a
       0.00015314567 0.0011388239 -0.00013827931 0.00057142036
000050 9d b9 5d 3a b4 41 10 ba 7e d6 b1 b9 59 e3 d6 b9
       0.00084581395 -0.00055029546 -0.0003391988 -0.00040986648
000060 f2 1e 7f ba c5 ac 24 39 c0 0a f5 3a f2 8a 3a 37
       -0.0009732089 0.0001570462 0.001869522 1.1118815e-05
000070 bd 97 54 b9 22 dd d0 b9 b9 82 47 3a 35 58 20 b9
       -0.00020274422 -0.00039837608 0.0007610727 -0.00015291649
000080 88 d9 8b 38 fb 53 4b b6 6f 2a 27 3a 25 45 c3 38
       6.668555e-05 -3.029824e-06 0.00063768675 9.311204e-05
000090 25 cf 33 ba dd 81 fb 3a 5a 50 2d b9 53 cf a7 35
       -0.0006859175 0.0019188483 -0.00016528499 1.2502809e-06
0000a0 ed 60 7f 39 31 77 78 bc bd be 93 3a a1 2f 76 ba
       0.00024354803 -0.015165136 0.0011272054 -0.00093912525
0000b0 a6 e0 61 b9 f1 12 ba ba a5 7e 17 38 89 e2 14 ba
       -0.0002154136 -0.0014196319 3.6119152e-05 -0.00056795083
0000c0 1d c4 70 b9 41 4c 09 39 39 0d f2 38 50 64 b1 b8
       -0.00022961241 0.00013093745 0.00011541922 -8.458702e-05
0000d0 cf 1e 0f b8 9f 56 8d 37 0f 34 f5 ba 21 10 77 b8
       -3.412255e-05 1.6848846e-05 -0.0018707531 -5.890441e-05
0000e0 56 72 49 39 e6 13 f9 b9 3b 54 8c 39 dd e1 06 b9
       0.00019211447 -0.00047507806 0.00026765637 -0.00012863376
0000f0 2d 11 86 39 83 73 29 ba e1 83 6c b9 28 98 d1 b9
       0.0002557127 -0.0006464051 -0.00022555843 -0.00039976952
000100 de f9 bf b8 d4 a6 06 3a 15 c2 bf b9 2f 50 1b 38
       -9.154131e-05 0.00051365537 -0.0003657496 3.7029557e-05
000110 03 1d 6b b7 44 43 a2 bb bb 71 92 38 9d 70 b6 3a
       -1.4013846e-05 -0.0049518663 6.9830065e-05 0.001391906
000120 ba b5 87 39 e4 01 31 b9 42 80 5a 39 69 5d a0 b8
       0.00025884603 -0.0001688074 0.0002083788 -7.6467935e-05
000130 6f 05 2a b5 19 25 ee b8 76 1c ec b9 cc 5b 02 b7
       -6.333784e-07 -0.00011355634 -0.00045034633 -7.769977e-06
000140 9f 0d 5d 37 4c e6 fa ba 9e f6 45 38 8f 5c d0 37
       1.3175798e-05 -0.001914212 4.719814e-05 2.4838633e-05
000150 45 f7 96 b6 d3 3d 8d ba fe 08 9a b7 d4 35 c2 39
       -4.4991343e-06 -0.0010775871 -1.8362418e-05 0.0003704267
000160 a8 af 4a 3b 4e 99 80 ba fa dd 2f b8 4b 48 bb 38
       0.0030927453 -0.0009811313 -4.1929983e-05 8.9303205e-05
000170 35 56 c6 b8 05 c2 a9 39 15 10 71 bb 50 25 92 38
       -9.457433e-05 0.00032378748 -0.0036783267 6.9687725e-05
000180 93 40 17 3b 0d 46 21 bb 42 a9 7c 39 30 cb 3f 39
       0.002307926 -0.0024608404 0.00024095646 0.00018290873
000190 11 b2 ed b9 3a b2 01 3a 5e 05 2a 38 b3 1d 54 ba
       -0.00045336832 0.00049475173 4.0536157e-05 -0.0008091584
0001a0 64 f3 54 ba de 08 33 3b e7 28 12 38 92 48 83 bb
       -0.0008123426 0.0027318518 3.4847206e-05 -0.004006454
0001b0 86 64 0a 3a 6e bc 6f 3a c8 f3 fe 39 45 9d 89 b8
       0.00052792614 0.00091452047 0.00048628286 -6.561963e-05
0001c0 f5 b3 13 b9 f4 4e 36 3a 69 a4 44 ba e8 f8 62 38
       -0.00014086052 0.0006954514 -0.00075013057 5.411441e-05
0001d0 71 74 3d b9 9a 27 dd b9 0a 92 00 b8 a7 31 07 3a
       -0.00018067822 -0.0004218191 -3.0653588e-05 0.000515724
0001e0 5d d6 9c b8 bc a0 14 bb 42 61 5b ba c1 2b b5 39
       -7.478588e-05 -0.0022678813 -0.00083686796 0.0003455561
0001f0 0d c8 bb 39 82 5f d4 3a 6e f5 56 3a 41 ca e7 3a
       0.0003581647 0.001620278 0.0008200024 0.0017684178
000200 90 00 b7 b8 36 e0 9e 37 86 e8 50 b9 52 17 78 ba
       -8.726225e-05 1.8939474e-05 -0.00019923048 -0.0009463924
000210 fa 7f 9a 3a d7 cf 40 b9 75 90 69 b9 dd 7f 33 ba
       0.0011787408 -0.00018387973 -0.00022274426 -0.0006847361
000220 8e ef 07 ba 2c 3d 92 b8 a9 9a 6d 39 ed 50 2f 38
       -0.0005185538 -6.973217e-05 0.00022659697 4.179862e-05
000230 36 6f 77 38 b4 26 8a b8 dc 6c cc 39 14 04 04 3b
       5.8992962e-05 -6.587562e-05 0.0003899102 0.0020144032
000240 ab 01 83 b8 e1 89 18 39 c3 eb 18 3a e0 0d d7 b9
       -6.2468775e-05 0.00014547214 0.0005833471 -0.00041018333
000250 4f 9a 6f ba 73 94 51 ba cc 1e 4a ba 15 73 a5 b9
       -0.000914012 -0.0007994838 -0.00077102776 -0.00031556995
000260 2e 51 fe 3b e6 45 80 3a 13 4e 5f 38 77 7e d0 b7
       0.007761142 0.0009786456 5.3240055e-05 -2.4854422e-05
000270 30 9b 79 38 30 91 9c 38 64 59 3a bb aa 59 a0 38
       5.9510756e-05 7.465703e-05 -0.0028434629 7.646096e-05
000280 36 da 33 b9 e2 f3 54 b8 7d 98 89 39 db 4a 94 ba
       -0.0001715206 -5.0771872e-05 0.0002624429 -0.0011313813
000290 88 1d e8 ba c7 b5 7a b8 36 b9 22 38 09 38 c5 37
       -0.0017708996 -5.9773938e-05 3.87963e-05 2.3510323e-05
0002a0 83 5d b7 3a bf ab 57 b8 e9 50 9a b9 65 01 e8 b9
       0.0013989661 -5.1419946e-05 -0.00029433452 -0.00044251527
0002b0 0b 7a c8 b8 51 62 0b b9 52 d9 5f b8 e1 2c 57 b8
       -9.5594754e-05 -0.00013292699 -5.336974e-05 -5.130179e-05
0002c0 ea e1 43 3a d9 1e 45 3a 0e 7e 39 ba 9a 21 91 3a
       0.00074723235 0.000751955 -0.00070759736 0.0011072636
0002d0 a8 95 81 3b eb 46 83 b8 0e 3e bb b9 32 75 d5 b9
       0.003954608 -6.259776e-05 -0.00035713654 -0.00040713843
0002e0 51 b2 8d 3a 16 3a ed 38 92 5f 35 3b 16 12 02 b9
       0.0010810589 0.0001131186 0.0027675373 -0.00012404504
0002f0 7c 99 25 b8 87 3a 1f bc 49 bd 13 38 ec 2b d8 ba
       -3.948201e-05 -0.009718544 3.5223817e-05 -0.0016492582
000300 c2 55 8e 3a 8c ab 74 3a 2f 15 31 ba 25 d8 2c b9
       0.0010859298 0.0009333424 -0.0006755171 -0.00016483718
000310 b4 e2 92 b9 81 bd 02 38 ad 37 0d 3b 70 57 07 ba
       -0.00028016197 3.1170905e-05 0.0021548078 -0.00051628705
000320 fc 48 23 3a 61 bd d5 39 73 1f cb b9 7a 6a 45 b9
       0.0006228832 0.00040767624 -0.0003874261 -0.0001882705
000330 64 5a 88 ba 57 f8 21 b8 b1 32 25 39 6b 7f 9e b8
       -0.0010402915 -3.8616676e-05 0.0001575451 -7.5577605e-05
000340 27 80 76 38 36 2f 29 3a 1f 5f d3 b6 91 b7 1d 3b
       5.877032e-05 0.00064538734 -6.2993636e-06 0.0024065713
000350 bf 87 18 3a 71 f6 a8 36 b9 bc 59 39 66 fb 8d ba
       0.00058185676 5.0354797e-06 0.00020765037 -0.0010832369
000360 1d 04 04 b8 b8 f5 b2 ba 7f 0f 66 ba 57 0a 81 b9
       -3.1475083e-05 -0.0013653552 -0.0008776113 -0.000246125
000370 e4 c7 2f bc ba 77 7c 3a 43 40 4d 3a e2 79 02 3b
       -0.01072881 0.0009630878 0.0007829705 0.0019909074
000380 24 51 1e 3a ea 74 42 ba 19 87 04 b8 35 60 4e b9
       0.00060393126 -0.0007417934 -3.1597072e-05 -0.00019681531
000390 83 2d e1 bb 53 b1 e8 3a b4 d2 c9 3a a9 5e fa 3a
       -0.0068718805 0.0017753042 0.0015397877 0.0019101697
0003a0 14 ad b1 37 67 7b 41 39 61 20 db b8 f3 d0 95 ba
       2.118064e-05 0.00018451885 -0.00010448765 -0.001143007
0003b0 89 f7 54 ba ca f8 12 3b a4 fd cf b7 34 69 d1 bb
       -0.0008124044 0.0022426122 -2.4794434e-05 -0.006390715
0003c0 2e 00 3b 3b 1b 3b 84 3a e6 52 d3 38 f9 1b 2c ba
       0.0028534043 0.0010088416 0.00010076705 -0.00065654475
0003d0 7f 35 3a 3a c9 6e a0 b9 c3 e6 83 b8 0b ec 45 ba
       0.00071033085 -0.0003060012 -6.2895495e-05 -0.0007550127
0003e0 8c fe ab 3a cb eb 9d b6 32 c1 16 3a 3f 4c 8b 37
       0.0013122126 -4.7064145e-06 0.0005750834 1.6605596e-05
0003f0 8d e0 83 b6 65 4a 27 bb 57 d9 30 bb 42 86 ae 39
       -3.9302454e-06 -0.002552652 -0.0026985013 0.00033287896

StatefulPartitionedCall/Generator/dense_3/MatMul/ReadVariableOp:0 f4 [8, 256]
000000 ed b0 6e bd d2 4f 9f bd 33 d7 74 bd a4 3d e4 bd
       -0.0582742 -0.077788964 -0.059775542 -0.111445695
000010 87 f9 dd bd 5f 8d 29 3e ae c0 ee 3d bd 9d 09 3d
       -0.10838609 0.16557835 0.116578445 0.033597697
000020 3a 88 87 3d 1a fb 5d bd c5 d5 2f bc 0f a3 c2 3a
       0.0661778 -0.054194547 -0.010732119 0.0014849621
000030 33 96 92 bd b6 2c 97 3d a7 73 96 bd 21 d3 ff 3d
       -0.071575545 0.07381575 -0.07346278 0.124914415
000040 24 95 73 3d f2 4c cc 3d 4c 22 c1 bd 43 75 6f bd
       0.059468403 0.09975614 -0.0943037 -0.05846144
000050 cc b5 5a bd ce 17 5b bd d7 8d b6 3d 3a 76 fa bc
       -0.05339603 -0.0534895 0.089137726 -0.030573953
000060 85 26 a7 bd be f8 0f bd 60 e0 d3 bd 8c 6a 11 3e
       -0.08161644 -0.03514933 -0.103455305 0.142008
000070 6a 14 b1 3d 06 d8 04 bd 3b 59 f6 3d 67 09 c2 3d
       0.08646472 -0.03243258 0.12028738 0.094744496
000080 78 3b db bd 0b 93 3c bd 0b 2e c0 3d 49 bc f9 bd
       -0.10704702 -0.04603867 0.09383782 -0.12194116
000090 30 05 8e bc 5c ec d7 bd 9a ee ea bd 90 51 21 3e
       -0.017336458 -0.10543129 -0.11471291 0.1575377
0000a0 b2 aa 88 bd 94 ad 85 3d 7c d7 33 3b 11 89 c0 bd
       -0.066731825 0.06527248 0.002744167 -0.09401143
0000b0 0f 49 94 3b b3 2e 75 bd 5d b7 c2 3d c9 ad 5e bc
       0.004525311 -0.05985899 0.0950763 -0.013591238
0000c0 f9 31 fc bc d1 f7 04 3e 6a c9 74 bd db 74 80 3d
       -0.030785548 0.1298516 -0.059762396 0.062722884
0000d0 ba 25 01 3e 27 85 84 bc 0a c4 11 be 4c c3 73 3d
       0.12612048 -0.016176773 -0.14234939 0.05951242
0000e0 1b 8e 18 3e 7a 3b 9a 3d 31 4e 36 3d 6a 51 88 3d
       0.14897959 0.075308755 0.044508163 0.066561535
0000f0 c8 e6 ef bd 37 b4 07 be 24 39 6d bd f4 3a 69 bd
       -0.1171394 -0.1325234 -0.05791582 -0.056940988
000100 45 93 42 3e c3 37 13 be 6e 79 a1 bd 6d 41 94 3d
       0.19001491 -0.1437674 -0.07884489 0.072390415
000110 08 c8 f1 3d a3 e1 7b bc 98 5c 6c bc 29 28 ba bd
       0.11805731 -0.01537362 -0.014426373 -0.09089691
000120 22 aa 97 bd 00 8e b6 3d 81 63 62 bd f4 de 19 3b
       -0.07405497 0.08913803 -0.055270676 0.0023478838
000130 4d 6e 14 3e b7 a1 c9 3c 4a fe 9b bc bf f9 03 be
       0.14495201 0.024613244 -0.019042153 -0.1288824
000140 8f 7a 2e 3d 3e 14 2c 3e 7d 5c f6 bd 97 69 70 bc
       0.04259735 0.16804597 -0.120293595 -0.014673612
000150 77 c9 eb 3d 56 d7 d3 bd 92 54 d6 3b d3 3d 9a 3d
       0.11513036 -0.103438064 0.0065408433 0.07531323
000160 f2 69 59 3d 0d 1c c1 3c 59 a2 8c 3c b1 8e 9f 3d
       0.053079553 0.023572946 0.017167257 0.07790888
000170 ac e7 45 bd 7c 38 b7 3d cc 45 d9 3d 5d d5 d7 3c
       -0.048316643 0.089463204 0.10609016 0.026346857
000180 10 9c 41 3c 16 10 e9 3d ec 8f 8e bd 7d ac 01 bb
       0.011816993 0.11380021 -0.06961045 -0.001978665
000190 ed 80 a8 bc 38 45 a5 bd 10 da 58 3d dd c0 a9 3d
       -0.02056929 -0.08069843 0.052942336 0.08288739
0001a0 38 a0 f2 bd c2 e9 00 be dd c9 03 be 49 22 55 3d
       -0.118469656 -0.12589172 -0.12869973 0.05203465
0001b0 1b f1 06 3e e3 da 46 be 67 32 03 3e d6 ea 9f 3d
       0.13177912 -0.19419436 0.12812196 0.07808463
0001c0 7f 58 b9 bd e8 51 d4 3d b8 e5 5e 3d 2c 88 0c 3e
       -0.090500824 0.10367185 0.054418296 0.1372382
0001d0 76 9d 97 bd 94 52 72 bd 76 6a 0c bd 6a b6 f5 bd
       -0.0740308 -0.059160784 -0.034281217 -0.11997683
0001e0 7b a2 b5 3d 2b d2 c2 3d e1 25 95 3d 50 d9 11 bd
       0.08868881 0.095127426 0.072826155 -0.035607636
0001f0 1c cd 96 bd 35 03 05 be 2e 3a 01 be d8 4c d3 3c
       -0.0736334 -0.12989505 -0.1261985 0.025793478
000200 3f b1 22 3e 56 1a ff bc fd 5d 95 3d b2 8c b2 bd
       0.15887927 -0.031140488 0.072933175 -0.08718242
000210 63 22 02 3e 31 cd 05 be c7 9c 03 be 87 dd 6b 3d
       0.1270843 -0.13066556 -0.12852775 0.05758431
000220 0a 5c 75 3d d7 eb 29 bd 82 70 ce 3c c6 d5 82 3d
       0.05990223 -0.04148468 0.025200132 0.0638843
000230 26 1f 1e 3e 5b ae d3 3d 5f a8 0e 3d b7 7e d8 bd
       0.1544157 0.1033599 0.03482854 -0.10571044
000240 a2 a9 83 3d d0 cc 9b bd 6d 4f f1 3d 53 ef c6 3d
       0.06428839 -0.07607424 0.117827274 0.09713616
000250 e2 44 06 bd a9 b5 b4 bd fe b0 80 bd 5f 9e a7 bc
       -0.032780536 -0.088237114 -0.062837586 -0.02046126
000260 15 4d a5 3d b6 f1 6c 3d af 08 a3 3d c2 32 29 be
       0.08071343 0.0578477 0.07960641 -0.16523269
000270 17 b4 28 3d 98 53 70 3d 1a b9 92 3d ab 84 b8 3d
       0.041187372 0.05867347 0.071642116 0.090096794
000280 21 15 b7 bd b6 35 ac 3d e9 a7 92 bd a3 4a 1c be
       -0.08939577 0.08408682 -0.071609326 -0.15262847
000290 1f 87 a8 3d 30 3b 64 bd 66 ee 90 bd 5d c5 0e 3e
       0.08228897 -0.055720508 -0.07076721 0.13942476
0002a0 a9 83 7f 3c 1c 31 84 bd a3 b3 de bd ef b1 ed 3d
       0.015595355 -0.06454679 -0.10874107 0.11606204
0002b0 50 29 57 bd 7a 11 08 3e 33 f3 71 bc 66 de 9a 3d
       -0.052529633 0.13287917 -0.014767456 0.075619504
0002c0 db 58 0e 3e 27 10 89 bc 9a 99 3a 3b be 4d 9a bd
       0.13901083 -0.016731335 0.0028472901 -0.075343594
0002d0 01 e8 08 3e a1 1f 93 bd f9 c7 87 3d 92 52 c8 bd
       0.13369752 -0.07183767 0.06629939 -0.09781374
0002e0 49 43 15 be 14 55 35 bd b4 8a 09 be 7c 47 88 3d
       -0.14576449 -0.04427059 -0.13431817 0.066542596
0002f0 2a d9 96 3c 41 32 6a 3d ff 95 f3 3d cc 46 99 3d
       0.018414099 0.057176832 0.11893844 0.074842066
000300 f3 78 f9 3d 83 33 b2 bd 98 b7 98 3d 40 87 77 bc
       0.12181272 -0.08701231 0.07456893 -0.01510793
000310 9b 0f a2 3d 6b 02 c5 3c bf 4a f8 bc e3 ba de bd
       0.07913133 0.024049005 -0.03030908 -0.108754896
000320 5c 28 c8 bd ee b8 f3 bd 3f 28 7c 3c 05 cb 8e bb
       -0.09773323 -0.11900507 0.015390455 -0.004357698
000330 ac 73 0a 3d 10 18 70 bd c6 f7 e0 bd b9 c7 db bd
       0.03380172 -0.058616698 -0.10984759 -0.107314534
000340 a9 25 69 bd 1c 87 86 bd 93 76 68 bd b6 08 6d bd
       -0.05692068 -0.06568739 -0.056753706 -0.057869636
000350 a9 5c c3 3c 78 66 f3 bd 37 45 f6 bd e2 df 30 3e
       0.023847895 -0.11884779 -0.120249204 0.17272905
000360 4e aa 82 bd 26 50 81 3d d3 17 9d 3d 01 de 14 bd
       -0.06380139 0.06314115 0.0767056 -0.036344532
000370 ad a4 8d 3c d0 57 15 bd 03 e1 07 3e d1 8a db 3d
       0.017290438 -0.036460698 0.13269429 0.107198365
000380 8a ef a5 3d 06 0b 57 3d dd 66 0c 3e 80 1f a3 bd
       0.08102329 0.052500747 0.13711114 -0.079649925
000390 6f 4b 52 3d dd ce ee bd b8 24 bd 3d e4 85 dd bd
       0.05134147 -0.1166055 0.09235519 -0.10816553
0003a0 dd f3 e0 3d 90 ca fb bd 76 73 c6 3b 88 9f 03 3e
       0.10984013 -0.12294495 0.0060562445 0.12853825
0003b0 5a 43 37 3c 51 6d 01 be 03 ef 62 bd d7 a4 d6 bd
       0.011185491 -0.12639357 -0.05540372 -0.104806595
0003c0 e0 6a 1c be 65 e9 37 3d f3 71 e2 ba 8a 2b 38 3e
       -0.15275145 0.044900317 -0.0017276391 0.17985359
0003d0 fd 5f a3 bd f2 3e 05 3e f6 c8 17 3d 55 3c c1 3d
       -0.07977293 0.13012293 0.037056886 0.094353355
0003e0 7e 66 c7 3d 4b 5d 50 bd f6 3c db 3d 6a d4 cd bd
       0.09736346 -0.05087022 0.10704987 -0.100502804
0003f0 16 c1 15 3d 6c 6d 4f 3c 68 36 69 bd 39 7c 3b 3e
       0.036561094 0.012660366 -0.05693665 0.18309106

StatefulPartitionedCall/Generator/dense_3/BiasAdd/ReadVariableOp:0 f4 [256]
000000 e9 bc e1 b9 ba 8f 65 3c ca d1 ad bc 93 d6 0f 3c
       -0.00043056093 0.014011318 -0.0212182 0.008779186
000010 e6 09 ee 3b c6 a1 8e bc 75 e7 3a 3d 8e 8f 80 3a
       0.0072643636 -0.017411124 0.04563089 0.0009808408
000020 ad a6 2f bc 68 0a 84 3b 62 62 26 bc 6f 3d 38 3a
       -0.010720891 0.004029561 -0.010155292 0.0007028197
000030 91 97 7d 3b c4 e4 d9 3b 61 f2 38 bc 84 e1 fa bb
       0.0038695077 0.0066495854 -0.011288256 -0.007656278
000040 ed 6f e1 3a 1e 33 45 bb c5 23 e9 bb 29 dc 22 bc
       0.0017199494 -0.0030090283 -0.0071148598 -0.009940186
000050 7b 73 1a 3d 1c 10 69 3b fd 37 1c bb ec e0 7b 3c
       0.037707787 0.003556258 -0.0023837083 0.01537345
000060 0d 7f 03 ba 20 7d 31 3c f2 5e 0b 3b 95 35 6d bc
       -0.00050161855 0.010833055 0.0021266309 -0.014478107
000070 24 cf 8c 3b 1c 60 3a 3c 6c 1a 54 3b 65 60 09 bd
       0.004297154 0.011375453 0.0032364381 -0.033539195
000080 f5 ae 91 bb b2 81 f9 bb 1e bf 73 bc 9c 16 d0 bc
       -0.0044459053 -0.007614338 -0.014877109 -0.025401406
000090 a8 07 19 bc e4 31 2b 3c e0 ef cf bb 48 9a d0 3b
       -0.009340204 0.010448907 -0.006345734 0.006366048
0000a0 77 ff 01 bb 65 c0 d7 ba e0 07 ab 3c e5 cc d2 3c
       -0.0019836107 -0.0016460536 0.020877779 0.025732467
0000b0 96 2a 0c 3b 2a 0f 39 ba 4d ec be 3c 3a 3b 83 3c
       0.0021387688 -0.00070594496 0.023306036 0.016019452
0000c0 a8 ac d0 bb f4 55 12 3c bc 14 aa 3b c3 08 1e 3d
       -0.0063682385 0.008931626 0.00519046 0.038582575
0000d0 45 27 9a 3b 13 e8 02 3c cb ef 1b bc 6d dc 15 3c
       0.0047043883 0.007989901 -0.00951762 0.009146792
0000e0 d9 d7 38 3a 57 d7 7b bc cc d5 06 bb bd 8f 11 bc
       0.0007051207 -0.015371165 -0.002057421 -0.0088843675
0000f0 fa 40 8b 3a 99 e1 ab bb 40 6a 1e bb df 5b a1 bb
       0.0010624223 -0.005245399 -0.0024172217 -0.004924282
000100 05 07 4f 3d 8a 3e f6 3c cb 15 d9 bb b3 af 45 3d
       0.050543804 0.030059118 -0.0066249124 0.048263263
000110 43 ea 1f 3b 84 5b 8f ba ee 81 dc 3c da ad 68 3a
       0.0024401105 -0.0010937308 0.026917424 0.00088760036
000120 ed 37 a1 3c cf 9d f4 bb f3 cd 39 bc b3 47 93 3c
       0.019679988 -0.0074651013 -0.011340606 0.017978525
000130 81 6a fc 3b 81 bf 40 3a 23 a1 38 bb 8f 53 ae 3a
       0.007703126 0.0007352755 -0.0028172217 0.0013300049
000140 da db 2e bc fb 29 26 3b 65 53 19 bb 2d da a4 39
       -0.010672534 0.0025354612 -0.0023395654 0.0003144307
000150 99 ae 5b bc c1 25 5f 3a 5e 9f 7a 3d 13 ee de bc
       -0.013408327 0.00085124007 0.06118714 -0.027213132
000160 52 34 9b ba d1 5e 18 3c d7 11 05 38 51 44 62 bc
       -0.0011841154 0.00929995 3.1726286e-05 -0.013810233
000170 98 e8 07 bc 56 e0 81 3c ee b4 95 bc 54 00 c1 3c
       -0.008295201 0.015854042 -0.01827475 0.023559727
000180 ee d6 24 bb 17 5e 14 3b ac 09 58 3b a3 35 e2 3c
       -0.0025152522 0.002263909 0.003296475 0.027613467
000190 3b 99 6b ba 14 c6 74 b9 39 3d a8 bb 65 78 93 3b
       -0.00089873717 -0.00023343443 -0.0051342514 0.004500436
0001a0 26 ed 8a bc 51 55 e1 ba a1 6f 36 bc 0f f3 52 3d
       -0.016958784 -0.0017191564 -0.011135013 0.05150133
0001b0 74 5c 63 3b ae 88 23 bd f1 9e 33 3c cd e2 97 3b
       0.0034692558 -0.03992527 0.010963188 0.004635191
0001c0 a5 b5 87 3c fd e9 1a bb 5d 3f 1c bb dc fc ab bb
       0.016566107 -0.0023638003 -0.0023841478 -0.005248649
0001d0 59 40 82 bc 1e 1b cc bc 82 ad c1 b8 11 c8 58 3c
       -0.015899824 -0.024915274 -9.2352755e-05 0.013231293
0001e0 74 10 4c ba b4 53 ce b9 3b 23 34 3b f3 dd 5b 3c
       -0.0007784434 -0.00039353746 0.002748682 0.013419616
0001f0 13 24 25 3b 70 c7 f8 ba 8b 17 7b ba b9 6b a3 3b
       0.0025198504 -0.0018980335 -0.00095783983 0.004987207
000200 5e 08 30 3c 17 d2 24 3c a6 b2 a5 3a 87 ca 5c bd
       0.010744182 0.010059855 0.0012641742 -0.053904083
000210 d6 13 9d 3c ce 1b 6e bb 4c dc ed 3b 85 7b 1c 3c
       0.019174498 -0.003633249 0.0072589274 0.009550934
000220 a7 ff 00 bd e2 8f 2d 3b 0c c7 86 3d ec 0f 05 bd
       -0.03149381 0.0026483466 0.06580934 -0.032485887
000230 25 b3 a1 ba 04 8f 32 3b b4 e4 b7 3c dd a7 a1 3b
       -0.0012336714 0.0027245888 0.022447921 0.004933341
000240 1e ec f8 3b 29 8d 24 bb fc e3 8e ba 71 b3 17 bd
       0.0075965067 -0.0025108552 -0.0010901685 -0.037036363
000250 26 61 43 b9 5d 4f 5f 3c 68 f9 c4 bb 0d bc ff 3c
       -0.0001863284 0.0136297615 -0.006011177 0.0312176
000260 a0 21 56 bc 51 d0 a8 ba 19 83 88 3b 45 b5 c9 bc
       -0.01306954 -0.0012879466 0.0041660187 -0.024622569
000270 6c e5 ce 3b 8f 55 dd 3b 30 9e 77 3c 6b db cb bc
       0.0063139703 0.006754584 0.015113398 -0.0248849
000280 6f f0 90 bb 0c 53 9f 3d ec fa 6a bc da ca 21 bd
       -0.004423193 0.07779512 -0.014342051 -0.039500095
000290 dd 08 9b 3c da 81 b1 b9 b4 b3 25 3c 27 b4 8b 3b
       0.018925125 -0.00033856818 0.010113645 0.004263419
0002a0 aa b0 00 ba 90 08 dd 3b 54 d3 58 3a db 1e 12 3b
       -0.00049091375 0.0067454055 0.00082712364 0.0022296223
0002b0 23 83 3d bb 4a 68 65 ba ad c6 38 bc 56 8a 5d 3a
       -0.0028917275 -0.0008751197 -0.011277837 0.00084510946
0002c0 51 ab 7e bc e4 62 08 3c d8 67 e8 3c 2c 51 0e bc
       -0.015543775 0.008324359 0.028369829 -0.008686345
0002d0 14 65 e5 3b a5 03 d5 bc d9 76 0d bc 24 d6 dc bb
       0.007000575 -0.026002714 -0.0086342925 -0.0067393947
0002e0 3d 24 e8 ba 3a e3 43 3c 03 90 96 39 bd 1c 49 3a
       -0.0017710995 0.0119560305 0.00028717527 0.0007671824
0002f0 b2 90 9d bc 0a 93 18 3c aa 3d 6a bc df 4a e8 bc
       -0.019234035 0.009312401 -0.014296928 -0.028356014
000300 84 8d 83 bb af 71 90 bb 00 23 21 3c 0d c7 c3 bc
       -0.0040146727 -0.0044080834 0.009835005 -0.023898626
000310 4c 2a f8 39 7b 56 1f bb 2d 92 21 bb d5 a6 76 b9
       0.0004733376 -0.002431302 -0.0024653778 -0.00023522538
000320 4c 6a 48 3c 69 5b 4f bc 43 72 36 3c 9d c2 f0 ba
       0.012232374 -0.012656071 0.011135641 -0.0018368546
000330 f3 38 10 bd f8 c5 4a ba 31 72 a9 bc ee 68 37 bb
       -0.03521056 -0.0007735188 -0.020684334 -0.0027986127
000340 98 88 a9 3b 15 35 88 b9 4e 7a 0d 3b e6 d5 13 bb
       0.005173754 -0.0002597949 0.0021587792 -0.0022557913
000350 0b 24 53 bc ef 9c fc bb 3f cd de 3a e0 f4 4e ba
       -0.012887011 -0.0077091376 0.0016998424 -0.00078947656
000360 c5 f1 e4 ba 5e b2 20 bc 1b f6 a5 3c cf 08 b0 b9
       -0.0017467072 -0.009808151 0.020258954 -0.000335759
000370 b1 ac cc ba 86 cd 36 3b ec 37 17 3b 2a 57 a6 3b
       -0.0015615431 0.0027893498 0.0023074104 0.0050763087
000380 2d be 46 3c d6 c4 72 bc 2a c4 16 bd 6a 6d d1 bc
       0.012130302 -0.014817437 -0.03680817 -0.025564868
000390 df 55 ff 3c 56 51 eb 3a 09 a4 fd b9 02 4a e0 bc
       0.031168876 0.0017953317 -0.00048378136 -0.02737904
0003a0 e7 5e 00 bc b7 c4 3e bc f7 ac e7 ba 87 f2 08 3a
       -0.0078351265 -0.01164358 -0.0017675449 0.00052241277
0003b0 e0 2c 66 bc e4 25 36 bc 25 d9 dc ba 35 ff ba 3c
       -0.014048785 -0.011117432 -0.0016849382 0.02282677
0003c0 38 b5 32 bc bd 1e 26 3b fb 57 eb 3b 85 07 05 3d
       -0.010907464 0.0025347911 0.007182119 0.032477874
0003d0 aa 05 1d bc 00 63 d9 3a 39 21 30 bc 7b 46 26 3c
       -0.00958387 0.001658529 -0.010750108 0.01014864
0003e0 51 96 84 3c 23 bc fc ba 2d bd 03 bc 51 a5 f1 39
       0.016184958 -0.0019282143 -0.0080407085 0.00046090272
0003f0 45 00 b0 bb 85 24 f1 3c 8e 4a 83 ba 68 15 94 3c
       -0.005371126 0.02943636 -0.0010016726 0.018076614

StatefulPartitionedCall/Generator/batch_normalization_3/batchnorm/sub:0 f4 [256]
000000 36 bb 47 3e 96 3a a6 3e 66 2c b3 be 0b 46 a7 bb
       0.19505009 0.32466573 -0.3499481 -0.0051047853
000010 92 a5 82 be 0d 25 77 be 90 03 f4 bd a5 75 15 3b
       -0.25516945 -0.24135228 -0.11914742 0.0022805717
000020 a4 cd 55 3e 75 ce b0 be 87 68 b1 be af 00 b1 be
       0.20879227 -0.34532514 -0.3465006 -0.34570834
000030 87 25 9c 3e 5c d5 80 bc 9d 7b 8c 3e 74 bd d0 bb
       0.3049738 -0.015726738 0.2743806 -0.006370241
000040 dd ff d4 3b f3 2a e1 be 1b 25 90 be 32 20 8e be
       0.006500228 -0.4397808 -0.2815331 -0.27758938
000050 5b d3 31 be 12 fb 2e be e2 a9 0c 3c 29 89 8f bb
       -0.17365782 -0.17087963 0.008585425 -0.0043803644
000060 50 44 c1 3d ff 92 ca 3c 8f 18 de 3e 1e ff 15 3d
       0.09436858 0.024728296 0.43378112 0.03662025
000070 a9 f7 7f 3e 1e 32 b8 be e4 b2 a1 3e 43 bf 5e bb
       0.24996819 -0.35975736 0.31581795 -0.0033988513
000080 29 c2 98 bb 26 63 72 3c a9 4b 27 3e 53 b6 ed ba
       -0.0046618176 0.014794147 0.16337456 -0.0018136002
000090 3d 54 0d 3e f6 88 d5 be 5b b7 20 3c 6e fb 23 3d
       0.13801666 -0.41706055 0.00980934 0.040034704
0000a0 22 b2 2e 3d ea 54 ef 3e 08 b5 4a be 07 68 ac bd
       0.04265035 0.46744472 -0.1979562 -0.08418279
0000b0 53 eb a9 be b8 43 b5 bd 84 1a c0 ba 4e cc 36 3e
       -0.3318735 -0.08850807 -0.001465634 0.17851374
0000c0 62 0c 48 bd 8f e9 62 be 39 a1 29 bb 7a 9e 1c 3c
       -0.048839934 -0.22159408 -0.002588345 0.009559268
0000d0 fc 13 57 bc 6d b0 51 bc 41 21 69 be 30 15 9a 3e
       -0.013127323 -0.012798411 -0.22766592 0.3009429
0000e0 6d 5d 7e be 4d 1f 1b be 4e 00 e1 bc 36 9d 84 3c
       -0.24840327 -0.15148659 -0.027465966 0.016188245
0000f0 32 c2 94 3a 89 98 88 3b 80 23 b4 bb 0d 45 e0 3b
       0.0011349379 0.004168574 -0.005497396 0.006844169
000100 08 f3 e2 bb e3 48 36 3c a0 bc 03 be 2d d0 17 bc
       -0.0069259442 0.011125776 -0.12864923 -0.009265942
000110 79 2b 63 bc 0a b0 af 3e 84 92 c9 3b 72 57 a1 3e
       -0.013865345 0.34313995 0.006151499 0.31512028
000120 63 30 30 3c 79 b0 af bb 0c bb 59 3b af cd 00 3c
       0.010753724 -0.0053616134 0.003322306 0.007861539
000130 d8 62 ca 3b ed 26 11 3c 93 b0 85 be 2c f6 9e ba
       0.006176334 0.008859378 -0.26111278 -0.0012127808
000140 ec 2e ea bb ff 9c 98 3e 11 29 c3 3b 4c 6c 6b 3c
       -0.007146707 0.2980728 0.005955823 0.014369082
000150 50 22 ff 3b 81 08 84 be e2 ff 44 bc 2e 4c fd bb
       0.007786073 -0.25787738 -0.012023898 -0.0077300286
000160 8e b8 a4 be 97 e1 fb 3b 20 9d 3e bb ab af 01 3b
       -0.32172054 0.0076868045 -0.0029085353 0.0019788544
000170 56 6a b8 3c 76 13 d2 3d 7a 1b a7 3e 33 c5 15 bd
       0.022511642 0.10257618 0.3263815 -0.036565017
000180 90 e0 3e 3c f8 4b 33 3d 57 e0 0a bd d8 b6 b4 bb
       0.01165022 0.04377362 -0.033905353 -0.0055149607
000190 2d 9c 8d be 33 8c a8 3e 83 93 7b bc 63 9c e9 bc
       -0.27658215 0.32919464 -0.015354994 -0.028516954
0001a0 c6 b4 b6 bb a1 67 69 3e 4a 4f a3 3b 69 bc 54 be
       -0.005575749 0.22793438 0.004983817 -0.20774998
0001b0 df 46 2d bd a2 ab 1d bd 08 b3 82 bb 52 ce d5 bb
       -0.042303916 -0.03849376 -0.0039886273 -0.0065248394
0001c0 6b 0d 50 bc e9 0d 6f 3e 0e 13 43 be a8 66 81 bd
       -0.012698512 0.2334515 -0.19050238 -0.06318408
0001d0 86 a5 0b bc 7c 67 e3 bb 9b 59 0b 3c f4 22 5b be
       -0.008523351 -0.0069398265 0.00850525 -0.21400052
0001e0 da 95 ad bb 93 c0 d6 3e 70 fe 4d be 7d f2 ba 3a
       -0.0052974047 0.41943797 -0.20116591 0.0014262941
0001f0 ba fd 28 3e 38 36 bd 3b 4c f1 38 3e 1f a2 3e 3e
       0.16503039 0.0057742856 0.18060797 0.18616532
000200 4c 70 61 bd 38 39 6d 3a 0e 1d 74 3c 20 2a 54 bc
       -0.055038735 0.0009049359 0.014899505 -0.0129494965
000210 1a 21 b4 be 04 11 9b be ba 5e 8f 3e cb 1e 61 3e
       -0.35181504 -0.3028642 0.28001958 0.21984403
000220 a8 ff 64 3e f9 ed 6c 3c f7 3a 81 bc 95 85 1d 3b
       0.2236315 0.014461034 -0.015775187 0.002403592
000230 98 ed 9b bd 01 23 f1 3d 3c b4 10 3e e5 7b 29 3e
       -0.07613677 0.117742546 0.14131254 0.16551168
000240 d6 18 d9 3b 6a 93 84 3c 08 e9 fa ba 3b 22 27 3d
       0.006625275 0.016183574 -0.0019142935 0.04080413
000250 c8 70 c8 3b 1c 37 68 bc e4 e3 9b 3e a4 d9 f0 ba
       0.00611696 -0.014173295 0.30447304 -0.0018375409
000260 ed ef 06 3f d1 e2 1d be 68 0b 88 3b 38 dd d9 3b
       0.5270985 -0.15418555 0.0041517504 0.006648686
000270 fd 03 0c 3c 47 66 db 3b eb e4 d0 3e 7b 0e 71 3b
       0.008545873 0.006695542 0.4079965 0.0036782313
000280 7f 34 95 3c 13 84 38 3c 49 34 a2 be 01 1b 3f 3e
       0.018213509 0.011261958 -0.31680515 0.18662645
000290 d7 1c 9e 3e 35 28 d3 bd 82 a8 67 3b 95 1c e1 3c
       0.30881378 -0.10310403 0.0035348241 0.02747945
0002a0 14 2c a9 3c f8 5f 82 be 66 5f ba 3c e4 8a 61 bc
       0.0206509 -0.25463843 0.022750568 -0.013766024
0002b0 1c c4 6f bb eb 6b 02 be 40 fe b2 be 32 a7 16 3a
       -0.0036585396 -0.1273648 -0.34959602 0.000574696
0002c0 03 06 68 3e c4 9b da bc d5 68 e2 bb 9b 67 4b 3e
       0.22658543 -0.026685603 -0.0069094696 0.19863741
0002d0 9d e4 87 3e 0a cd df 3b 41 02 97 be 74 e8 09 bd
       0.26541606 0.0068298625 -0.29493907 -0.03366895
0002e0 6e 2f 4e be b6 37 72 be 03 65 c2 be 0e 1b ed 3b
       -0.2013528 -0.23654065 -0.3796769 0.007235891
0002f0 57 1f 29 3c 9c 65 e4 3e 3b 70 f1 bb 79 0a 26 3e
       0.010322413 0.44608772 -0.0073681152 0.16214933
000300 89 aa 71 be 65 31 ce 3d 0f 5d a3 3e 98 6f b8 3a
       -0.2360021 0.10068015 0.31906936 0.0014071343
000310 83 a6 ec 3b 24 3d 44 3c fc 29 4b be d7 a0 0c be
       0.007221998 0.011977468 -0.19840235 -0.1373323
000320 7b 3f 8f be e6 7d b2 bc a6 49 04 3c c3 88 02 3d
       -0.2797812 -0.021788549 0.0080742 0.031868707
000330 e7 26 3c 3e 76 40 ce bb f5 dc e7 bb 4b 8d 85 ba
       0.18374215 -0.0062943054 -0.0070759007 -0.0010189203
000340 07 f2 b1 bb 6b 18 b4 3c b0 de d4 3b 3d d2 a0 be
       -0.0054304632 0.0219843 0.006496273 -0.314104
000350 a0 79 31 3e f9 ca d4 bb b0 03 50 3a 12 0d 7d 3e
       0.17331553 -0.006493923 0.000793512 0.24712017
000360 94 8e 80 3c 5e 49 dd 3d 7e b0 7b be 7e f2 49 3e
       0.015692987 0.10805009 -0.24579045 0.1972141
000370 af e9 af 3e 43 5b 12 3e 11 8b 90 3e 15 41 c4 be
       0.34357974 0.14292626 0.282311 -0.38330904
000380 a4 b0 6a bd 80 92 86 bd 87 fd 91 bc 65 d0 51 3c
       -0.057297364 -0.065709114 -0.017821087 0.012806033
000390 16 02 9f bd f4 fa e5 3e e9 c1 99 be d2 72 ed bd
       -0.0776407 0.44918025 -0.30030754 -0.11594166
0003a0 de 5a 19 be fa b9 02 3d e2 7a 1a 3c 47 20 70 3d
       -0.1497607 0.031915642 0.009428712 0.058624532
0003b0 51 fd 57 3c 4c e4 99 3d f5 1b 8b 3b fe 41 ae 3e
       0.013182954 0.07514247 0.004245276 0.34034723
0003c0 65 e8 20 3e cb 49 89 3e c7 b2 0b 3c 7f 0b 93 bb
       0.15713651 0.26814112 0.008526511 -0.0044874544
0003d0 47 40 ab 3e ab 98 22 3e 71 35 2a bc 9c 40 0d 3e
       0.33447477 0.1587855 -0.010388718 0.13794178
0003e0 05 10 8d 3c 25 ce c2 3b bc c1 bd 3e fa 8c 36 3c
       0.017219553 0.0059449845 0.3706187 0.01114201
0003f0 cf 70 9a 3b 4f c1 8f be 59 be 42 3e 10 a9 77 bc
       0.004713155 -0.2807717 0.19017924 -0.015115991
